log/epoch-45.pth (torch_old, 43962 bytes, 32 tensors)

conv1.0.weight f4 [2, 1, 3, 3]
0	0x3eb9f506	0.3631975
1	0x3eab28ae	0.33429474
2	0x3ec96c45	0.39340416
3	0x3f0be7ca	0.5465056
4	0x3f8325c3	1.0245899
5	0x3f1c0e58	0.60959387
6	0x3f89be4d	1.07612
7	0x3f566316	0.83744943
8	0x3ed219a8	0.410352
9	0x3f0ee5d2	0.5581943
10	0xbf43fad9	-0.7655464
11	0xbfe95f5f	-1.823223
12	0xbea6cb4b	-0.32576975
13	0xbfc4bb47	-1.5369653
14	0x3d33988a	0.043846644
15	0xbf68f02b	-0.9099147
16	0xbeff94bd	-0.49918166
17	0x3e6496b0	0.22323108

conv1.0.bias f4 [2]
0	0x3f817b50	1.0115757
1	0x3ea17066	0.31531066

conv1.1.weight f4 [2]
0	0x3f9a9b62	1.2078669
1	0x3fa1ad0c	1.2630935

conv1.1.bias f4 [2]
0	0x3f23ceb7	0.63987297
1	0x3cc88886	0.024479162

conv1.1.running_mean f4 [2]
0	0x3fdfac4d	1.7474457
1	0xbeb187a7	-0.34673807

conv1.1.running_var f4 [2]
0	0x4007b5b3	2.120465
1	0x3ffc2edd	1.9701802

conv21.0.weight f4 [4, 2, 3, 3]
0	0x3e26c85c	0.16287369
1	0x3ea85d53	0.328837
2	0xbd14ef1f	-0.036360856
3	0x3f8ebcf3	1.1151413
4	0xbf3ef3b7	-0.7459063
5	0xbee9ea07	-0.4568636
6	0x3f3e4a5b	0.7433221
7	0xbf212056	-0.62939966
8	0x3d3373d2	0.043811627
9	0x3f152050	0.5825243
10	0xbe4a4955	-0.19754536
11	0xbddc73c7	-0.1076427
12	0xbf5132ff	-0.8171844
13	0x3fae876e	1.363508
14	0x3d1603b3	0.03662462
15	0xbf725c54	-0.9467213
16	0x3ec78f2f	0.38976428
17	0xbea600fc	-0.32422626
18	0xbe59280c	-0.21206683
19	0x3f03292e	0.5123471
20	0xbe4be0e3	-0.19910006
21	0x3fa0ba80	1.2556915
22	0xbec05cf5	-0.3757092
23	0xbf1488df	-0.5802135
24	0xbef65d66	-0.48118132
25	0xbf07c576	-0.53035676
26	0x3eceb81a	0.40374833
27	0xbc940e19	-0.018073129
28	0xbe6ba697	-0.23012768
29	0x3ee752ee	0.45180458
30	0x3e91b448	0.28457856
31	0x3f9bb2a2	1.216389
32	0x3f830954	1.0237222
33	0x3d25ae47	0.040449407
34	0x3f07cf25	0.5305045
35	0xbed81487	-0.4220316
36	0xbe0f10d3	-0.13971262
37	0x3fa0d29d	1.2564274
38	0x3f2c5de8	0.6733079
39	0x3ea5c11c	0.32373893
40	0x3f48c491	0.78424937
41	0xbdf61e0f	-0.12017452
42	0x3e80a5b6	0.25126427
43	0xbe40c94b	-0.18826787
44	0xbf16c9b0	-0.589015
45	0x3e15d29e	0.14631125
46	0xbd82549d	-0.06363795
47	0xbfa58b3e	-1.2933118
48	0x3f0ffeb1	0.56248003
49	0xbef70908	-0.48249078
50	0xbf9ad63e	-1.2096632
51	0x3f0fa909	0.561173
52	0xbf5f2979	-0.8717266
53	0xbf7e19f1	-0.99258333
54	0xbe8297b9	-0.2550638
55	0xbea7993e	-0.32734102
56	0xbee5bcbe	-0.4487056
57	0x3f22e9e1	0.6363812
58	0x3f9f3c7a	1.2440331
59	0x3ef0a2e8	0.46999288
60	0xbf24cfc5	-0.6437953
61	0xbf58f51e	-0.8474902
62	0x3e82792e	0.25483078
63	0x3e21265a	0.15737286
64	0x3d867a2f	0.065662734
65	0x3c317620	0.010831386
66	0x3da7bfa1	0.08190847
67	0xbf907432	-1.128546
68	0xbebf57d0	-0.37371683
69	0x3dd3fdbb	0.103511296
70	0xbee03af8	-0.4379499
71	0xbf00aacf	-0.50260633

conv21.0.bias f4 [4]
0	0x3e34a30a	0.1764032
1	0xbe557e74	-0.2084902
2	0x3f880584	1.0626683
3	0x3f85cf50	1.0453892

conv21.1.weight f4 [4]
0	0x3fa58c26	1.2933395
1	0x3fa93bd4	1.3221383
2	0x3f9c6b23	1.2220196
3	0x3f9ffab1	1.249838

conv21.1.bias f4 [4]
0	0xbf10be55	-0.56540424
1	0xbcccf667	-0.025019838
2	0x3e995ae3	0.29952154
3	0x3e75c514	0.2400096

conv21.1.running_mean f4 [4]
0	0x3f3786d4	0.71690106
1	0x3f87d5e1	1.0612146
2	0x3fa9345e	1.3219106
3	0x3dcf9f1a	0.10137768

conv21.1.running_var f4 [4]
0	0x409db08f	4.9278026
1	0x4041439d	3.0197518
2	0x4161b1eb	14.105937
3	0x400fe308	2.248232

conv22.0.weight f4 [4, 4, 3, 3]
0	0xbf51ca35	-0.8194917
1	0xbfb2ed92	-1.3978751
2	0xbf6e1570	-0.9300146
3	0xbebf6cf9	-0.37387827
4	0xbf5f1c20	-0.8715229
5	0xbeed5f64	-0.4636184
6	0x3e3836f3	0.17989711
7	0xbdc0376f	-0.09385573
8	0xbf66c654	-0.90146375
9	0x3f2d3c23	0.67669886
10	0x3ef2b9ad	0.47407284
11	0xbe272224	-0.16321617
12	0xbecff19c	-0.4061402
13	0x3f041066	0.5158752
14	0x3e869bb9	0.26290682
15	0xbfa9c0c1	-1.3261949
16	0xbe420471	-0.18947007
17	0xbd986ded	-0.07442842
18	0xbf0b2acd	-0.54362184
19	0x3c513abb	0.01277035
20	0x3e283a1b	0.16428415
21	0xbcfa92ba	-0.030587543
22	0xbee0c2ec	-0.43898714
23	0xbe387f01	-0.18017198
24	0x3d8e3ced	0.069452144
25	0x3eab7678	0.33488822
26	0x3e88834a	0.26662666
27	0xbeae857b	-0.34086213
28	0xc00c2781	-2.1899111
29	0xbfd9c3bd	-1.701286
30	0xbea0c938	-0.31403518
31	0xbe31832d	-0.17335196
32	0x3f3d16f3	0.7386314
33	0x3e89a574	0.26884043
34	0x3d9f3755	0.077742256
35	0x3efe8aac	0.49715173
36	0xbec98dd3	-0.39366016
37	0xbf3299bc	-0.6976583
38	0x3ea12b63	0.31478414
39	0x3ae676db	0.0017583029
40	0xbee01625	-0.43766895
41	0xbeb14e96	-0.3463027
42	0xbf14ee23	-0.5817587
43	0xbf32ad42	-0.6979562
44	0xbd700510	-0.058598578
45	0xbf316e69	-0.693091
46	0xbf417efa	-0.75584376
47	0xbf7de80c	-0.991822
48	0x3dc87c76	0.09789364
49	0xbec3a634	-0.3821274
50	0xbf6c352b	-0.9226863
51	0x3f7715e4	0.9651778
52	0x3e3ea1b5	0.18616374
53	0x3d5e15e0	0.05422008
54	0x3f924a7a	1.1428978
55	0x3fad6d45	1.3548971
56	0x3e115ac9	0.14194788
57	0xbe1fe979	-0.15616407
58	0xbd991f2a	-0.07476647
59	0xbe207823	-0.15670829
60	0xbef1b210	-0.47206163
61	0xbe3206c6	-0.17385396
62	0xbba6ead9	-0.005093914
63	0xbf3b603a	-0.73193705
64	0x3f161664	0.58627915
65	0x3f844896	1.0334651
66	0x3df6dfa2	0.12054373
67	0x3e9664f4	0.29373896
68	0x3f44c1ef	0.7685842
69	0xbd934f61	-0.07192875
70	0xbdef188d	-0.116746046
71	0xbe1909cf	-0.14945148
72	0xbef7ecf9	-0.48422983
73	0xbe9cdc3e	-0.3063678
74	0x3f3ffe53	0.7499744
75	0xbf53223c	-0.8247411
76	0x3e0c55d7	0.1370462
77	0x3f27b9c9	0.6551786
78	0x3f13be97	0.5771269
79	0x3ead494b	0.3384498
80	0x3f3d9dde	0.7406901
81	0x3d943cbc	0.07238147
82	0x3d8cc63e	0.06873749
83	0xbeea542a	-0.45767337
84	0x3ef2e321	0.4743891
85	0x3f1d9746	0.6155895
86	0xbe163b87	-0.14671145
87	0x3f1d01e0	0.61330986
88	0x3f8d0a66	1.1018798
89	0x3d9f0987	0.07765489
90	0x3ea1ddef	0.31614634
91	0xbd0f379d	-0.034965146
92	0xbe99218a	-0.299084
93	0xbdd2017a	-0.10254188
94	0x3f22d6f0	0.6360922
95	0x3f860f42	1.0473406
96	0x3f051b51	0.51994807
97	0x3f9a7349	1.2066432
98	0x3f83ef1d	1.0307347
99	0xbd7ae711	-0.06125552
100	0xbf1460b3	-0.5796005
101	0xbf13c2fe	-0.5771941
102	0xbf449885	-0.76795226
103	0xbe817a71	-0.25288728
104	0xbf0fef36	-0.5622438
105	0xbeba91f2	-0.36439472
106	0x3e091003	0.13385014
107	0xbeaf5fa6	-0.3425266
108	0xbea1b442	-0.31582838
109	0xbeb32ede	-0.34996694
110	0xbeec5472	-0.46158177
111	0xbf3dcc39	-0.74139744
112	0xbf265cbb	-0.64985245
113	0xbf2a6eab	-0.66575116
114	0x3f36d111	0.7141276
115	0x3e79a330	0.24378657
116	0xbeec2880	-0.4612465
117	0x3f83000b	1.0234388
118	0xbe996967	-0.29963228
119	0x3c6a1c27	0.014288939
120	0xbfa1ae73	-1.2631363
121	0xbdfb3005	-0.122650184
122	0x3f20cf1a	0.6281601
123	0x3f08c71e	0.5342883
124	0xbe5a91c9	-0.21344675
125	0xbc1f55dd	-0.009725061
126	0xbe02c73a	-0.12771311
127	0xbf10d682	-0.5657731
128	0xbd405da2	-0.046964295
129	0x3f26ea04	0.6520083
130	0x3e94890b	0.29010805
131	0xbe405313	-0.1878169
132	0x3f72d812	0.9486095
133	0x3e700020	0.23437548
134	0xbee40e58	-0.44542193
135	0x3dbd7d92	0.09252466
136	0x3e19f70e	0.1503565
137	0x3eb40c27	0.35165522
138	0x3e6cd2aa	0.23127237
139	0x3f263643	0.64926547
140	0x3f5f7d7c	0.8730085
141	0x3e727cf4	0.23680478
142	0xbf4ee60c	-0.80819774
143	0xbf55c431	-0.8350249

conv22.0.bias f4 [4]
0	0x3f2a7661	0.6658688
1	0xbe248ca9	-0.16069283
2	0x3c1b0492	0.009461539
3	0xbdca73d8	-0.09885377

conv22.1.weight f4 [4]
0	0x3fd9ecd1	1.7025396
1	0x3f97240d	1.1807877
2	0x3f9bb395	1.2164179
3	0x3f8298c1	1.0202867

conv22.1.bias f4 [4]
0	0xbe7feb4a	-0.249921
1	0x3e834ca1	0.256444
2	0x3eb8e36e	0.36111015
3	0x3cae57b5	0.021282056

conv22.1.running_mean f4 [4]
0	0xc028b79b	-2.6362064
1	0xbe1a6967	-0.1507927
2	0x4018f065	2.3896725
3	0x3e0bd418	0.13655126

conv22.1.running_var f4 [4]
0	0x41f29dd0	30.327057
1	0x413755ee	11.458479
2	0x415a75b2	13.653734
3	0x41001a47	8.006415

conv31.0.weight f4 [8, 4, 3, 3]
0	0xbe67a548	-0.22621644
1	0xbe3eef40	-0.18645954
2	0x3ea5ebe5	0.32406536
3	0x3df9e33e	0.12201546
4	0xbe497432	-0.19673231
5	0x3f1cf30c	0.6130836
6	0x3ea45f14	0.3210379
7	0x3f6cb314	0.9246075
8	0xbdfad511	-0.122476704
9	0x3e580382	0.21095088
10	0x3e2c38fc	0.16818613
11	0xbf334684	-0.70029473
12	0xbea1193d	-0.31464568
13	0x3f22646b	0.63434476
14	0x3fec1a82	1.844559
15	0x3e422308	0.18958676
16	0xbf1f4c6e	-0.62226
17	0x3df54645	0.119762935
18	0xbdd19564	-0.10233572
19	0x3f6299c9	0.8851591
20	0xbd964404	-0.07337192
21	0xbe105ffd	-0.14099117
22	0x3e97cf8b	0.2965053
23	0xbda26fbe	-0.079314694
24	0x3f1237eb	0.57116574
25	0x3d96e2c7	0.07367473
26	0x3f2c8e53	0.6740467
27	0xbf277c6e	-0.6542424
28	0xbd5f52e2	-0.054522403
29	0xbee7d6f3	-0.4528118
30	0x3e291ebe	0.16515633
31	0xbf0b7389	-0.5447317
32	0x3ec040eb	0.37549528
33	0x3e878e29	0.26475647
34	0xbec64a53	-0.3872858
35	0xbf481caf	-0.7816877
36	0x3f38bc35	0.7216218
37	0x3fb7c754	1.4357705
38	0x3eb01e50	0.34398127
39	0xbe39c8f3	-0.18143062
40	0xbefcee6a	-0.49400645
41	0x3d976aba	0.07393403
42	0x3e66c840	0.22537327
43	0x3fd07f97	1.6288937
44	0x3fd23544	1.6422505
45	0xbe274429	-0.16334595
46	0xbd0da3eb	-0.034580152
47	0x3e4635e1	0.1935649
48	0x3ea2443c	0.31692684
49	0x3f09beac	0.5380657
50	0x3e3e6095	0.1859153
51	0xbd6f2969	-0.0583891
52	0xbcd1404e	-0.025543358
53	0xbeb47a15	-0.3524939
54	0xbf42a9b9	-0.76040226
55	0xbf788bff	-0.9708862
56	0x3d9074c6	0.07053523
57	0x3f3d3673	0.7391121
58	0xbe4f40f0	-0.20239615
59	0xbe932869	-0.28741768
60	0x3ef88aa0	0.48543262
61	0xbf38d09d	-0.7219332
62	0xbef4c3a2	-0.47805506
63	0x3e314d83	0.17314725
64	0xbe7bc429	-0.24586548
65	0x3e10b530	0.14131618
66	0x3f47726a	0.77908957
67	0x3e5e2192	0.21692494
68	0x3e83e793	0.25762615
69	0x3f462a9c	0.77408767
70	0x3dc00c8a	0.09377392
71	0xbd7623b6	-0.06009265
72	0x3da86b82	0.082236305
73	0xbea9894e	-0.33112568
74	0xbe7a3327	-0.24433576
75	0x3f3c5b80	0.7357712
76	0x3f383697	0.719583
77	0xbf80d740	-1.0065689
78	0x3f66a4d5	0.90095264
79	0xbf08769f	-0.53306
80	0xbf741d69	-0.95357376
81	0x3e35acd5	0.17741711
82	0x3f3522cc	0.7075622
83	0xbeb1c53d	-0.34720793
84	0x3e58324e	0.2111294
85	0xbf670a24	-0.9024985
86	0x3ed5c4f8	0.41751838
87	0xbf7cdb7a	-0.98772395
88	0xbc9bcf9a	-0.01901989
89	0x3f04f74a	0.51939833
90	0xbee30e13	-0.44346675
91	0xbf70f488	-0.94123125
92	0xbcac9397	-0.02106647
93	0xbe44dbff	-0.19224547
94	0x3fcaf677	1.5856465
95	0xbeb34673	-0.35014686
96	0xbf25afc7	-0.6472134
97	0x3e484174	0.19556218
98	0x3e2494d5	0.160724
99	0x3f156b73	0.5836708
100	0xbe81e58a	-0.25370437
101	0xbf1c59fd	-0.6107481
102	0xbe16038b	-0.14649789
103	0xbe87d809	-0.2653201
104	0x3ee9a02f	0.45630023
105	0x3f01ff64	0.5078032
106	0x3de5a546	0.11213164
107	0xbf2f06f5	-0.6836999
108	0xbe9aa373	-0.30202827
109	0x3e27269a	0.16323319
110	0xbda1decf	-0.079038255
111	0xbee8e5da	-0.45487863
112	0xbf8f4eb1	-1.119589
113	0x3f0b64d9	0.54450756
114	0xbda3b1e4	-0.07992914
115	0xbf7520ad	-0.95752984
116	0xbeedd430	-0.4645095
117	0xbd600d84	-0.05470039
118	0xbf9f934b	-1.2466825
119	0x3f0dca4f	0.55386823
120	0x3f7a80dd	0.9785288
121	0x3f2997db	0.6624734
122	0x3e3bee68	0.18352664
123	0xbe2bcdbe	-0.16777703
124	0x3f47d655	0.7806142
125	0x3f1f0f9a	0.6213318
126	0xbddfcfb8	-0.10928291
127	0xbf02ee42	-0.511448
128	0xbe9a56a5	-0.3014423
129	0x3f362615	0.7115186
130	0x3ec8626a	0.39137584
131	0xbf7a9113	-0.97877616
132	0xbea9f6b0	-0.3319602
133	0xbf645c51	-0.89203364
134	0xbf0bad54	-0.5456135
135	0xbd5e443d	-0.054264296
136	0x3f187066	0.59546506
137	0x3f202515	0.6255658
138	0x3f0caa25	0.5494712
139	0xbee0a865	-0.43878475
140	0xbe9fc778	-0.3120687
141	0xbf82c2ed	-1.0215737
142	0x3d7eed74	0.06223817
143	0xbecc84a9	-0.39944962
144	0x3e9a8756	0.30181378
145	0xbeae2186	-0.3400995
146	0x3de702a2	0.11279799
147	0x3ec403cf	0.38284156
148	0xbe4b0bd4	-0.19828731
149	0xbe1e0678	-0.15432155
150	0xbd308e81	-0.043104652
151	0x3e5380ad	0.20654555
152	0x3f9b2c3a	1.2122872
153	0xbf8dbab2	-1.10726
154	0x3f6492e2	0.89286625
155	0xbefa3c66	-0.48874205
156	0xbd7bf197	-0.061509695
157	0xbee912f7	-0.45522282
158	0xbf5a0d87	-0.8517689
159	0x3db4226b	0.08795627
160	0xbfbf8451	-1.4962255
161	0xbd85b6b8	-0.065289915
162	0xbe2b4387	-0.16724978
163	0xbeaad06f	-0.33362147
164	0x3f064f16	0.52464426
165	0x3e850631	0.25981286
166	0xbebb4c57	-0.3658168
167	0x3f01f4eb	0.5076434
168	0x3e705cdb	0.23472922
169	0xbf8d2c72	-1.1029189
170	0xbd3062ad	-0.043062855
171	0xbf4bc310	-0.79594517
172	0xbea69c1d	-0.3254098
173	0x3e9992d3	0.2999483
174	0x3f9f6f55	1.2455851
175	0x3e3c4d5c	0.18388885
176	0xbe6c9c72	-0.23106554
177	0xbf139139	-0.5764347
178	0xbd09d3e9	-0.03364936
179	0x3e936796	0.28789967
180	0x3dbb3488	0.09140879
181	0xbf2e85ca	-0.68172896
182	0x3f8e41e1	1.1113855
183	0xbea6fb38	-0.3261354
184	0xbe40469a	-0.18776932
185	0xbeb2b364	-0.3490249
186	0x3dae15a5	0.08500222
187	0xbf128c38	-0.57245207
188	0xbf84616f	-1.0342234
189	0xbe1f346e	-0.15547344
190	0xbf0c01b8	-0.5469012
191	0xbec4b113	-0.38416347
192	0x3d962296	0.073308155
193	0xbec2eefc	-0.38072956
194	0xbdc1de86	-0.09466271
195	0x3ea9481f	0.33062837
196	0x3f0c263e	0.5474585
197	0xbed30d3d	-0.41221038
198	0xbe78e784	-0.24307066
199	0x3f8f031b	1.1172823
200	0x3e1a694c	0.1507923
201	0xbeae5b54	-0.34054053
202	0x3e894ca6	0.2681629
203	0x3c22c22b	0.009933989
204	0xbefcefe1	-0.49401763
205	0x3ef620dd	0.48071948
206	0x3d5d1df0	0.05398363
207	0xbcf25107	-0.029579652
208	0xbff5b55d	-1.9195973
209	0xbd400e23	-0.04688848
210	0xbf3b4b21	-0.7316151
211	0xbf91b51e	-1.1383398
212	0x3f1a71b2	0.60329735
213	0x3dbf960f	0.09354793
214	0xbf0d8721	-0.55284315
215	0xbe9a2cf4	-0.30112422
216	0xbe4b04f2	-0.19826105
217	0xbeb2400f	-0.34814498
218	0xbf6e7d77	-0.93160194
219	0xbdc77dcf	-0.09740793
220	0x3f21705a	0.6306206
221	0xbe7bbb3c	-0.24583143
222	0xbf1f1766	-0.6214508
223	0x3d83da23	0.06438091
224	0x3f09389f	0.5360202
225	0xbf22ef66	-0.63646543
226	0x3d987a09	0.07445151
227	0xbf6326a5	-0.8873084
228	0xbec964a2	-0.3933459
229	0xbdec0369	-0.11524088
230	0x3f2130df	0.62965196
231	0x3dcb94f5	0.09940521
232	0x3e8001a3	0.2500125
233	0x3ea43288	0.32069802
234	0xbf0cf798	-0.550653
235	0xbd95d73b	-0.073164426
236	0x3ea18267	0.31544802
237	0x3fb50e4d	1.4144989
238	0x3f9b5965	1.2136656
239	0xbf42a9b3	-0.7604019
240	0xbeb3531c	-0.35024345
241	0xbf0f69d6	-0.5602087
242	0x3e0ad14b	0.13556401
243	0x3e3d9f59	0.18517818
244	0xbf63d041	-0.88989645
245	0xbea3ef30	-0.32018423
246	0xbe450c85	-0.19243057
247	0x3e150715	0.14553483
248	0xbea0a8a0	-0.3137865
249	0x3e668583	0.22511868
250	0x3e9b042e	0.30276626
251	0x3f686a28	0.9078698
252	0x3df44455	0.11927096
253	0x3ef6d354	0.48208106
254	0x3f92ba8d	1.1463181
255	0x3f0ba134	0.5454285

conv31.0.bias f4 [8]
0	0x3ee3776a	0.44427043
1	0xbe69e63d	-0.22841735
2	0xbebf690d	-0.37384835
3	0xbdab8ad2	-0.08376087
4	0xbe6612a8	-0.22468054
5	0x3d46d573	0.048543405
6	0xbee18216	-0.4404456
7	0xbd0dc6eb	-0.03461353

conv31.1.weight f4 [8]
0	0x3f7fc08a	0.99903166
1	0x3f8fff57	1.1249799
2	0x3fa8dc14	1.3192163
3	0x3faf45e7	1.3693208
4	0x3fb253bd	1.3931805
5	0x3faa5336	1.3306644
6	0x3fb7045f	1.4298209
7	0x3fd0d6d5	1.6315562

conv31.1.bias f4 [8]
0	0x3e286f8e	0.16448805
1	0xbd20bf5c	-0.039244995
2	0xbbe73cf5	-0.007056827
3	0xbcef0431	-0.029176803
4	0xbe7dd31e	-0.24787566
5	0xbde018e8	-0.109422505
6	0x3dd0234a	0.10162981
7	0xbea855bb	-0.32877907

conv31.1.running_mean f4 [8]
0	0x405776ea	3.366633
1	0x40329972	2.7906156
2	0xbfcc7568	-1.597333
3	0xc0254a38	-2.582655
4	0xc0302470	-2.752224
5	0xc068dde8	-3.638544
6	0xbf1b5e5d	-0.6069086
7	0xc05a652b	-3.4124248

conv31.1.running_var f4 [8]
0	0x410dc435	8.860402
1	0x4154141d	13.25491
2	0x410ccad1	8.799516
3	0x418703cd	16.876856
4	0x414d145c	12.817471
5	0x414e2708	12.884529
6	0x4143b2a0	12.23111
7	0x41c15392	24.165806

conv32.0.weight f4 [16, 8, 3, 3]
0	0x3e878e91	0.26475957
1	0x3f35f6b2	0.7107955
2	0xbd7aaa98	-0.061197847
3	0xbe15f85c	-0.14645523
4	0xbf6bb087	-0.92066234
5	0x3f1cc950	0.6124468
6	0xbea48665	-0.32133785
7	0xbea34440	-0.31888008
8	0xbe8b7009	-0.27233914
9	0xbe8fff9e	-0.28124708
10	0xbf8ffdbb	-1.1249307
11	0x3d206aae	0.039164238
12	0x3f8d0c91	1.101946
13	0xbd37764f	-0.044790562
14	0xbef36847	-0.47540495
15	0x3f8c9f1f	1.098606
16	0x3e5ca143	0.21545891
17	0xbe92c20d	-0.28663674
18	0xbf52ed53	-0.8239338
19	0x3ec34821	0.38140967
20	0x3ebf4f32	0.3736511
21	0x3e1affae	0.15136597
22	0xbcdeb235	-0.027184585
23	0x3f84c136	1.0371463
24	0x3ea58757	0.3232982
25	0x3ecb3132	0.3968597
26	0xbfcbf4ae	-1.5934045
27	0x3e8542ad	0.26027432
28	0xbd4cff30	-0.050048053
29	0xbdc56f01	-0.09640313
30	0x3e34c7f9	0.17654409
31	0xbe07c1f9	-0.13257588
32	0x3d4a3cf9	0.049374554
33	0xbd805e9f	-0.062680475
34	0xbe03bb75	-0.12864478
35	0xbe4e20d1	-0.20129706
36	0xbf51d546	-0.81966054
37	0x3e556ca2	0.20842221
38	0x3f0f4bb9	0.5597492
39	0x3ddd59ce	0.108081445
40	0xbf19edff	-0.6012878
41	0xbe2818e1	-0.1641574
42	0x3e4e397e	0.20139119
43	0xbec0ba5f	-0.3764219
44	0xbf9c0c32	-1.2191222
45	0xbed3a693	-0.41338024
46	0xbe17d909	-0.14828886
47	0xbea7ac0e	-0.32748455
48	0xbeddb1c3	-0.43299684
49	0xbf8dfada	-1.1092179
50	0xbdd084d8	-0.10181588
51	0x3f965d4f	1.1747226
52	0x3f571f7c	0.84032416
53	0xbe92fd1a	-0.28708726
54	0xbf4b8120	-0.79493904
55	0xbeab24e5	-0.33426586
56	0x3ecc8e70	0.3995242
57	0xbe29cae9	-0.1658131
58	0xbe12fb47	-0.14353667
59	0x3f12813d	0.5722845
60	0xbe375518	-0.17903554
61	0x3e318989	0.17337622
62	0xbfa538fa	-1.2908013
63	0x3e067dea	0.1313397
64	0x3eab8623	0.33500776
65	0x3b5542ad	0.0032540963
66	0xbf2dd173	-0.6789772
67	0xbf11ce46	-0.56955373
68	0xbee100b6	-0.43945855
69	0xbeca3903	-0.3949662
70	0x3d440d8a	0.047864474
71	0xbed8ee68	-0.4236939
72	0x3de5e58f	0.112254255
73	0x3f9cf536	1.2262332
74	0x3efc1a17	0.49238655
75	0xbedfa7ad	-0.43682614
76	0x3e4f8e6b	0.20269172
77	0x3eec99f9	0.46211222
78	0xbf610689	-0.87900597
79	0xbedac921	-0.42731574
80	0xbe5595ed	-0.20857973
81	0x3db97531	0.090555556
82	0xbf3945bb	-0.72372025
83	0xbe06b0e7	-0.1315342
84	0x3d830b7e	0.06398676
85	0x3eea97b3	0.45818862
86	0x3d9104f6	0.07081024
87	0xbc7d863e	-0.0154739
88	0x3f270274	0.6523812
89	0x3eb5ec4d	0.35531846
90	0x3de61c14	0.11235824
91	0x3de8619f	0.11346745
92	0xbfb6ca79	-1.428054
93	0xbf07846d	-0.5293644
94	0x3e412d93	0.18865041
95	0x3f5966f2	0.8492271
96	0x3e858c3f	0.26083562
97	0xbea683c1	-0.32522395
98	0xbe323f1c	-0.17406887
99	0xbd06f1c3	-0.032945406
100	0xbef4db6d	-0.4782366
101	0x3c942c6b	0.018087586
102	0xbf48ed4a	-0.78487074
103	0x3f817f6d	1.0117012
104	0xbf81cfd5	-1.014155
105	0xbf864afa	-1.0491631
106	0xbe33ce88	-0.17559254
107	0xbeb90ffd	-0.3614501
108	0x3ec98bf4	0.39364588
109	0x3de36625	0.11103467
110	0xbf877141	-1.0581437
111	0x3e81b60e	0.2533421
112	0x3f22b387	0.63555187
113	0xbeff5e33	-0.49876556
114	0x3f1cc827	0.6124291
115	0x3eb1e68c	0.34746206
116	0x3ea545f8	0.32279944
117	0x3f2e049c	0.67975783
118	0xbf3f6443	-0.7476236
119	0x3e5b9769	0.21444477
120	0xbf629a44	-0.8851664
121	0xbf5af940	-0.85536575
122	0xbefa7944	-0.48920643
123	0x3eb0c9f1	0.3452907
124	0xbc055d97	-0.008139989
125	0xbf14a08d	-0.5805748
126	0xbf4f8be4	-0.8107283
127	0x3e71771a	0.2358059
128	0x3e989fd9	0.29809454
129	0x3e0655ac	0.13118619
130	0x3dc243e8	0.09485608
131	0x3e44483a	0.19168177
132	0x3d06a139	0.032868598
133	0x3e17ead3	0.14835672
134	0x3e08fd75	0.13377936
135	0x3f6abcd7	0.91694397
136	0x3df4e50e	0.11957751
137	0xbf1944fd	-0.5987089
138	0xbf5c7f8f	-0.8613214
139	0x3e612633	0.21987228
140	0xbeefaa84	-0.4680978
141	0x3ebed446	0.37271327
142	0x3e1fd63f	0.15609072
143	0xbe5de20f	-0.21668266
144	0xbeec0c17	-0.46102974
145	0x3ea096f5	0.3136517
146	0x3edcd46c	0.43130815
147	0xbd90365a	-0.07041617
148	0x3f51e38b	0.8198783
149	0xbe1a234e	-0.1505253
150	0xbf44b84d	-0.7684372
151	0xbf215489	-0.63019615
152	0xbf333bbe	-0.70013034
153	0xbe234100	-0.15942764
154	0x3c6a2869	0.014291861
155	0x3fc3b232	1.5288756
156	0x3f084971	0.5323706
157	0x3e31735a	0.1732916
158	0xbf117ac0	-0.56827927
159	0xbe031c16	-0.12803683
160	0xbf942c9a	-1.1576111
161	0xbebe7097	-0.37195274
162	0xbdd7653c	-0.10517356
163	0xbe9e15e3	-0.30876073
164	0x3f03758d	0.51351243
165	0xbf0d7fb6	-0.55272996
166	0xbf58d1c0	-0.84695053
167	0xbf48bbc5	-0.78411514
168	0xbeb28184	-0.34864438
169	0x3e5118b7	0.20419584
170	0x3f114fa3	0.5676214
171	0xbef96bce	-0.4871506
172	0xbeb0ba6c	-0.3451723
173	0x3e5eb952	0.21750382
174	0x3e3ffb6a	0.1874825
175	0x3eda10c0	0.42590904
176	0xbefaad63	-0.4896041
177	0xbf065d7c	-0.52486396
178	0xbf75f82e	-0.9608182
179	0xbed63837	-0.41839764
180	0xbf6a1dac	-0.91451526
181	0xbe0046ee	-0.12527058
182	0xbf4bc028	-0.7959008
183	0x3e060869	0.13089146
184	0x3f07b57d	0.53011304
185	0xbf2795cc	-0.65462947
186	0x3f1eb028	0.61987543
187	0x3e24b990	0.16086411
188	0x3eeed5aa	0.46647388
189	0x3ecbe2d4	0.39821494
190	0x3e19cd0b	0.15019624
191	0x3f8ed48b	1.1158613
192	0xbea49717	-0.32146522
193	0xbf39b09c	-0.7253511
194	0xbf5c8f38	-0.86156034
195	0xbc832647	-0.016009463
196	0xbebac9ab	-0.36481985
197	0xbd9e8e8e	-0.07742034
198	0x3eea78aa	0.45795184
199	0x3eb3e1fa	0.35133344
200	0x3f0855c3	0.5325586
201	0x3da98354	0.08277002
202	0x3f38b8d9	0.72157055
203	0xbf3bfb24	-0.73430085
204	0xbfa0d901	-1.2566224
205	0xbef083d6	-0.46975583
206	0x3f0bcb19	0.5460678
207	0xbe1e6635	-0.15468676
208	0xbf0be76a	-0.54649985
209	0x3e22ee31	0.15911175
210	0x3cc1c0f7	0.023651583
211	0x3d82d62c	0.06388506
212	0xbedcacb4	-0.43100512
213	0xbf2ed10f	-0.6828775
214	0x3eeb3478	0.45938468
215	0xbda3b1a3	-0.07992866
216	0xbf1d2611	-0.6138621
217	0xbf6704e5	-0.90241843
218	0x3da9af9d	0.08285449
219	0x3e1b00c2	0.15137008
220	0x3eb8bc23	0.36081037
221	0x3e2758d2	0.16342476
222	0x3c846093	0.016159331
223	0xbf8e9aec	-1.1141028
224	0xbe8db519	-0.2767723
225	0x3e077e4d	0.13231774
226	0x3e2efafd	0.17087932
227	0xbf37c6bf	-0.7178764
228	0xbf2389f9	-0.63882405
229	0xbf11ce64	-0.5695555
230	0x3d8d9310	0.069128156
231	0xbf23634d	-0.63823396
232	0xbfa838fb	-1.3142389
233	0x3f6eba9f	0.9325351
234	0x3ee97d46	0.4560339
235	0xbe061904	-0.1309548
236	0xbea660d1	-0.3249574
237	0x3f82d535	1.0221316
238	0x3d01cc9e	0.03168928
239	0xbe47b2a1	-0.19501735
240	0xbeda625f	-0.42653176
241	0xbcad27d4	-0.021137156
242	0xbf55bb9c	-0.83489394
243	0x3ea9bf7f	0.33153912
244	0x3efdd543	0.49576768
245	0xbfacb811	-1.3493673
246	0xbec907cd	-0.39263764
247	0xbd86e09d	-0.0658581
248	0xbf1dfb57	-0.6171164
249	0xbe5725ae	-0.21010467
250	0xbed03ad1	-0.40669873
251	0x3dabbe48	0.08385903
252	0xbe19b2bd	-0.1500959
253	0xbe97f733	-0.29680786
254	0xbd8ec757	-0.06971615
255	0x3f46e22a	0.7768885

conv32.0.bias f4 [16]
0	0x3e7364b9	0.23768891
1	0xbe3640c9	-0.17798151
2	0x3e4a3eb7	0.19750486
3	0xbea7c64f	-0.32768485
4	0xbe0f819a	-0.14014283
5	0x3e6e9130	0.23297572
6	0x3e730462	0.2373214
7	0xbd8cee65	-0.06881408
8	0xbdde7b6a	-0.10863383
9	0xbdb3dfa4	-0.087828904
10	0xbd894b75	-0.067038454
11	0x3de78acb	0.113057695
12	0x3e536830	0.20645213
13	0x3d088df7	0.033338513
14	0xbd5ae2e4	-0.053439036
15	0x3e133176	0.14374337

conv32.1.weight f4 [16]
0	0x3fa49244	1.2857137
1	0x3fae836a	1.3633854
2	0x3fb334b4	1.4000459
3	0x3fe706a0	1.8048897
4	0x3fb3c2b0	1.4043789
5	0x3fb6e1e6	1.4287689
6	0x3fc49943	1.5359272
7	0x3fc9e40c	1.5772719
8	0x3fb183c4	1.3868337
9	0x3fafff43	1.3749775
10	0x3fc4b9c8	1.5369196
11	0x3fb78d62	1.4340022
12	0x3fb64ee3	1.4242824
13	0x3fb762c3	1.4327015
14	0x3fb01542	1.3756487
15	0x3fc19592	1.512377

conv32.1.bias f4 [16]
0	0xbf1e9f02	-0.61961377
1	0xbf0b2ae0	-0.543623
2	0xbf0dda32	-0.55411065
3	0xbf8606c8	-1.047082
4	0xbf11bc08	-0.5692754
5	0xbf179d7a	-0.59224665
6	0xbf04321a	-0.5163895
7	0xbf57ee2f	-0.84347814
8	0xbf21207e	-0.62940204
9	0xbf0e6d24	-0.55635285
10	0xbf5a096b	-0.8517062
11	0xbf196d9f	-0.59932894
12	0xbf58d947	-0.8470654
13	0xbf3b2f39	-0.7311893
14	0xbf56dd97	-0.8393187
15	0xbf51599b	-0.8177735

conv32.1.running_mean f4 [16]
0	0xc01a37ef	-2.409664
1	0xbfcc91d3	-1.5982002
2	0xc02c4ef8	-2.6923199
3	0xc0131f95	-2.2988026
4	0xc02c09f0	-2.6881065
5	0x40128abd	2.289718
6	0xbf755f9f	-0.9584903
7	0xc01c0a3d	-2.438125
8	0xc004e50f	-2.0764806
9	0xc0a13079	-5.037167
10	0xc08d9f64	-4.425707
11	0x3fde5eff	1.737274
12	0xc0af0f52	-5.47062
13	0xbfd39bf2	-1.6531966
14	0x3fb62844	1.4231038
15	0xc014576c	-2.3178358

conv32.1.running_var f4 [16]
0	0x4107959d	8.474027
1	0x41326499	11.14956
2	0x4180d4ad	16.103846
3	0x413a057e	11.626341
4	0x412fef8c	10.995983
5	0x415610f8	13.379143
6	0x414a109d	12.629056
7	0x414f9242	12.973207
8	0x415db220	13.855988
9	0x4111e977	9.119498
10	0x4128eaa9	10.55729
11	0x41360ab1	11.37761
12	0x413a89f7	11.658683
13	0x413ce7af	11.806563
14	0x411cfeff	9.812255
15	0x4157a445	13.477605

fc.0.weight f4 [10, 784]
0	0xbbc6d50a	-0.0060678767
1	0x3ffad089	1.959489
2	0xbd8ec7e6	-0.06971721
3	0xbe013c24	-0.12620598
4	0x3ebc2cd0	0.3675294
5	0x3e5e79c3	0.21726136
6	0xbe7f26de	-0.2491717
7	0xbee1cc95	-0.44101396
8	0x3e23ff45	0.16015346
9	0xbef389c9	-0.4756606
10	0x3eb337df	0.35003564
11	0x3eed1125	0.46302143
12	0xbe477de5	-0.19481619
13	0xbed3decb	-0.41380915
14	0x3f3fab1f	0.74870485
15	0x3ebb3dd1	0.365706
16	0xbe3a55a7	-0.18196736
17	0xbda46fb3	-0.080291174
18	0xbf99f390	-1.2027454
19	0xbe1e452d	-0.15456076
20	0x3de63195	0.11239926
21	0xbece5129	-0.40296295
22	0x3e13713d	0.14398666
23	0xbe425756	-0.18978629
24	0x3ea46cf3	0.32114372
25	0x3b90478f	0.0044030617
26	0x3eaa4e32	0.33262783
27	0xbee415ed	-0.44547978
28	0xbfc5ffa4	-1.546864
29	0xbdc02a09	-0.093830176
30	0xbf5a2796	-0.85216653
31	0xbf2604dd	-0.6485117
32	0xbe28ef13	-0.1649745
33	0x3ea3401d	0.31884852
34	0xbf48c556	-0.7842611
35	0x3f4d9b0d	0.80314714
36	0x3f5f6c7c	0.8727491
37	0xbf50634a	-0.81401503
38	0xbf89686c	-1.0734992
39	0x3eacc041	0.33740428
40	0x3f89281e	1.0715368
41	0xbeda4ce3	-0.42636785
42	0xbe3997a0	-0.18124247
43	0x3ebdcb11	0.3706899
44	0xbe1e70d4	-0.15472728
45	0x3e29d32a	0.16584459
46	0x3d75abfa	0.059978463
47	0x3e28f77f	0.16500662
48	0xbe0fea3e	-0.140542
49	0x3e7ba1e5	0.24573477
50	0x3f11f0be	0.5700797
51	0x3e7188b7	0.23587309
52	0x3d8aee0d	0.06783686
53	0xbef04349	-0.46926335
54	0x3ea96a47	0.33088896
55	0xbee5c2fa	-0.44875318
56	0xbe63cab1	-0.2224529
57	0xbf6c2aae	-0.92252624
58	0xbe9a070f	-0.3008351
59	0x3ebe8ada	0.3721531
60	0x3ed4a0b6	0.41528863
61	0xbf754172	-0.95802987
62	0xbea2a754	-0.31768286
63	0x3e19bb05	0.15012749
64	0x3e18a0ad	0.14905043
65	0x3e64731e	0.22309539
66	0x3d82afb7	0.06381171
67	0xbbcd8a29	-0.0062725735
68	0x3da077ec	0.07835373
69	0xbcf2146a	-0.02955075
70	0xbf13dc07	-0.5775761
71	0xbf752977	-0.95766395
72	0x3d8b4efe	0.06802176
73	0x3e83fe77	0.2578008
74	0x3e803d13	0.25046596
75	0xbf871956	-1.0554607
76	0xbedf3a43	-0.43599138
77	0xbf1fa64a	-0.6236311
78	0xbeff1bd5	-0.49825922
79	0xbf6d5617	-0.9270949
80	0xbef8972b	-0.48552832
81	0x3e76b170	0.24091125
82	0x3ea89383	0.32925043
83	0xbd89af09	-0.067228384
84	0x3e8ee305	0.27907577
85	0x3ee3bc3b	0.44479546
86	0xbf1dba3b	-0.6161229
87	0x3e817eae	0.2529196
88	0x3e575613	0.21028928
89	0x3e4a7669	0.19771732
90	0x3efeee1f	0.49791047
91	0xbe7489aa	-0.2388064
92	0x3eb86b94	0.36019576
93	0x3ed095a8	0.4073918
94	0x3f5363a0	0.8257389
95	0xbe5eac90	-0.21745515
96	0x3dde2e59	0.10848684
97	0x3e3dd3b8	0.18537796
98	0xbf4f556d	-0.80989724
99	0x3bb08924	0.005387442
100	0xbd5c48b3	-0.05378027
101	0x3ea0cb29	0.31405
102	0x3f7183bb	0.9434163
103	0x3f17924d	0.5920761
104	0xbe834f4f	-0.25646445
105	0xbf1d35f7	-0.6141047
106	0x3ebbc8fe	0.36676782
107	0xbfac78de	-1.3474386
108	0xbdb1e516	-0.08686273
109	0xbf9c99ba	-1.2234414
110	0xbf296a7d	-0.66178113
111	0xbf8ffab2	-1.1248381
112	0x3f1a34f0	0.60237026
113	0xbf5797a6	-0.8421577
114	0xbe06c260	-0.13160086
115	0xbeaec27f	-0.34132764
116	0xbf0062ed	-0.5015095
117	0xbe4e74e1	-0.20161773
118	0xbed71add	-0.42012683
119	0xbf4c816c	-0.7988498
120	0xbf168f29	-0.58812195
121	0xbe054138	-0.1301316
122	0x3e22329e	0.15839621
123	0x3d8832d8	0.06650323
124	0xbf290564	-0.6602385
125	0xbedd184b	-0.43182597
126	0xbff303df	-1.8985556
127	0xbf935d2b	-1.1512808
128	0xbed92b17	-0.42415687
129	0xbf151e11	-0.58249
130	0x3f360c78	0.71112776
131	0x3f7dd032	0.99145806
132	0x3ed6f2bc	0.41982067
133	0xbf64bbca	-0.89349043
134	0xbebbacbf	-0.36655232
135	0xbf45a0a7	-0.7719826
136	0xbeef469e	-0.46733564
137	0x3e5eb0df	0.21747158
138	0x3e457ceb	0.19285934
139	0x3d9a223c	0.07526061
140	0xbc1552cc	-0.009113979
141	0xbdca1c79	-0.09868712
142	0x3e85916e	0.26087517
143	0x3e357246	0.17719373
144	0x3eed2f8c	0.46325338
145	0x3e41584c	0.18881339
146	0xbd22b46f	-0.039722856
147	0xbe9d25d1	-0.30692914
148	0x3eb50f04	0.3536302
149	0xbf85b886	-1.0446937
150	0xbee26261	-0.44215682
151	0xbf98654a	-1.1905911
152	0x3e8c378d	0.27386132
153	0x3e8d5ede	0.2761144
154	0xbf8699fa	-1.051574
155	0xbeee9824	-0.4660045
156	0x3e674aed	0.22587176
157	0xbeff7180	-0.4989128
158	0xbd5a2b7f	-0.053264137
159	0x3e043405	0.12910469
160	0x3f154cf9	0.58320576
161	0x3f4ec235	0.80765086
162	0xbe46c8d6	-0.1941255
163	0x3e008396	0.12550196
164	0xbec9bd0e	-0.3940205
165	0xbc8b226b	-0.016984185
166	0xbe2585a4	-0.16164261
167	0xbf8c9b80	-1.0984955
168	0x3eb3d6fe	0.35124964
169	0x3e31f833	0.17379837
170	0xbec39769	-0.38201454
171	0xbe396c0c	-0.18107623
172	0xbf8ca94f	-1.0989169
173	0xbfb8e988	-1.4446268
174	0x3e9b73dc	0.3036183
175	0x3f306e29	0.6891809
176	0xbd911490	-0.07084
177	0x3df6a51e	0.12043212
178	0x3f3ae7cc	0.73009944
179	0xbe839472	-0.25699192
180	0xbdb33379	-0.08750052
181	0x3e5e5673	0.21712665
182	0x3e47db7d	0.19517322
183	0x3ec86d06	0.39145678
184	0x3f275a56	0.65372217
185	0x3fa2de3e	1.2724073
186	0xbf0ef087	-0.55835766
187	0xbe7a71ec	-0.2445752
188	0xbdfb7cf3	-0.122796915
189	0xbebaa37d	-0.36452857
190	0x3ed3ca3d	0.41365233
191	0xbf47789a	-0.779184
192	0xbeb90529	-0.3613675
193	0xbe971b2f	-0.29512927
194	0x3e66a805	0.22525032
195	0x3c9aedf6	0.018912297
196	0x3dc03ea3	0.09386947
197	0x3ef06332	0.4695068
198	0x3e41bcc9	0.18919672
199	0xbe6e2d5f	-0.23259495
200	0x3e0b1677	0.13582788
201	0x3d474a8d	0.04865508
202	0xbce880e4	-0.028381772
203	0x3eba1882	0.36346823
204	0xbe5cc1ea	-0.21558347
205	0xbf689964	-0.90859056
206	0x3f036991	0.51332957
207	0xbe6db8d2	-0.23215035
208	0xbe8f2683	-0.2795907
209	0x3df32f23	0.11874225
210	0x3e59fff8	0.2128905
211	0x3e9575ef	0.2919154
212	0xbf40bb3c	-0.75285697
213	0xbe432316	-0.19056353
214	0xbee1cbae	-0.44100708
215	0xbe2f152f	-0.17097925
216	0xbe619b0c	-0.22031802
217	0x3f44204e	0.76611793
218	0xbdbd6a2e	-0.09248768
219	0xbddc26e7	-0.107496075
220	0xbe9450ab	-0.28967795
221	0xbd2b8ee8	-0.041884333
222	0x3efab589	0.48966625
223	0xbd8f8a5a	-0.0700881
224	0x3e869837	0.26288006
225	0x3ee611d9	0.44935492
226	0x3d2f95a2	0.04286731
227	0xbd07b13b	-0.033128005
228	0xbe96ad96	-0.2942931
229	0x3e187ec8	0.14892113
230	0xbf887976	-1.0662067
231	0x3f1f16d9	0.6214424
232	0x3eb75bdc	0.3581227
233	0xbe2d8e9d	-0.16948934
234	0xbf033fa9	-0.5126901
235	0x3f845d85	1.034104
236	0xbdbfe6e7	-0.09370213
237	0x3c14f551	0.009091691
238	0xbecbe504	-0.39823163
239	0xbf86242e	-1.0479791
240	0x3f031594	0.512048
241	0xbdb3b879	-0.0877542
242	0xbeb028ea	-0.34406215
243	0xbe920615	-0.28520265
244	0xbe9ffbc6	-0.31246775
245	0x3e144778	0.14480388
246	0x3eb98f2c	0.36242044
247	0x3f39bc51	0.72552973
248	0xbf0427c2	-0.51623166
249	0x3eb0a897	0.34503624
250	0xbe4cb596	-0.19991145
251	0x3e8e79b2	0.2782722
252	0x3f0ae4a5	0.54255134
253	0x3df81f93	0.12115397
254	0x3f16b383	0.58867663
255	0xbea5eef6	-0.32408875

fc.0.bias f4 [10]
0	0xbdd0fa49	-0.10203988
1	0x3e0759ee	0.13217899
2	0xbe0a21bf	-0.13489436
3	0x3d8980cd	0.0671402
4	0x3d97bee0	0.074094534
5	0xbde1fc15	-0.11034409
6	0xbe04ef58	-0.12981927
7	0xbd3b8696	-0.045782648
8	0x3e8e0407	0.27737448
9	0xbd972c5a	-0.07381506
