log/epoch-15.pth (torch_old, 43962 bytes, 32 tensors)

conv1.0.weight f4 [2, 1, 3, 3]
0	0x3e9c1475	0.30484357
1	0x3e301c13	0.1719821
2	0x3eab2570	0.33427
3	0x3ee2d349	0.44301823
4	0x3f6408be	0.8907584
5	0x3f114d5a	0.56758654
6	0x3f6ab692	0.9168483
7	0x3f35e678	0.7105479
8	0x3eb51c5c	0.353732
9	0x3ee745b4	0.45170367
10	0xbf4aa607	-0.7915959
11	0xbfc606ab	-1.5470785
12	0xbea3251a	-0.31864244
13	0xbf809c54	-1.0047708
14	0xbd99a555	-0.07502238
15	0xbf3964e5	-0.7241958
16	0xbec74b81	-0.38924792
17	0x3e9cb56b	0.3060716

conv1.0.bias f4 [2]
0	0x3f22e14d	0.6362503
1	0x3f39346a	0.723456

conv1.1.weight f4 [2]
0	0x3f942db4	1.1576447
1	0x3f8d9978	1.106246

conv1.1.bias f4 [2]
0	0x3f1ff4a9	0.62482697
1	0x3dc84c31	0.09780157

conv1.1.running_mean f4 [2]
0	0x3f9ededc	1.2411761
1	0x3e3cc51e	0.18434569

conv1.1.running_var f4 [2]
0	0x3fbe107b	1.484878
1	0x3fa59e7a	1.2938988

conv21.0.weight f4 [4, 2, 3, 3]
0	0x3e45679a	0.19277802
1	0x3e845120	0.25843143
2	0xbdd5eb2d	-0.10445247
3	0x3f6263fa	0.884338
4	0xbf17dad2	-0.5931827
5	0xbec9326e	-0.39296287
6	0x3f268271	0.6504279
7	0xbeff9652	-0.49919373
8	0xbcbceb63	-0.02306146
9	0x3eb10009	0.3457034
10	0xbe63ac81	-0.22233774
11	0xbe176c4f	-0.1478741
12	0xbf2d2264	-0.676306
13	0x3fa3aa4d	1.2786347
14	0xbe94350e	-0.28946728
15	0xbf383294	-0.71952176
16	0x3e8fdf90	0.28100252
17	0xbe85b391	-0.2611356
18	0xbe4a1bf3	-0.19737224
19	0x3ed9fe07	0.4257662
20	0xbe3f5a98	-0.18686903
21	0x3f856d67	1.0424012
22	0xbe6d91ef	-0.232002
23	0xbef85e6c	-0.48509538
24	0xbec3981b	-0.38201985
25	0xbeeff6de	-0.46868032
26	0x3ea726eb	0.3264688
27	0xbdda5042	-0.10659839
28	0xbe3fefe3	-0.18743853
29	0x3edcd5a1	0.43131736
30	0x3e119211	0.14215876
31	0x3f6977db	0.9119851
32	0x3f3cb385	0.73711425
33	0xbc737047	-0.014858312
34	0x3eceec80	0.4041481
35	0xbee5e242	-0.44899184
36	0xbd99bfbb	-0.07507273
37	0x3f8720ca	1.0556881
38	0x3f16615d	0.58742315
39	0x3e4e12a0	0.20124292
40	0x3f292dc0	0.66085434
41	0xbd670098	-0.05639705
42	0x3e7f2034	0.24914628
43	0xbe1933fa	-0.14961234
44	0xbeef6c0b	-0.46762118
45	0xbbe5fe88	-0.007018868
46	0xbe112887	-0.14175616
47	0xbf8c4504	-1.0958562
48	0x3f1cc2f0	0.6123495
49	0xbef21d54	-0.47288
50	0xbf79fceb	-0.9765155
51	0x3eb82a78	0.359699
52	0xbf03a094	-0.514169
53	0xbf0d9f82	-0.55321515
54	0xbe81920c	-0.25306737
55	0xbe69949f	-0.228106
56	0xbeb36d21	-0.35044196
57	0x3f09c086	0.5380939
58	0x3f824baf	1.0179347
59	0x3ec53180	0.38514328
60	0xbf083cde	-0.53217876
61	0xbf2e7c53	-0.68158454
62	0x3e61d9d7	0.22055756
63	0xbcb15229	-0.021645622
64	0x3dd76267	0.10516816
65	0x3dc53c62	0.09630658
66	0xbbc827b6	-0.0061082495
67	0xbf6dbd01	-0.9286652
68	0xbea7ec90	-0.3279767
69	0x3e223737	0.15841375
70	0xbea6024d	-0.3242363
71	0xbf01577c	-0.50524116

conv21.0.bias f4 [4]
0	0x3ed7d1cd	0.42152253
1	0xbe84d3e4	-0.2594291
2	0x3f1d5551	0.6145831
3	0x3f629255	0.88504535

conv21.1.weight f4 [4]
0	0x3f9a5991	1.2058583
1	0x3f9e6ad6	1.2376354
2	0x3f950d17	1.164462
3	0x3f991991	1.1960927

conv21.1.bias f4 [4]
0	0xbedd15ad	-0.431806
1	0xbce04bfa	-0.027379978
2	0x3e936e52	0.28795105
3	0x3e5e8610	0.21730828

conv21.1.running_mean f4 [4]
0	0x3f20d68c	0.6282737
1	0x3f137fe1	0.57617
2	0x3f84f3b1	1.0386869
3	0x3de729aa	0.11287244

conv21.1.running_var f4 [4]
0	0x4055a3a2	3.3381124
1	0x3fdb5c3f	1.7137526
2	0x4121761a	10.091333
3	0x3fc1f6c7	1.5153435

conv22.0.weight f4 [4, 4, 3, 3]
0	0xbf2435b3	-0.6414444
1	0xbf860c05	-1.0472418
2	0xbf1f2646	-0.62167776
3	0xbe8762db	-0.26442608
4	0xbeb8dd1a	-0.36106187
5	0xbe837444	-0.2567464
6	0x3e32881f	0.17434739
7	0xbdf88be0	-0.12136054
8	0xbf3e8bfa	-0.7443234
9	0x3f0cc29f	0.5498447
10	0x3ece370e	0.40276378
11	0xbe876261	-0.26442245
12	0xbeaee8cf	-0.34161994
13	0x3e5e41ed	0.21704836
14	0x3ead9d72	0.33909184
15	0xbf8dcf37	-1.1078862
16	0xbe1bafb3	-0.15203743
17	0xbe2df752	-0.16988876
18	0xbedb46b1	-0.4282737
19	0x3b2099b0	0.0024505667
20	0x3e00d6a0	0.12581873
21	0x3cb72e43	0.022360926
22	0xbebf3ffa	-0.37353498
23	0xbe3c380f	-0.1838076
24	0x3dc4ea18	0.09614962
25	0x3e91c51f	0.28470704
26	0x3e6c8b99	0.23100127
27	0xbe9d8e1f	-0.30772492
28	0xbff50ef4	-1.9145188
29	0xbfb23872	-1.3923476
30	0xbe1faa74	-0.15592366
31	0xbe2365fd	-0.15956874
32	0x3f1ae9c2	0.60512936
33	0x3e4ca1b2	0.19983557
34	0x3d0a7f37	0.033812728
35	0x3ee799e8	0.4523461
36	0xbe875510	-0.26432085
37	0xbf09f284	-0.53885674
38	0x3ea3ea7a	0.3201483
39	0xbd17ae2e	-0.037031345
40	0xbeec0ebb	-0.46104988
41	0xbe52cdc0	-0.205863
42	0xbee6e877	-0.45099232
43	0xbf21aaf7	-0.63151497
44	0xbe2d867d	-0.16945834
45	0xbf28347d	-0.6570509
46	0xbf3f4aeb	-0.7472369
47	0xbf4737b5	-0.7781938
48	0x3e4c6bcd	0.19962998
49	0xbe9b830f	-0.30373427
50	0xbf6ee5e3	-0.9331953
51	0x3f40aa38	0.75259733
52	0x3e588b51	0.21146895
53	0x3c5a3f77	0.013320795
54	0x3f6bb47d	0.9207228
55	0x3f8cef92	1.1010611
56	0x3d055192	0.032548495
57	0xbd7c8d1c	-0.06165801
58	0x3c946b94	0.018117703
59	0xbdc7f331	-0.09763182
60	0xbea7c85a	-0.32770044
61	0xbe442bd7	-0.19157349
62	0xbd7db795	-0.061942656
63	0xbf095775	-0.53649074
64	0x3ee88333	0.45412597
65	0x3f471fcf	0.7778291
66	0x3daafaca	0.083486155
67	0x3e6c37a3	0.23068099
68	0x3f163f0b	0.58689946
69	0xbdaf5852	-0.08561768
70	0xbdabe3e8	-0.08393079
71	0xbd4d4576	-0.05011507
72	0xbee0b3e0	-0.43887234
73	0xbe770589	-0.24123205
74	0x3f149ea7	0.58054584
75	0xbf4894c5	-0.78352004
76	0x3da53764	0.080672055
77	0x3f176849	0.591435
78	0x3ef771c7	0.48328993
79	0x3eb3f3d8	0.35146976
80	0x3f18c0f2	0.5966941
81	0x3a3c29b8	0.00071778474
82	0x3de4323e	0.111423954
83	0xbe94c3f8	-0.29055762
84	0x3ecc2faa	0.39880115
85	0x3eebb955	0.46039835
86	0xbd427d92	-0.047483034
87	0x3f1943b6	0.59868944
88	0x3f662ce1	0.8991223
89	0x3db93905	0.09044079
90	0x3e8b8c94	0.2725569
91	0xbdd69b08	-0.104787886
92	0xbe67c730	-0.22634578
93	0x3d453791	0.048148695
94	0x3f0f6163	0.56007975
95	0x3f64cd47	0.8937573
96	0x3e8a0439	0.26956347
97	0x3f6fadd4	0.93624616
98	0x3f45c8df	0.7725963
99	0x3c6d6d5e	0.014491407
100	0xbf10021c	-0.5625322
101	0xbef01e4d	-0.46898118
102	0xbf20f923	-0.6288015
103	0xbe3ddd93	-0.18541555
104	0xbeec6056	-0.46167248
105	0xbe43aaf8	-0.19108188
106	0x3d398e90	0.045301974
107	0xbe2c0c7b	-0.16801636
108	0xbe81bc52	-0.2533899
109	0xbe85b954	-0.26117957
110	0xbe861637	-0.26188824
111	0xbf034044	-0.51269937
112	0xbeda054b	-0.42582163
113	0xbf05178d	-0.5198906
114	0x3f18a479	0.59625965
115	0x3e19c1c9	0.1501533
116	0xbec41f1a	-0.3830498
117	0x3f4eeffa	0.80834925
118	0xbebf573c	-0.37371242
119	0x3bf0a4bf	0.007343858
120	0xbf7d09f4	-0.9884331
121	0xbd7bb6d5	-0.06145366
122	0x3ea38ef8	0.31945014
123	0x3ed3d28b	0.4137157
124	0xbdcad41a	-0.099037364
125	0xbd922429	-0.07135803
126	0xbdbd1cb8	-0.09233993
127	0xbf010756	-0.5040182
128	0xbd8de7b2	-0.06928958
129	0x3efd85c8	0.4951613
130	0x3e8b090d	0.27155343
131	0xbe04f0c2	-0.12982467
132	0x3f45155c	0.76985717
133	0x3e7ad796	0.24496302
134	0xbebbbda4	-0.36668122
135	0x3d21f765	0.039542574
136	0x3d44a6a6	0.04801049
137	0x3eac01c2	0.3359509
138	0x3e1e72d2	0.15473488
139	0x3f0cd5e7	0.5501389
140	0x3f3af976	0.730369
141	0x3e67ae3b	0.22625057
142	0xbf2dc8e3	-0.67884654
143	0xbf348bfa	-0.7052609

conv22.0.bias f4 [4]
0	0x3d9eac20	0.07747674
1	0xbe84e71d	-0.25957575
2	0x3ca5455c	0.020174675
3	0xbeef4094	-0.46728957

conv22.1.weight f4 [4]
0	0x3fc8bfac	1.5683494
1	0x3f90a4bd	1.1300274
2	0x3f9140d4	1.1347909
3	0x3f74ccd9	0.9562507

conv22.1.bias f4 [4]
0	0xbe30f05b	-0.17279188
1	0x3e8e60bf	0.27808186
2	0x3e9541fe	0.2915191
3	0x3c713e2e	0.014724297

conv22.1.running_mean f4 [4]
0	0xc0203c43	-2.503678
1	0xbeab1557	-0.33414719
2	0x3ff638c6	1.9236076
3	0xbebdb86d	-0.37054768

conv22.1.running_var f4 [4]
0	0x4193c838	18.472763
1	0x40d95ebf	6.7928157
2	0x411064c3	9.0246
3	0x4099c6ee	4.8055334

conv31.0.weight f4 [8, 4, 3, 3]
0	0xbe920507	-0.2851946
1	0xbdfcf0dc	-0.12350628
2	0x3e87dac8	0.26534104
3	0x3dad8223	0.08472087
4	0xbe01ee86	-0.12688646
5	0x3eba2484	0.36355984
6	0x3e80d9b9	0.2516611
7	0x3f3f740a	0.74786437
8	0xbd7e5b54	-0.062098816
9	0x3e6b0462	0.2295089
10	0x3dd247db	0.102676116
11	0xbf042553	-0.5161945
12	0xbe2d903f	-0.16949557
13	0x3f163a82	0.58683026
14	0x3fb1f868	1.3903933
15	0x3d13d0d2	0.03608782
16	0xbf06d027	-0.52661365
17	0x3e2114c3	0.15730576
18	0xbe03e145	-0.12878902
19	0x3f34ca67	0.7062134
20	0xbd0f96ce	-0.035055928
21	0xbe3bdb02	-0.18345264
22	0x3e41d7cd	0.18929978
23	0xbcd69975	-0.02619622
24	0x3ef7c65d	0.48393527
25	0xbc5d32c8	-0.013500877
26	0x3f03522b	0.51297253
27	0xbef1c37e	-0.4721946
28	0xbdf4f9c8	-0.119617045
29	0xbee364a8	-0.44412732
30	0x3e1c7a27	0.15280972
31	0xbe8b60b0	-0.27222204
32	0x3e846ee5	0.25865856
33	0x3e59bf1e	0.21264312
34	0xbe58ba74	-0.21164876
35	0xbf0ebc26	-0.5575584
36	0x3f46b4fc	0.7761991
37	0x3f93bfb5	1.1542879
38	0x3e6c21af	0.23059724
39	0xbe373968	-0.17892992
40	0xbee6d413	-0.45083675
41	0x3dffa257	0.12482136
42	0x3eab3512	0.33438927
43	0x3fa227db	1.2668413
44	0x3fabb6a6	1.3415115
45	0xbe29d54a	-0.1658527
46	0x3ce8a56e	0.028399196
47	0x3de76f56	0.113005325
48	0x3e509adc	0.20371574
49	0x3eac4f1a	0.336541
50	0x3e46ce05	0.19414528
51	0x3cacf6b1	0.021113725
52	0xbd62329d	-0.05522405
53	0xbe9fab45	-0.31185356
54	0xbf180853	-0.593877
55	0xbf371860	-0.7152157
56	0x3d61dac5	0.055140276
57	0x3f32ffb7	0.6992144
58	0xbe46f26d	-0.19428416
59	0xbe2e012e	-0.16992638
60	0x3ebc6939	0.3679903
61	0xbf0d215c	-0.5512903
62	0xbec9ea90	-0.3943677
63	0x3e08fcad	0.13377638
64	0xbdb1efa7	-0.08688288
65	0x3e1a07ad	0.1504199
66	0x3f1079da	0.5643593
67	0x3e6effb1	0.23339726
68	0x3e438695	0.19094308
69	0x3f0397ae	0.5140332
70	0x3de15800	0.11003113
71	0x3bf6c422	0.007530705
72	0xbb89526e	-0.0041907346
73	0xbe469786	-0.19393739
74	0xbdc96bd2	-0.09835018
75	0x3f1928db	0.59827965
76	0x3f0d4388	0.5518117
77	0xbf477781	-0.77916723
78	0x3f5bdcd9	0.8588386
79	0xbf2324ee	-0.63728225
80	0xbf36cfbb	-0.7141072
81	0x3e413aca	0.18870082
82	0x3f2f2f98	0.68432
83	0xbeb5dbf9	-0.35519388
84	0x3ddb12f2	0.10696973
85	0xbf39f769	-0.7264314
86	0x3e872892	0.2639814
87	0xbf3cedd8	-0.7380042
88	0xbd2fa236	-0.042879306
89	0x3ed51aaf	0.4162192
90	0xbedfb2f1	-0.4369121
91	0xbf4960f4	-0.78663564
92	0xbc1e4147	-0.009659118
93	0xbdfa1a7c	-0.12212083
94	0x3fa7b05f	1.3100699
95	0xbe49cda6	-0.19707355
96	0xbf03220d	-0.5122383
97	0x3dc62ba2	0.09676291
98	0x3ddc5505	0.10758404
99	0x3eee8971	0.46589234
100	0xbe90e2b1	-0.28297952
101	0xbeff5a2a	-0.49873477
102	0xbdc1cbfb	-0.09462734
103	0xbe71c207	-0.23609172
104	0x3ebd5f5c	0.36986816
105	0x3eb1e98a	0.3474849
106	0x3d837b2b	0.06419977
107	0xbf10417a	-0.5634991
108	0xbeb4e236	-0.35328835
109	0x3e468cec	0.19389695
110	0xbd940ad2	-0.07228626
111	0xbec61464	-0.38687432
112	0xbf78ccac	-0.97187304
113	0x3f055764	0.5208647
114	0xbdf24b4c	-0.11830768
115	0xbf233fc9	-0.63769203
116	0xbea59600	-0.32341003
117	0xbcf0c369	-0.029390054
118	0xbf8c6e60	-1.0971184
119	0x3f0841ea	0.53225577
120	0x3f4e86ea	0.8067461
121	0x3f108fb6	0.56469285
122	0x3e13f706	0.144497
123	0xbdde8785	-0.10865692
124	0x3f21c73e	0.63194644
125	0x3ee2c514	0.44290984
126	0xbdc869fc	-0.0978584
127	0xbf012d13	-0.504594
128	0xbe83273d	-0.25615874
129	0x3f0e2600	0.55526733
130	0x3e988e0b	0.2979587
131	0xbf2d96c8	-0.678082
132	0xbe93fdfe	-0.28904718
133	0xbf42ce86	-0.7609638
134	0xbec494cb	-0.3839477
135	0x3d26db74	0.04073663
136	0x3ee9037f	0.4551048
137	0x3f033ac3	0.5126154
138	0x3efb853a	0.4912508
139	0xbe8d1eea	-0.27562648
140	0xbea29baa	-0.31759387
141	0xbf4c667d	-0.79843885
142	0xbd504949	-0.05085114
143	0xbe86d6f8	-0.26335883
144	0x3dfe6f26	0.12423544
145	0xbeb1459e	-0.34623426
146	0x3e149ba4	0.14512497
147	0x3ede3fdb	0.43408093
148	0xbe34fcd6	-0.17674574
149	0xbbaa690b	-0.0052005104
150	0xbe049b99	-0.12949981
151	0x3e71d998	0.23618162
152	0x3f7d5686	0.9896015
153	0xbf4dc21c	-0.8037431
154	0x3f367086	0.7126545
155	0xbeb92dee	-0.36167854
156	0xbd470b1d	-0.048594583
157	0xbeabb5ff	-0.3353729
158	0xbf30aead	-0.69016534
159	0x3d831140	0.063997746
160	0xbfa3ab7f	-1.2786711
161	0xbe008b8b	-0.12553231
162	0xbdf77d34	-0.120844275
163	0xbe820d34	-0.25400698
164	0x3eb0a2ff	0.34499356
165	0x3e3d7080	0.18499947
166	0xbea9c7a8	-0.33160138
167	0x3ea7d787	0.32781622
168	0x3e2edc5b	0.17076246
169	0xbf72e5db	-0.9488198
170	0xbe167f7e	-0.14697072
171	0xbf2cf316	-0.6755842
172	0xbe3c1857	-0.1836866
173	0x3e9bbfba	0.30419713
174	0x3f833314	1.0249963
175	0x3e96b780	0.29436874
176	0xbe39f99b	-0.18161623
177	0xbec78b8b	-0.3897365
178	0xbd10f922	-0.03539384
179	0x3e4e4b13	0.20145826
180	0xbd2d82d8	-0.04236111
181	0xbf007927	-0.50184864
182	0x3f5f7e4f	0.87302107
183	0xbeab789b	-0.33490452
184	0xbe7a4c96	-0.24443278
185	0xbe11eaf6	-0.14249787
186	0x3e09ce4f	0.13457607
187	0xbf1578d1	-0.58387476
188	0xbf41b426	-0.7566551
189	0xbe1fabf0	-0.15592933
190	0xbec1bda7	-0.37840006
191	0xbec0835e	-0.37600225
192	0x3d0ca434	0.034336284
193	0xbe836a22	-0.2566691
194	0xbc9ab23b	-0.018883815
195	0x3e8139b0	0.25239325
196	0x3f03d498	0.5149627
197	0xbec55cca	-0.38547355
198	0xbe190b30	-0.14945674
199	0x3f51c12f	0.819354
200	0x3dd3c869	0.103409596
201	0xbe7d7c1e	-0.24754378
202	0x3e6e5c90	0.23277497
203	0x3d0fbc4e	0.03509169
204	0xbef16a42	-0.4715138
205	0x3ed2f828	0.41204953
206	0x3d2b2298	0.041781038
207	0xbce6a20d	-0.028153444
208	0xbfc7d713	-1.561251
209	0xbdb69a8f	-0.089161985
210	0xbf255d97	-0.6459593
211	0xbf41f218	-0.7576003
212	0x3edac3e2	0.42727572
213	0x3cfe384b	0.031032702
214	0xbecb81c6	-0.39747447
215	0xbe558fd0	-0.20855641
216	0xbd8f8050	-0.070068955
217	0xbeb07513	-0.3446432
218	0xbf4df455	-0.80450946
219	0xbde333f0	-0.11093891
220	0x3f09edc6	0.5387844
221	0xbe3e7d38	-0.18602455
222	0xbef0cffe	-0.47033685
223	0xbb111732	-0.002213907
224	0x3eed36b5	0.463308
225	0xbeef8964	-0.46784508
226	0x3e096fe3	0.13421588
227	0xbf16b408	-0.58868456
228	0xbeb20961	-0.3477278
229	0xbe082f59	-0.13299312
230	0x3f037d11	0.5136271
231	0x3ddafff8	0.106933534
232	0x3e511f3f	0.20422076
233	0x3e81beb6	0.25340813
234	0xbee8c9a3	-0.45466337
235	0xbe0b5e2c	-0.13610142
236	0x3e6d427e	0.23169896
237	0x3f92d87f	1.1472319
238	0x3f83e710	1.030489
239	0xbf189c7c	-0.59613776
240	0xbe8d5c1e	-0.27609342
241	0xbed5a0c9	-0.41724232
242	0x3d1b8c7b	0.03797577
243	0x3de3a19d	0.1111481
244	0xbf2e4d22	-0.68086445
245	0xbec45b86	-0.38351077
246	0xbde4153d	-0.111368634
247	0x3e52a6df	0.20571469
248	0xbe912069	-0.2834504
249	0x3e153feb	0.14575164
250	0x3e9bd935	0.30439153
251	0x3f310d4a	0.691609
252	0x3dd46b91	0.10372079
253	0x3efa8db4	0.48936236
254	0x3f45299f	0.77016634
255	0x3ec15134	0.37757266

conv31.0.bias f4 [8]
0	0x3ede3967	0.4340317
1	0xbc8356c3	-0.016032582
2	0xbedad6e8	-0.42742085
3	0xbd18ebcd	-0.037334252
4	0xbe0f2c07	-0.13981639
5	0x3cb69f59	0.02229278
6	0xbec9c07b	-0.39404663
7	0x3e9bb5d8	0.30412173

conv31.1.weight f4 [8]
0	0x3f6f0bf7	0.9337763
1	0x3f8f77ae	1.1208398
2	0x3f9b5f76	1.2138507
3	0x3fa107b2	1.2580473
4	0x3fa884c9	1.3165523
5	0x3f9809e2	1.1878016
6	0x3faaf106	1.3354805
7	0x3fb77908	1.4333811

conv31.1.bias f4 [8]
0	0x3e163775	0.14669593
1	0xbd080d20	-0.033215642
2	0x3b8394bd	0.0040155337
3	0x3d292992	0.04129941
4	0xbe835cb7	-0.25656673
5	0xbdece5b2	-0.115672484
6	0x3e1ddbac	0.1541583
7	0xbe76ff84	-0.24120909

conv31.1.running_mean f4 [8]
0	0x40279f58	2.6191006
1	0x40212a19	2.5181944
2	0xbfc3eda1	-1.5306894
3	0xbfdfaf6a	-1.7475407
4	0xc00a5249	-2.1612723
5	0xc036345a	-2.8469453
6	0xbeeab191	-0.45838597
7	0xc0119afa	-2.275084

conv31.1.running_var f4 [8]
0	0x4094bcdd	4.6480546
1	0x40e97685	7.2957177
2	0x40b18037	5.546901
3	0x411aec29	9.682656
4	0x40fe008e	7.9375677
5	0x40e89478	7.2681236
6	0x40d954fb	6.7916236
7	0x416bf5b2	14.747484

conv32.0.weight f4 [16, 8, 3, 3]
0	0x3e3f0471	0.18654038
1	0x3f0d8095	0.55274326
2	0x3dfcfaed	0.12352548
3	0xbdad30c6	-0.084565684
4	0xbf09797a	-0.53700984
5	0x3ee3323c	0.44374263
6	0xbcd9dd16	-0.02659468
7	0xbea17a62	-0.31538683
8	0xbeb8630f	-0.36013076
9	0xbe2c2b16	-0.16813311
10	0xbf3d66ab	-0.73984784
11	0xbe5292fa	-0.2056388
12	0x3f5ac9da	0.8546425
13	0xbd60ecd1	-0.054913346
14	0xbed503b5	-0.4160439
15	0x3f7d8828	0.9903588
16	0x3d3baafe	0.045817368
17	0xbe7563a9	-0.23963799
18	0xbf4f553c	-0.8098943
19	0x3e8d227d	0.27565375
20	0x3eca93e9	0.39565971
21	0xbdf3e508	-0.119089186
22	0xbd5ba800	-0.053627014
23	0x3f5871c6	0.84548604
24	0x3e24b43c	0.16084379
25	0x3e5a72f9	0.21332921
26	0xbfa04b16	-1.2522914
27	0x3e918e10	0.28428698
28	0x3b69e003	0.00356865
29	0xbe29cade	-0.16581294
30	0xbdc131d6	-0.094333336
31	0x3ce34fb7	0.027747972
32	0xbd2cccfc	-0.042187676
33	0x3c92b7ce	0.01790991
34	0xbdcd0287	-0.10010248
35	0xbd5de79d	-0.05417596
36	0xbf422a9d	-0.7584627
37	0x3e4ecd5e	0.20195529
38	0x3ef04dc4	0.4693433
39	0x3e07d819	0.13266028
40	0xbef15f45	-0.47142997
41	0xbe372e46	-0.17888746
42	0x3e316931	0.17325284
43	0xbeb7dd6b	-0.35911116
44	0xbf741bdf	-0.9535503
45	0xbe735e66	-0.23766479
46	0xbd9fc900	-0.078020096
47	0xbe804e14	-0.2505957
48	0xbed757aa	-0.4205907
49	0xbf58cd47	-0.8468823
50	0xbdbde195	-0.09271542
51	0x3f5e87a3	0.86925715
52	0x3ef708d1	0.48248914
53	0xbe11c161	-0.14233924
54	0xbf2b90c1	-0.6701775
55	0xbe9052fd	-0.28188315
56	0x3ee3384f	0.44378898
57	0xbe155780	-0.1458416
58	0xbdf7041f	-0.12061333
59	0x3ecfb36c	0.40566576
60	0xbe7f9ca0	-0.24962091
61	0x3dccdb71	0.100027926
62	0xbf725e20	-0.94674873
63	0x3da7a992	0.0818664
64	0x3ea08797	0.31353447
65	0xbdb1fd8c	-0.08690938
66	0xbefd5b5b	-0.4948376
67	0xbf0a7ed2	-0.5409976
68	0xbef6f750	-0.4823556
69	0xbeddc1eb	-0.4331201
70	0xbc963aff	-0.018338678
71	0xbe85c848	-0.26129365
72	0x3bb81440	0.0056176484
73	0x3f5ca146	0.86183584
74	0x3eb61466	0.35562438
75	0xbe8a0d52	-0.26963288
76	0x3e34220b	0.17591111
77	0x3ea32d3c	0.3187045
78	0xbf3e3009	-0.74292046
79	0xbebc9720	-0.3683405
80	0xbe60f80f	-0.21969627
81	0x3e208b0f	0.15678047
82	0xbf17ebcd	-0.5934418
83	0xbe4f2ea6	-0.20232639
84	0x3dc96e48	0.098354876
85	0x3e74cdd2	0.23906639
86	0x3c89f142	0.016838674
87	0x3db6ad7d	0.08919809
88	0x3f19ccf6	0.6007837
89	0x3e842831	0.25811914
90	0xbd4f030f	-0.050540026
91	0x3e459e80	0.19298744
92	0xbf60b197	-0.8777098
93	0xbf186a28	-0.5953698
94	0x3e2a5130	0.16632533
95	0x3f2bbbfc	0.67083716
96	0x3e65e17f	0.22449301
97	0xbe560ce7	-0.2090336
98	0xbd25094f	-0.04029208
99	0xbe0745e9	-0.13210262
100	0xbe88662c	-0.2664045
101	0x3e25ee23	0.16204123
102	0xbf12c10b	-0.5732581
103	0x3f468458	0.7754569
104	0xbf4496fd	-0.7679289
105	0xbf6f66ab	-0.93516034
106	0xbd5505f1	-0.05200762
107	0xbe516fcd	-0.20452805
108	0x3eafe5ad	0.34354916
109	0x3b8485b4	0.004044259
110	0xbf34059a	-0.7032105
111	0x3ea67000	0.32507324
112	0x3ed36c02	0.4129334
113	0xbebee9e8	-0.3728783
114	0x3ee56414	0.44802916
115	0x3ecfd93c	0.40595424
116	0x3e42c3af	0.1901996
117	0x3ed36673	0.412891
118	0xbec95de2	-0.3932944
119	0x3da3f709	0.080061026
120	0xbf1ff69a	-0.6248566
121	0xbf216db3	-0.6305801
122	0xbeeec1fe	-0.4663238
123	0x3e657587	0.22408114
124	0x3e154422	0.14576772
125	0xbeea9170	-0.45814085
126	0xbf0102b1	-0.5039473
127	0x3e3699e4	0.17832142
128	0x3e73b4b2	0.23799399
129	0x3d6d3c75	0.057918984
130	0x3d4d61df	0.050142165
131	0x3daec96f	0.08534514
132	0x3dfad363	0.1224735
133	0x3de004a2	0.10938384
134	0x3dd30cc1	0.10305167
135	0x3f516b0f	0.81803983
136	0x3e1deab9	0.15421571
137	0xbf19918e	-0.59987724
138	0xbf1b0f9a	-0.6057068
139	0x3e8aecbf	0.27133748
140	0xbed14ff9	-0.40881327
141	0x3e11adcd	0.14226456
142	0xbdd2c796	-0.10291974
143	0xbd9c5162	-0.0763271
144	0xbe5eb3d1	-0.21748282
145	0x3df845ac	0.12122664
146	0x3ee1109a	0.43957978
147	0xbc74e378	-0.014946811
148	0x3f08d713	0.5345318
149	0xbd1ba7b3	-0.038001727
150	0xbf1ad24e	-0.6047715
151	0xbed35d04	-0.41281903
152	0xbf495014	-0.78637815
153	0xbc1d6518	-0.009606622
154	0xbd1ede64	-0.038786307
155	0x3f96949c	1.1764102
156	0x3eb8df3c	0.36107814
157	0x3e1ff7e0	0.156219
158	0xbf0e249b	-0.55524606
159	0xbe51b2e9	-0.20478405
160	0xbf5d30ce	-0.86402595
161	0xbed21b12	-0.41036278
162	0xbdc4d307	-0.09610563
163	0xbe44aad0	-0.19205785
164	0x3ecebf91	0.4038053
165	0xbefe5678	-0.49675345
166	0xbf22de92	-0.63620865
167	0xbf21e33c	-0.6323736
168	0xbeab31b9	-0.33436373
169	0x3e851e32	0.259996
170	0x3f01d2c6	0.5071224
171	0xbf0bff9c	-0.54686904
172	0xbe27ad38	-0.16374671
173	0x3e793c27	0.24339353
174	0x3eb49a72	0.35274082
175	0x3ec89fc2	0.39184386
176	0xbe6e007b	-0.23242371
177	0xbe994d53	-0.29941806
178	0xbf26ad97	-0.6510863
179	0xbed9e0ea	-0.42554408
180	0xbf250f72	-0.6447669
181	0xbd41e96c	-0.04734175
182	0xbf3ac4df	-0.7295665
183	0x3e971654	0.29509223
184	0x3ef0a201	0.469986
185	0xbed9b25e	-0.42518896
186	0x3f01d543	0.50716037
187	0x3d4af3a9	0.04954878
188	0x3f11878c	0.56847453
189	0x3e758cdd	0.23979516
190	0x3eae8217	0.34083626
191	0x3f6c3f0c	0.922837
192	0xbe377c2a	-0.17918459
193	0xbef3466f	-0.47514674
194	0xbf2263c1	-0.6343346
195	0xbca26142	-0.019821767
196	0x3c88cab0	0.016698211
197	0xbdba6b8d	-0.09102545
198	0x3ec38a2f	0.38191363
199	0x3ea85deb	0.32884154
200	0x3efec250	0.49757624
201	0x3e157f34	0.14599305
202	0x3f0ba87b	0.54553956
203	0xbf0a084f	-0.5391893
204	0xbf99ddc9	-1.2020808
205	0xbe99f7b2	-0.3007179
206	0x3ea675e3	0.32511815
207	0xbe423c9f	-0.18968438
208	0xbeee7a53	-0.465777
209	0x3e2cd903	0.16879658
210	0x3dc55cb4	0.09636822
211	0xbcabc24f	-0.020966677
212	0xbdd128cf	-0.10212862
213	0xbee961e1	-0.45582488
214	0x3e8289a0	0.25495625
215	0xbdc2f29e	-0.09518932
216	0xbef6ec97	-0.4822738
217	0xbf310764	-0.691519
218	0x3c0277f3	0.007963168
219	0x3e1583cb	0.14601056
220	0x3e1c3100	0.15253067
221	0x3e513791	0.20431353
222	0xbcc2eb1a	-0.023793746
223	0xbf3faa2c	-0.74869037
224	0xbebe6366	-0.3718521
225	0x3db140b4	0.08654919
226	0x3e1c76a0	0.15279627
227	0xbf12380d	-0.57116777
228	0xbf18ebe5	-0.59734946
229	0xbe9a1a4f	-0.30098197
230	0xbcd09d24	-0.025465555
231	0xbf120b36	-0.57048357
232	0xbf75ea56	-0.96060693
233	0x3f30a60b	0.6900336
234	0x3edb98b8	0.42889953
235	0xbd196729	-0.037451897
236	0xbe3af0e8	-0.18255961
237	0x3f6c9cd3	0.92426795
238	0xbcb3b18f	-0.021935252
239	0xbe0cd0d2	-0.13751534
240	0xbee41feb	-0.445556
241	0x3cc49e55	0.02400128
242	0xbf3b7745	-0.73228866
243	0x3e9a5784	0.30144894
244	0x3e89a3ea	0.2688287
245	0xbf96ae1a	-1.1771882
246	0xbe5068a2	-0.20352414
247	0xbe2b9f43	-0.16759972
248	0xbf14f2e4	-0.5818312
249	0xbe2dc62b	-0.16970126
250	0xbed7c104	-0.42139447
251	0x3dcd0829	0.10011322
252	0xbe10b655	-0.14132054
253	0xbe84d47c	-0.25943363
254	0xbd773814	-0.060356215
255	0x3f0b2da2	0.54366505

conv32.0.bias f4 [16]
0	0x3e035f5a	0.12829342
1	0xbe206376	-0.15662941
2	0x3d9c25b7	0.07624381
3	0xbe20c3b2	-0.15699652
4	0xbe36527a	-0.178049
5	0x3e1fe913	0.15616255
6	0x3c396e0b	0.01131774
7	0xbd88b422	-0.066749826
8	0xbe3ce768	-0.1844765
9	0xbd82cff4	-0.0638732
10	0xbd0174b4	-0.031605437
11	0x3dd66cd1	0.10469974
12	0x3e00e837	0.12588583
13	0x3c222f91	0.009899036
14	0x3cdd4760	0.027011573
15	0x3d2e919b	0.04261933

conv32.1.weight f4 [16]
0	0x3f7cb2d6	0.9871038
1	0x3f83c69b	1.0294985
2	0x3f9fa021	1.2470742
3	0x3fb7d860	1.4362907
4	0x3f89b89c	1.0759463
5	0x3f8617d9	1.0476028
6	0x3f9122dc	1.1338763
7	0x3fa0bcca	1.2557614
8	0x3f939bdb	1.1531938
9	0x3f8e02cd	1.1094605
10	0x3f96909c	1.1762881
11	0x3f931a06	1.1492317
12	0x3f8c3e16	1.0956447
13	0x3f935303	1.1509708
14	0x3f8a7919	1.0818206
15	0x3f96c5a5	1.1779066

conv32.1.bias f4 [16]
0	0xbefc75a7	-0.49308512
1	0xbed1f5ee	-0.41007942
2	0xbefdb5ef	-0.49552867
3	0xbf648992	-0.89272416
4	0xbecdfa1e	-0.40229887
5	0xbee73a6d	-0.45161763
6	0xbeed0e81	-0.46300128
7	0xbf236482	-0.6382524
8	0xbf08da7a	-0.5345837
9	0xbee75c76	-0.4518773
10	0xbf1c0320	-0.6094227
11	0xbeedca15	-0.4644324
12	0xbf14ec58	-0.5817313
13	0xbf24ed52	-0.6442462
14	0xbf24e1bd	-0.6440695
15	0xbf14e7fe	-0.5816649

conv32.1.running_mean f4 [16]
0	0xc005f017	-2.092779
1	0xbf828191	-1.019579
2	0xbfb7f128	-1.437047
3	0xbfce8265	-1.6133543
4	0xc014d294	-2.3253527
5	0x3fb138ee	1.3845499
6	0xbf79ab9b	-0.97527474
7	0xbfd6d723	-1.6784405
8	0xbfaa9b75	-1.3328692
9	0xc085c8f0	-4.1807785
10	0xc06d391c	-3.7066107
11	0x3fa18a47	1.2620324
12	0xc0797ee0	-3.8983688
13	0xbfa267cf	-1.268793
14	0x3f7bf715	0.9842389
15	0xbffae0d2	-1.959986

conv32.1.running_var f4 [16]
0	0x4095cf56	4.6815596
1	0x40baa4cf	5.832618
2	0x412256b6	10.14617
3	0x40e35c97	7.1050525
4	0x40c55725	6.1668878
5	0x4107981b	8.474635
6	0x40d8cc57	6.774944
7	0x40f69fb8	7.706997
8	0x41045b70	8.272324
9	0x40ace8e9	5.4034314
10	0x40c38943	6.1105056
11	0x40f392e3	7.6116805
12	0x40ed5502	7.416627
13	0x40e7982d	7.237326
14	0x40b75e43	5.7302566
15	0x4104abc4	8.291935

fc.0.weight f4 [10, 784]
0	0xbdcec81f	-0.10096764
1	0x3f7d3a71	0.989173
2	0xbe01ea22	-0.12686971
3	0xbdad989e	-0.08476375
4	0x3e488908	0.19583523
5	0x3e8418c1	0.25800136
6	0xbe70994d	-0.2349598
7	0xbe85e131	-0.2614837
8	0x3d7da834	0.06192799
9	0xbeca0ba5	-0.3946201
10	0x3e39c682	0.18142131
11	0x3ec9504c	0.39319074
12	0xbd98b5d9	-0.0745656
13	0xbe850da6	-0.25986975
14	0x3f5b9cf9	0.85786396
15	0x3e994c2d	0.2994093
16	0x3b97de53	0.0046346574
17	0xbe0ca0ca	-0.13733211
18	0xbf19fd0c	-0.60151744
19	0xbd5141e7	-0.05108824
20	0x3d087bff	0.033321377
21	0xbf2f9e1a	-0.6860062
22	0xbcb4df7d	-0.022079224
23	0xbdb391d9	-0.087680526
24	0xbd3bf4a2	-0.045887597
25	0xbdf6252b	-0.12018808
26	0x3ea96905	0.33087936
27	0xbe6dc844	-0.23220927
28	0xbf8a8914	-1.0823083
29	0xbe7fcc6c	-0.24980325
30	0xbf3b8d0f	-0.73262113
31	0xbeb671e2	-0.3563376
32	0xbdc95403	-0.09830477
33	0x3e8e66d0	0.27812815
34	0xbee00e38	-0.43760848
35	0x3f109140	0.56471634
36	0x3f074346	0.52837026
37	0xbebe9ea2	-0.37230402
38	0xbeb745d3	-0.3579546
39	0x3e982487	0.29715368
40	0x3f13a033	0.5766632
41	0xbeb996ea	-0.3624795
42	0xbe0a3aea	-0.13499036
43	0x3e471d90	0.19444871
44	0xbd727611	-0.05919463
45	0x3dc5779c	0.09641954
46	0x3e254347	0.16138946
47	0x3d322318	0.0434905
48	0xbc7e89e0	-0.015535802
49	0x3dc2e4cf	0.09516298
50	0x3e6c7a03	0.23093419
51	0x3cf4440b	0.029817602
52	0x3d6c4ef0	0.05769247
53	0xbecbf988	-0.39838815
54	0x3e6d4e32	0.2317436
55	0xbe52c9cd	-0.20584793
56	0xbdaa237e	-0.08307551
57	0xbf0bb34e	-0.5457047
58	0xbec51a09	-0.38496426
59	0x3e8ad488	0.27115273
60	0x3e94c071	0.2905307
61	0xbf6bd7b9	-0.9212604
62	0xbe7fc53f	-0.24977587
63	0x3d4b538f	0.049640235
64	0x3cabb34a	0.020959515
65	0x3eb13659	0.34611776
66	0x3da3df14	0.08001533
67	0x3edc95f8	0.43083167
68	0x3e196de8	0.14983332
69	0xbc9b543d	-0.018961066
70	0xbe3cb3f9	-0.18428029
71	0xbecd20aa	-0.40063983
72	0x3d9f01e3	0.07764032
73	0x3e428fd9	0.19000186
74	0x3e532164	0.20618206
75	0xbf315a35	-0.6927827
76	0xbebe6fcb	-0.37194666
77	0xbe98e1bc	-0.29859722
78	0xbe3ebf4e	-0.18627664
79	0xbf503e54	-0.81345105
80	0xbea3b67b	-0.3197516
81	0x3e898432	0.2685867
82	0x3ed68cf5	0.41904417
83	0xbdda673b	-0.10664221
84	0x3e8de8cf	0.2771668
85	0x3ed6125a	0.41810876
86	0xbf27a1bf	-0.6548118
87	0x3d8b51b5	0.06802694
88	0xbd9659a9	-0.0734132
89	0x3e1ccc89	0.15312399
90	0x3eeb477f	0.45952985
91	0xbdf37f37	-0.11889499
92	0x3e424068	0.18969882
93	0x3e8f7aa7	0.28023264
94	0x3e9f9f51	0.31176236
95	0xbd657ff9	-0.056030247
96	0xbd166c05	-0.03672411
97	0xbe4468d4	-0.19180614
98	0xbe9764aa	-0.29568988
99	0x3df28fc5	0.11843828
100	0xbd79844c	-0.060917184
101	0x3e9ffdb8	0.3124826
102	0x3f1bcdc3	0.6086084
103	0x3e487229	0.19574799
104	0xbee4136b	-0.44546065
105	0xbef79dea	-0.48362666
106	0x3df90539	0.12159199
107	0xbf6f2437	-0.93414634
108	0xbd99237d	-0.07477472
109	0xbf2d43db	-0.67681664
110	0xbec22b4c	-0.37923658
111	0xbf380ea8	-0.71897364
112	0x3e98d3d7	0.2984912
113	0xbf2a4fab	-0.66527814
114	0x3d961855	0.0732886
115	0xbea54da1	-0.3228579
116	0xbeba2e7f	-0.363636
117	0xbe568e83	-0.20952801
118	0xbef11800	-0.47088623
119	0xbf13ea05	-0.5777896
120	0xbe737a1f	-0.23777054
121	0xbdd007f4	-0.10157767
122	0x3dfe4ae7	0.1241663
123	0xbe3dafff	-0.18524168
124	0xbe9dd1be	-0.30824083
125	0xbec81a42	-0.39082533
126	0xbfd2e76b	-1.6476873
127	0xbf3c5333	-0.7356445
128	0xbea61221	-0.32435706
129	0xbea078e8	-0.31342244
130	0x3eea4757	0.45757553
131	0x3f1aebd8	0.6051612
132	0x3e98f851	0.2987695
133	0xbf2812d3	-0.65653723
134	0xbe5ed9e1	-0.21762802
135	0xbef3c566	-0.4761154
136	0xbe95bf84	-0.29247677
137	0x3e09bc75	0.13450797
138	0x3e423631	0.18965985
139	0x3e1c395a	0.15256253
140	0x3caf5241	0.021401526
141	0xbdbab200	-0.09115982
142	0x3e7ebe55	0.24877293
143	0x3e0ee1da	0.13953343
144	0x3e4b8438	0.19874656
145	0x3de295b0	0.11063707
146	0xbe70f964	-0.23532635
147	0xbdac7726	-0.08421163
148	0x3e641007	0.22271739
149	0xbf4a7f89	-0.79100853
150	0xbe948f13	-0.29015407
151	0xbf1a18de	-0.60194194
152	0x3deaa522	0.11457278
153	0x3d2172f5	0.039416272
154	0xbf044f73	-0.5168373
155	0xbdb6975a	-0.08915587
156	0x3ccafe8f	0.024779586
157	0xbe9af1d0	-0.30262613
158	0xbba0c0a6	-0.004905778
159	0x3b59554d	0.0033162415
160	0x3e5fe23d	0.21863647
161	0x3eeafbc2	0.458952
162	0x3d0cd9a0	0.03438723
163	0xbcd0680e	-0.025440242
164	0xbeab095d	-0.3340558
165	0xbe54d552	-0.207845
166	0xbd628357	-0.055301037
167	0xbf07f6c4	-0.5311091
168	0x3e614e95	0.22002633
169	0x3dd829a5	0.10554818
170	0xbe282815	-0.1642154
171	0xbe49a2af	-0.19690965
172	0xbf21b5f8	-0.6316829
173	0xbf40a268	-0.7524781
174	0x3e8b81e5	0.2724754
175	0x3f07d0e5	0.5305312
176	0xbe4632a7	-0.1935526
177	0x3e29929c	0.16559833
178	0x3ef68ff5	0.48156705
179	0xbec29f52	-0.38012177
180	0x3c16b035	0.0091972845
181	0x3e80457d	0.25053015
182	0x3e12daa0	0.14341211
183	0x3ea4f197	0.32215568
184	0x3ecd6559	0.40116385
185	0x3f3f06ca	0.74619734
186	0xbe3bc59d	-0.18337102
187	0xbe583970	-0.2111566
188	0xbe34edc9	-0.17668833
189	0xbe923ece	-0.2856354
190	0xbe6d62b1	-0.23182179
191	0xbf342231	-0.7036467
192	0xbe6c55ca	-0.23079601
193	0xbea09b2a	-0.3136838
194	0x3e4ac81f	0.19802903
195	0x39423bb8	0.00018523529
196	0x3e329856	0.17440924
197	0x3e5e45a4	0.21706253
198	0x3d246d94	0.040143564
199	0xbc90c924	-0.017674036
200	0xbde7eaa3	-0.1132405
201	0x3d82ea72	0.06392373
202	0xbdcae31d	-0.099066
203	0x3e16309c	0.1466698
204	0xbebf4f77	-0.37365314
205	0xbf2ab7cc	-0.666867
206	0x3eb58d93	0.35459575
207	0xbe48c2a3	-0.19605498
208	0xbe9ea89c	-0.30988014
209	0x3c5d1d04	0.013495687
210	0x3e015f69	0.12634052
211	0x3e8def82	0.27721792
212	0xbf071f40	-0.5278206
213	0xbddcfba7	-0.107901864
214	0xbe7938fb	-0.24338143
215	0xbcb93a3e	-0.02261078
216	0xbdef0500	-0.116708755
217	0x3ef96e6e	0.48717064
218	0xbca37f72	-0.019958232
219	0xbc068164	-0.00820956
220	0xbd4f081d	-0.050544847
221	0x3d48f1d7	0.04905876
222	0x3e783030	0.24237132
223	0xb997e57e	-0.0002897195
224	0x3ef013d4	0.46890128
225	0x3ee4348f	0.4457135
226	0xbcaff327	-0.021478249
227	0xbdd45d44	-0.103693515
228	0xbe31b0e8	-0.1735264
229	0xbcab9042	-0.02094281
230	0xbeb1c549	-0.3472083
231	0x3ea3a559	0.31962088
232	0x3e9d6b4f	0.30745932
233	0xbeea1931	-0.45722345
234	0xbe4b8890	-0.19876313
235	0x3f61608f	0.8803796
236	0xbe3f6efd	-0.18694682
237	0x3d06dbdb	0.032924514
238	0xbe83449a	-0.25638276
239	0xbf403a15	-0.75088626
240	0x3ef75cb6	0.4831292
241	0xbd7103d2	-0.058841534
242	0xbe560d19	-0.20903434
243	0xbe4ac128	-0.19800246
244	0xbd1218c8	-0.035668164
245	0x3d13fb9e	0.036128633
246	0x3e46cb93	0.19413595
247	0x3ed47e4c	0.41502607
248	0xbe5f241c	-0.21791118
249	0x3ea91322	0.3302241
250	0xbdd4d999	-0.10393066
251	0x3eb431d9	0.3519428
252	0x3ec0bf72	0.3764606
253	0x3d4f0162	0.050538428
254	0x3e904e4e	0.28184742
255	0xbe9b015a	-0.3027447

fc.0.bias f4 [10]
0	0xbd893281	-0.06699086
1	0x3d9cce21	0.076565035
2	0xbd9f5d3c	-0.07781455
3	0x3bd4e1b9	0.006496635
4	0x3d783662	0.06059874
5	0xbd42c475	-0.047550637
6	0xbdca2563	-0.09870412
7	0xbd1d8455	-0.03845628
8	0x3e49a550	0.19691968
9	0xbd3020d2	-0.04300005
