log/epoch-25.pth (torch_old, 43962 bytes, 32 tensors)

conv1.0.weight f4 [2, 1, 3, 3]
00000000: 212c bf3e 3a3d 653e 0158 c93e 3534 fd3e
00000010: 53ef 693f eac2 0a3f 9eac 7b3f 10a7 453f
00000020: ac01 cb3e fc51 083f ab60 40bf d499 d7bf
00000030: faea acbe 101d a1bf 7d76 4ebd e9e9 46bf
00000040: ab5b e0be 4805 753e
0.37338355 0.22386637 0.39324954 0.49453893 0.91380805 0.54203665 0.9831027 0.7720804
0.39649713 0.532501 -0.75147504 -1.684382 -0.33773023 -1.2586994 -0.050405968 -0.7770067
-0.43819937 0.23927796

conv1.0.bias f4 [2]
00000000: c571 593f 16a6 393f
0.84939224 0.7251905

conv1.1.weight f4 [2]
00000000: 2fce 943f d6d6 953f
1.1625422 1.1706188

conv1.1.bias f4 [2]
00000000: 65b0 313f 6762 613d
0.6940978 0.055025484

conv1.1.running_mean f4 [2]
00000000: 2a75 c13f 68db 153e
1.5113881 0.14634478

conv1.1.running_var f4 [2]
00000000: 7dd0 de3f 8b5b c43f
1.7407376 1.5340437

conv21.0.weight f4 [4, 2, 3, 3]
00000000: 312f 4a3e f0b6 933e a6e4 6ebd 890a 753f
00000010: e12b 2cbf d1d3 cbbe 9c90 363f fb29 0bbf
00000020: cc11 063b c7de df3e 22f5 5ebe f832 22be
00000030: ff39 31bf 6675 ab3f 8f29 cebd 923b 40bf
00000040: 58b1 be3e e382 99be 3d61 79be 13f8 ef3e
00000050: 6991 49be 30f1 913f 5651 96be 6d2f 07bf
00000060: 98f3 c7be ea53 dbbe c5fb b43e 1e82 c2bd
00000070: 613b 73be 1989 f53e 634b 643e 5815 8a3f
00000080: f8b4 5c3f 5332 24bc 9b36 053f daa7 c8be
00000090: f552 d5bd 5ade 8a3f 2779 223f 316b 833e
000000a0: bfa9 383f 842c 98b9 6bfe 9d3e 3fbe 13be
000000b0: 6675 fcbe 8cdf ab3d 1ed8 2bbe e2ee 9abf
000000c0: 602e 153f d87f edbe 1bcb 90bf 12c1 f13e
000000d0: 8ddd 1dbf 2cdb 3fbf 9b4a 6abe 09d5 89be
000000e0: ad88 c0be 56d2 1c3f 49ad 903f 7355 d53e
000000f0: 5a55 10bf a7b0 40bf f7f2 803e 9b6c 44bc
00000100: c274 123d 22a2 8e3d 02d8 d53d b821 6bbf
00000110: 82b9 a5be 558a 073e 765d a5be 6c51 12bf
0.19744565 0.28850508 -0.058323525 0.957192 -0.67254454 -0.3981004 0.71314406 -0.5436093
0.0020457385 0.43724653 -0.21773198 -0.15839756 -0.6922912 1.3395202 -0.100665204 -0.750909
0.37244678 -0.2998267 -0.243535 0.46868953 -0.19684376 1.140173 -0.2935893 -0.5280674
-0.39053035 -0.4283746 0.35348335 -0.09497474 -0.2375312 0.4795616 0.22294383 1.0787764
0.86213636 -0.010021764 0.52036446 -0.3919056 -0.104162134 1.0849106 0.63466114 0.25667718
0.7213401 -0.00029024866 0.30858168 -0.14428042 -0.49308318 0.083922476 -0.16781661 -1.2104151
0.5827389 -0.463866 -1.1311983 0.47217613 -0.61666185 -0.74943805 -0.22880022 -0.26920345
-0.37604275 0.6125845 1.1302882 0.41666755 -0.56380236 -0.7526955 0.25185367 -0.011988784
0.03575588 0.06964518 0.10441591 -0.91848326 -0.32368094 0.13236363 -0.32297868 -0.5715549

conv21.0.bias f4 [4]
00000000: e322 f43e 7370 8b3d a7c9 2b3f 2054 713f
0.47682866 0.06808557 0.6710457 0.9426899

conv21.1.weight f4 [4]
00000000: e8f8 9e3f e433 a93f 13c8 933f 71c3 9c3f
1.241971 1.3218961 1.1545433 1.2247144

conv21.1.bias f4 [4]
00000000: ace8 eebe deaa c3bc 17a6 a53e 209a 8f3e
-0.4666189 -0.023885187 0.3235328 0.28047276

conv21.1.running_mean f4 [4]
00000000: eca7 7f3f e870 983f beb3 a03f 57e2 523e
0.99865603 1.1909456 1.2554853 0.20594154

conv21.1.running_var f4 [4]
00000000: 3ed1 7040 ce88 0240 d692 3a41 d9aa dc3f
3.7627711 2.0396 11.660849 1.7239639

conv22.0.weight f4 [4, 4, 3, 3]
00000000: c1a7 26bf 2714 92bf 187a 44bf 1ea2 5dbe
00000010: ce08 29bf 433f d8be 2001 203e a5e2 30be
00000020: fdb5 48bf fe79 1d3f 1a03 fa3e 8a7c 89be
00000030: 37cc b5be 308c 9d3e be78 af3e d31e 99bf
00000040: a524 5cbe 8ab5 28be 6b22 e7be cddf 49bc
00000050: b237 e13d 6bc6 943b 80f3 d2be f38a 0cbe
00000060: 186c 113d 2835 a33e fa2c 953e 7d99 aebe
00000070: 44b1 03c0 c80d c8bf 5990 6ebe 6426 1bbe
00000080: a958 243f c53a 803e 32fb 983d 13a3 ed3e
00000090: c70f b8be 2055 19bf 5f7a c33e dc7f 46bd
000000a0: 2999 dabe 3f6a 91be eca9 f8be 3fa1 19bf
000000b0: d8c3 8fbd 9dea 33bf 8293 45bf f182 69bf
000000c0: b84e ec3d 0a9c a0be 2fa7 75bf 12da 553f
000000d0: 34c5 863e c20d 003d 2db2 7e3f d0b1 933f
000000e0: 252d 0c3e 9755 ecbd 20dd 2bbd a2b8 06be
000000f0: 1ad9 c9be f7f8 12be a6d6 19bc 4d4f 1dbf
00000100: 408e 053f af5f 5e3f f7fc be3c 8c87 823e
00000110: bf0f 393f 0368 fe3a 9825 41bc 0075 ddbd
00000120: 63d5 d5be 2da4 8abe 1f20 1e3f f5bf 50bf
00000130: 00ea d83d 9792 283f 824c f63e 9d69 ba3e
00000140: 6489 343f 5b5b f4bb dedf d83d ae76 ccbe
00000150: ca8d b73e 8776 ff3e 4508 1fbe 981d 1d3f
00000160: fe50 703f 6655 fa3d bea6 a73e 6af8 45bc
00000170: e619 7fbe 5b0c 16bc 7108 223f 8bed 6b3f
00000180: 6d97 e43e 2066 863f 5b7c 653f 0770 933c
00000190: a989 0fbf b301 f2be 7adb 3abf 76fe 6abe
000001a0: bf6e f1be b00b 7bbe 64e0 083c 17c2 89be
000001b0: 3993 77be f3a3 90be df68 a2be 1ea6 19bf
000001c0: e8f9 09bf 946f 0fbf e100 2d3f 0bff 413e
000001d0: 79f7 cabe a4d2 6b3f bcdf bcbe 8b4e 7d3c
000001e0: 811f 95bf 4e20 c8bd e438 ee3e 6ed2 f53e
000001f0: cc51 28be 28df e9b9 389b 8ebd b30e 09bf
00000200: 18b6 c7bd 2391 123f 1ec1 4d3e 957b 26be
00000210: 2e56 4e3f 27d3 4c3e 495a cabe 76b0 b23d
00000220: 8754 e43d 4782 b53e ef4a 383e ed9a 223f
00000230: 2955 4b3f fdbd 4a3e 281d 3bbf d095 34bf
-0.6509972 -1.14124 -0.767488 -0.21643874 -0.6602906 -0.42235765 0.15625429 -0.17273958
-0.7840269 0.6151427 0.4883049 -0.26852828 -0.35507366 0.30771017 0.34271806 -1.1962532
-0.21498354 -0.16475502 -0.45143446 -0.012321425 0.10996951 0.004540255 -0.412014 -0.1372488
0.035503477 0.31876493 0.29135877 -0.34101477 -2.0576944 -1.5629206 -0.23297252 -0.15151364
0.64197785 0.25044838 0.07469787 0.46413478 -0.35949537 -0.59895515 0.381793 -0.04846178
-0.42694977 -0.28401372 -0.4856714 -0.60011667 -0.07019776 -0.70279866 -0.77178204 -0.91215426
0.11538452 -0.31369048 -0.95958227 0.83535874 0.2632233 0.03126312 0.99490625 1.1538639
0.13689096 -0.115397625 -0.041958928 -0.1315637 -0.39423448 -0.14352785 -0.009389555 -0.6144913
0.5217018 0.8686475 0.023313982 0.2549404 0.7228965 0.001940966 -0.011788748 -0.108133316
-0.41764364 -0.2707838 0.6176776 -0.81542903 0.10591507 0.6584868 0.48105246 0.36408702
0.7052214 -0.0074571795 0.10589574 -0.39934295 0.35850364 0.49895117 -0.15530498 0.6137328
0.93873584 0.1222332 0.32744402 -0.012083152 -0.24912223 -0.009158219 0.6329413 0.92159337
0.4464678 1.0499916 0.89642876 0.017997755 -0.5606943 -0.4726692 -0.72991145 -0.22948632
-0.47154805 -0.24516177 0.00835428 -0.2690589 -0.24177255 -0.28250083 -0.31720635 -0.600191
-0.5389695 -0.5602963 0.67579466 0.18944947 -0.39641932 0.9211829 -0.36889446 0.015460621
-1.1650239 -0.09771787 0.4652778 0.48012108 -0.16437453 -0.00044607488 -0.069631994 -0.53538054
-0.097515285 0.5725271 0.200932 -0.1625808 0.8060025 0.20002423 -0.39522007 0.087250635
0.11148935 0.35450956 0.17997335 0.6351765 0.7942682 0.19799037 -0.73091364 -0.70541096

conv22.0.bias f4 [4]
00000000: 5ca4 953e 962e 8cbe f63e a33e 7537 56be
0.2922696 -0.27379292 0.31883973 -0.20919593

conv22.1.weight f4 [4]
00000000: 25f3 ce3f e2a1 943f 8c0e 903f aad2 813f
1.6167952 1.1611903 1.1254439 1.0142415

conv22.1.bias f4 [4]
00000000: 6895 6ebe 0c0e 633e 9258 b73e 4a31 103d
-0.23299181 0.22173327 0.3580976 0.035203256

conv22.1.running_mean f4 [4]
00000000: 8f44 31c0 6841 b8be 7865 2040 12cf babd
-2.7698095 -0.359874 2.5061932 -0.09121527

conv22.1.running_var f4 [4]
00000000: 8679 cd41 b73b 1641 ace6 3941 45b2 c140
25.684338 9.389579 11.618816 6.0530114

conv31.0.weight f4 [8, 4, 3, 3]
00000000: d2a9 84be 95bd 26be 904c 963e 6282 303d
00000010: 7b39 5bbe 2150 d23e 8483 873e af95 4a3f
00000020: 70df bfbd e6b1 603e ce3a 213e 66b8 0fbf
00000030: 92cf a4be c2a4 223f d5e2 cc3f 6758 dd3d
00000040: 4507 15bf d717 c03d a2cf 0cbe 9421 423f
00000050: 04ba 91bd cbca 45be 2748 473e 63f7 75bd
00000060: 12d9 053f 44f0 923c 828a 1a3f 8e1a 08bf
00000070: 0017 6ebd 1d39 d2be 9f5b 073e f4d8 b5be
00000080: 4d7b b43e 7c0a 913e c435 94be 4bdb 18bf
00000090: 4868 3c3f a3ae a33f 9d98 9b3e c0eb 32be
000000a0: 0815 fabe fcbd aa3d 3ece 973e 0904 bf3f
000000b0: 35ca bc3f 760f 2bbe efe1 993d dcce 573e
000000c0: 84d9 673e 5826 d93e 5fe0 433e b3ce 21bc
000000d0: 7509 2ebd 379f adbe 2980 3dbf 88b5 51bf
000000e0: 726f 5f3d f1e5 273f 51ae 66be 4663 72be
000000f0: d9f3 c53e dc1b 15bf d84b d8be c607 2b3e
00000100: c6b7 f2bd 6b65 543e 1804 1a3f 0348 473e
00000110: 6e72 403e 8cac 1e3f ecf4 d23d 4219 323c
00000120: d265 923c 218d a5be 9034 7dbe 4d5b 223f
00000130: 27fe 193f 241a 4cbf e4bc 563f 8af6 29bf
00000140: f257 6abf 4732 343e 5e11 323f 7468 bbbe
00000150: 2f9c 203e e669 50bf b907 903e d5be 5dbf
00000160: 14fd 27bd 3311 013f 539e dcbe 980b 51bf
00000170: 4ac3 04bd 9b95 49be e785 b73f 5d54 8abe
00000180: 31e4 05bf bf06 5a3e d432 b73d 2028 f73e
00000190: 3da7 aebe 51c1 14bf 9d30 02be d3a7 88be
000001a0: 93ec cb3e a0fa da3e a4c5 e63c 3215 18bf
000001b0: 7801 c2be d9cb 403e 272f a8bd 470e b6be
000001c0: 4b52 88bf f583 053f 19b3 16be 677e 4cbf
000001d0: 5f33 babe 40fb 21bd 0ef0 93bf a5d2 033f
000001e0: beb5 583f f57f 133f 54b5 423e eb93 c3bd
000001f0: 224a 3b3f c8e4 063f 471c d5bd 294a f7be
00000200: 651d 75be a25d 2b3f ba5e b63e 1d7a 45bf
00000210: 9349 92be 8e47 44bf 77bd d4be 6107 f13b
00000220: 3733 1b3f d130 1c3f 02f7 0d3f f6c6 b6be
00000230: 01b7 a1be 76e9 5bbf 30d8 593d a799 b2be
00000240: e02e 0f3e e605 bebe 8d3b 573d a0e1 e33e
00000250: ae04 6bbe 1668 00be 1b11 0ebc f632 763e
00000260: 73b3 843f 13ad 73bf b7d2 4a3f ca5f ddbe
00000270: 9b84 6ebd 8941 c5be ec04 45bf 7359 ad3d
00000280: 4c4c acbf 8cc9 34be b08a 2ebe 4307 8ebe
00000290: dec5 dc3e 3d21 413e 8822 b2be 1b64 d43e
000002a0: 7976 293e 7580 7abf 05a0 c6bd 651b 38bf
000002b0: dd1f 80be ae0e 943e 6e3a 953f 9a7e 8b3e
000002c0: 7a10 2ebe 9afc e5be 1f88 423c 7b9b 803e
000002d0: 8720 c53d 1299 15bf 4b84 7f3f 2448 82be
000002e0: 4389 78be 4e0d 33be f51e 113e 89b2 f9be
000002f0: be01 5abf 4bff 20be b09f efbe dc9e bbbe
00000300: b940 ae3d 76a2 97be 8a99 ee3c f8ca 593e
00000310: 4146 f03e 0a00 d1be 975d 66be fcf8 743f
00000320: 9b1f b23d 16c1 aabe 6c96 6c3e db1d 1d3d
00000330: 13e4 f6be b2a6 dc3e d3cb ea3d fc5f 843c
00000340: 9f52 dbbf 6b6c d6bd 0fb8 2cbf 0c20 77bf
00000350: bddd 033f 29ad c4ba c886 ffbe 2981 6cbe
00000360: 139d febd bf69 bfbe 0e34 58bf ad96 edbd
00000370: e0ba 183f 04c4 6cbe 9239 0abf a4a5 543c
00000380: 606e f13e ffcb 11bf 2199 0d3e fcbd 32bf
00000390: 8559 bcbe 1550 39bd 5848 123f 8330 a93d
000003a0: 4f73 2f3e fc26 963e 962f efbe 9a58 a2bd
000003b0: 8d96 913e fae4 a33f eb92 913f ec61 26bf
000003c0: ea40 91be b162 dfbe 7d9c 053e 0d0f 293e
000003d0: ee13 3abf 9fe9 c3be b101 20be 6845 573e
000003e0: accd 75be 47af 3d3e 505e 913e 30d4 493f
000003f0: 7211 ee3d e076 0a3f 5b7b 673f 7b18 de3e
-0.25910813 -0.16283257 0.29355288 0.043093093 -0.21408646 0.41076759 0.26467526 0.7913465
-0.09368789 0.21942863 0.15745088 -0.56140745 -0.32189614 0.6353265 1.6006724 0.10807877
-0.5821422 0.09379547 -0.1375108 0.75832486 -0.07115558 -0.1931564 0.19461118 -0.06005038
0.5228435 0.017936833 0.60367596 -0.5316552 -0.058127403 -0.410592 0.13218544 -0.35517085
0.3525032 0.2832831 -0.2894727 -0.59709615 0.7359662 1.278767 0.30389872 -0.17472744
-0.4884417 0.08337018 0.29649538 1.4923106 1.4749209 -0.16705117 0.075137965 0.21075004
0.2264157 0.42412066 0.1912856 -0.009875941 -0.042489488 -0.33910534 -0.7402368 -0.8191762
0.054549642 0.6558524 -0.22527434 -0.23670682 0.38662603 -0.58245635 -0.42245364 0.16702184
-0.11851458 0.20741813 0.60162497 0.19461064 0.18793651 0.61982036 0.103006214 0.01087028
0.017870817 -0.32334235 -0.24727082 0.63420564 0.6015343 -0.7972739 0.83881974 -0.66391814
-0.91540444 0.17597304 0.6955775 -0.3660313 0.1568458 -0.8141159 0.28130892 -0.8661931
-0.04101284 0.5041687 -0.43089542 -0.81658316 -0.032412805 -0.19685976 1.4337739 -0.2701749
-0.5230132 0.21291636 0.089452416 0.482728 -0.34111968 -0.5810748 -0.12713857 -0.2669054
0.3982893 0.42769337 0.028170414 -0.5940734 -0.37891746 0.18827762 -0.082121186 -0.35557768
-1.0650114 0.52154475 -0.14716758 -0.79880375 -0.36367318 -0.03954625 -1.1557634 0.51493293
0.84652317 0.5761712 0.19014484 -0.095496975 0.7315999 0.5269284 -0.10405784 -0.48298767
-0.23936994 0.6693975 0.35619146 -0.77139455 -0.28571758 -0.76671684 -0.415508 0.007355616
0.6062502 0.6101199 0.5545503 -0.3569867 -0.31584933 -0.8590311 0.053184688 -0.34882852
0.13982725 -0.37113875 0.052547026 0.44508076 -0.22951004 -0.12539706 -0.00867107 0.24042878
1.0367264 -0.95185965 0.79227775 -0.43237144 -0.05823193 -0.38526562 -0.76960635 0.08464327
-1.3460784 -0.17655009 -0.17045093 -0.27739915 0.4311971 0.18860336 -0.3479197 0.41482624
0.165491 -0.9785226 -0.0969849 -0.719168 -0.2502431 0.2891745 1.1658456 0.27245027
-0.16998473 -0.44919282 0.011873274 0.25118622 0.09625345 -0.5843669 0.9981124 -0.25445664
-0.24271111 -0.17485544 0.14171965 -0.48769024 -0.8515891 -0.15722387 -0.4680152 -0.36644638
0.085084386 -0.29616135 0.029125948 0.21268833 0.469286 -0.40820342 -0.22496639 0.9569242
0.086974345 -0.33350438 0.23104256 0.03835855 -0.48220882 0.43095928 0.11464658 0.01615905
-1.7134589 -0.10469898 -0.6746835 -0.96533275 0.5151022 -0.0015005219 -0.49907517 -0.23096146
-0.12432303 -0.37385365 -0.8445443 -0.11601005 0.5966015 -0.23121649 -0.53994095 0.012978945
0.47154522 -0.569519 0.13827945 -0.69821143 -0.36787048 -0.045242388 0.5714164 0.08261206
0.1713383 0.29326618 -0.46715993 -0.07927056 0.28435174 1.2804253 1.1372961 -0.64993167
-0.28369838 -0.43629983 0.13047977 0.16509648 -0.7268666 -0.38264176 -0.15625645 0.2102257
-0.24004239 0.18523894 0.28392267 0.788394 0.11624421 0.5408764 0.904226 0.43378052

conv31.0.bias f4 [8]
00000000: 689d f43e 0daa bfbd 4ff1 ccbe 7833 803b
00000010: 37a5 02be 39d7 06bb 4b07 ccbe 3c62 2b3e
0.4777634 -0.093586065 -0.40027854 0.0039123856 -0.12758337 -0.002057506 -0.39849314 0.16736692

conv31.1.weight f4 [8]
00000000: 5115 793f 95f2 8f3f 5a34 a03f db17 a33f
00000010: 9adf a33f 1d94 a33f c96d b23f f189 c23f
0.9729815 1.1245905 1.2515976 1.2741655 1.2802613 1.2779576 1.3939754 1.5198346

conv31.1.bias f4 [8]
00000000: a1c6 533e 6188 a1bd 4362 40bd 46cc 81ba
00000010: d8b9 98be e022 0abe 5845 1d3e 9e92 93be
0.2068124 -0.0788734 -0.04696871 -0.0009902797 -0.29829288 -0.13489866 0.15358484 -0.28822798

conv31.1.running_mean f4 [8]
00000000: 46ba 2740 8c5c 3240 e1a2 d7bf c805 dcbf
00000010: 4570 15c0 747d 49c0 9abb 64be 45e4 1ac0
2.6207442 2.7868986 -1.6846582 -1.7189264 -2.3349774 -3.148282 -0.2233719 -2.4201825

conv31.1.running_var f4 [8]
00000000: fd69 be40 c17e 1341 1306 d840 d131 3241
00000010: f438 1841 b24c 1541 705c 0541 1c07 8741
5.950438 9.218446 6.7507415 11.137162 9.513905 9.331224 8.335068 16.878471

conv32.0.weight f4 [16, 8, 3, 3]
00000000: 4766 803e adef 2d3f cda8 a83d 7e64 38be
00000010: a616 33bf ec5e 163f 0bb9 64be 5ff7 b3be
00000020: b85a 56be 55b9 63be 2c5f 59bf e044 41bd
00000030: 5707 693f 917e e9bd 6301 05bf f031 853f
00000040: 873e f93d 3371 47be 74d8 3abf 8bcd 963e
00000050: 0855 ad3e 734e 433c 5a58 17bd 6e2b 713f
00000060: e0a2 633e f620 9c3e c724 bcbf a724 a73e
00000070: f2d7 d73d 51a9 833a 9e4b cd3b 3f0f a2bd
00000080: de35 54bd 3e1a b8bd ad7b 4abd cb0f 2bbe
00000090: 5c55 3bbf b25a ed3d 991c 1d3f 359b 1a3e
000000a0: 823e e6be 1284 02be 803b 903e d2fa a3be
000000b0: 7ec2 8abf 671e c0be 8730 c9bd 24a4 a1be
000000c0: f950 bdbe 78d5 64bf 7bee 73bd d11b 7e3f
000000d0: a81a 1f3f 245c 32be 1f45 33bf 4cc6 8bbe
000000e0: 4b30 bf3e 555b 32be 310f f8bd 1ab7 df3e
000000f0: 082a a8be 6545 fe3d c6ee 96bf c6b5 b03d
00000100: 364a cc3e 3408 eebd 0803 17bf f227 00bf
00000110: 6238 eebe 79b1 d5be a2e8 953d 3eb3 a3be
00000120: e3cf 373d b492 893f 6411 e43e 6d63 adbe
00000130: b2ed 433e 378f 743e 9405 43bf 9e0a c1be
00000140: 0d57 84be 96a9 303e 2060 19bf 5469 12be
00000150: 933a 423d 1803 9a3e d3f0 023d 212c 983d
00000160: 8638 283f a590 b93e 2e4e 713c 5401 cb3d
00000170: 63b9 81bf 1bf5 09bf d04e a13d bace 3d3f
00000180: 0868 603e 8cb2 9dbe 3843 3bbe 002b ccbd
00000190: 6af1 a9be c80b 363d e27d 3ebf 1370 663f
000001a0: 1497 64bf fc26 61bf 3bd2 cfbd 5274 2fbe
000001b0: 6da7 c83e f1e5 8b3d b325 56bf e9d9 a83e
000001c0: 9e35 0c3f d7c1 afbe 6705 1d3f c58f e83e
000001d0: 7dfc 863e 4bda 0c3f 0763 30bf 1b6e 493e
000001e0: 878f 3fbf 23f5 41bf 44d7 02bf 8259 433e
000001f0: 8af4 043d 151c f4be c773 25bf 0a8e 943e
00000200: ded8 963e 47b4 2f3e 3141 7f3d 8b8c 9b3d
00000210: ea21 2c3d fed7 213e b8c5 293e a59e 5e3f
00000220: a04c 6d3e 7437 eebe 1fed 38bf 7b43 303e
00000230: ee64 cebe 7c7e 413e e39d 6c3d e1d2 2bbe
00000240: bf76 a5be 729e 603e 9ca4 e33e 50de b4ba
00000250: 496c 303f cfdc a2bd 9691 3fbf c89e 1bbf
00000260: 28f9 31bf 935b 35bc 1b49 fcbb b348 ac3f
00000270: 55ff e33e 0820 1d3e b2d2 0cbf 1be7 4abd
00000280: a105 7abf ec43 9bbe e943 93bd c3f8 99be
00000290: c779 d53e 38c9 eebe 2b3b 42bf 72f1 28bf
000002a0: ada2 6dbe 045d 673e 908e 143f 0a8f 02bf
000002b0: cef8 40be c6aa 8b3e d36d 713e a06e ba3e
000002c0: e5c5 a1be 6e15 9abe d69c 50bf 42a2 06bf
000002d0: 60d0 53bf c187 e1bd f8ed 47bf 93b3 813e
000002e0: 61c9 ea3e 2624 fdbe a979 0b3f 6ac5 0d3e
000002f0: 5142 0d3f a786 bf3e 336f 233e 408b 843f
00000300: be32 3fbe 9462 06bf 38ca 38bf 2608 ddbc
00000310: 7fcf 3fbe 9555 b3bd 972b ec3e 8712 993e
00000320: b949 d63e 72ab bd3d bac1 083f 2c52 11bf
00000330: b390 a7bf 15b9 f5be 9896 d23e fe7b 59be
00000340: 8b6f 01bf 3a35 1d3e 436f ec3d 581f 4d3d
00000350: 319d 8fbe 15d7 0cbf ca55 bd3e 0191 68bd
00000360: 6d64 04bf 294a 58bf 917c c03b e33b 2c3e
00000370: 19be 4f3e 57c8 f13d 1a2d 4cbc 61ff 73bf
00000380: 551e a8be 6c65 093e da0d 0a3e 3a0d 28bf
00000390: 4e03 fdbe 2224 d9be 0eaf ce3c 89f8 01bf
000003a0: 2c38 90bf 5ac9 503f 49ef d33e 7e66 36bd
000003b0: 4335 80be 3da8 803f 4757 9a3c a5bd 06be
000003c0: fdb1 e3be f7bb 05bd 3730 38bf 72de af3e
000003d0: 1a57 e93e 4b99 94bf ebf0 84be 992e ff3c
000003e0: b1c7 2abf c7c8 04be 6e9b 01bf 0ac4 863d
000003f0: e8f8 34be 1ca7 98be ae54 de3d 3d92 233f
0.2507803 0.6794384 0.08235321 -0.18007085 -0.69956434 0.5873859 -0.22336213 -0.35149667
-0.20933044 -0.22238667 -0.84910846 -0.047184825 0.91026825 -0.11401094 -0.5195524 1.0405865
0.12170129 -0.19476776 -0.7298653 0.29453692 0.33853936 0.011920559 -0.036949493 0.94206893
0.222301 0.30493897 -1.4698724 0.3264515 0.10539235 0.0010044967 0.006265118 -0.07913064
-0.051809184 -0.0898938 -0.049434353 -0.16705243 -0.73177123 0.115895644 0.6137176 0.1509827
-0.44969565 -0.12745693 0.28170395 -0.32027298 -1.0840604 -0.37523195 -0.09823709 -0.31570542
-0.3697584 -0.8938823 -0.059553605 0.99261194 0.6215005 -0.17417961 -0.70027345 -0.27299726
0.37341532 -0.17417653 -0.121122725 0.43694383 -0.32844567 0.1241558 -1.1791618 0.086284205
0.39900368 -0.11622658 -0.58989 -0.5006095 -0.46527392 -0.41736963 0.07319762 -0.31972688
0.04487599 1.0747895 0.44544518 -0.33864918 0.19133642 0.23882757 -0.76180387 -0.37703413
-0.25847664 0.17252192 -0.599123 -0.14297992 0.047419142 0.30080485 0.03196795 0.07430292
0.6571125 0.36243168 0.014728112 0.09912363 -1.01347 -0.53889626 0.078763604 0.74143565
0.21914685 -0.30800283 -0.1828736 -0.09969139 -0.33191997 0.04444483 -0.7441083 0.9001476
-0.89293027 -0.8795011 -0.1014752 -0.17134216 0.39190236 0.06830967 -0.83651274 0.32978752
0.54769313 -0.34327576 0.6133637 0.45422187 0.26364508 0.5502059 -0.68901104 0.19670908
-0.7482838 -0.75764674 -0.5110972 0.19077113 0.032459773 -0.47677675 -0.6462979 0.29014617
0.29462332 0.17158614 0.06231803 0.07595166 0.04202453 0.1580505 0.1657933 0.8696082
0.23173761 -0.46526682 -0.7223682 0.17213242 -0.40311378 0.18895906 0.05776776 -0.16779663
-0.3231716 0.21935442 0.44461524 -0.0013799164 0.6891523 -0.07952272 -0.7483152 -0.60789156
-0.6952081 -0.011069196 -0.0076991445 1.3459686 0.4453074 0.1534425 -0.55008996 -0.049536806
-0.9766484 -0.30325258 -0.07190687 -0.30072603 0.4169447 -0.46637893 -0.75871533 -0.65993416
-0.23206587 0.22594076 0.58030033 -0.5099951 -0.18844911 0.27278727 0.23577051 0.36412525
-0.31596294 -0.30094475 -0.8148931 -0.52591336 -0.8273983 -0.11012221 -0.78097486 0.25332317
0.45856765 -0.49441642 0.54482514 0.13844839 0.55179316 0.3740742 0.15960388 1.0354996
-0.186717 -0.5249417 -0.7218356 -0.026981425 -0.18731497 -0.08756558 0.46127006 0.29896948
0.4185312 0.09261216 0.53420603 -0.5676601 -1.3091034 -0.4799277 0.4113052 -0.21238706
-0.50560826 0.15352336 0.11544659 0.05007872 -0.28049615 -0.5501569 0.36979514 -0.05677891
-0.5171574 -0.8448816 0.0058742245 0.1681972 0.2028736 0.1180579 -0.012461925 -0.9531155
-0.32835642 0.13417596 0.13481846 -0.6564518 -0.49416584 -0.4241038 0.025229957 -0.5076986
-1.1267142 0.8155724 0.41393498 -0.044531338 -0.25040635 1.0051342 0.018840445 -0.13158281
-0.44471732 -0.03264996 -0.7194857 0.343494 0.45574266 -1.1609281 -0.25965056 0.03115015
-0.66710955 -0.12967215 -0.5062779 0.0658036 -0.17673075 -0.29814994 0.10855995 0.63895017

conv32.0.bias f4 [16]
00000000: b236 193e 24b9 1ebe 3516 be3d dd00 7abe
00000010: 5569 07be feda 863e 5888 3c3e 5f21 78bc
00000020: d6b8 0bbe e34e 92bd 3e40 27bd b426 253e
00000030: 7825 243e fb9e ac3d d679 02bb 94e0 853d
0.14962271 -0.15500313 0.092815794 -0.24414392 -0.13223775 0.26338953 0.18411386 -0.015144675
-0.13644728 -0.07143953 -0.04083275 0.16128045 0.16029918 0.084287606 -0.0019909046 0.065369755

conv32.1.weight f4 [16]
00000000: 85c6 8d3f b258 9f3f d23f a53f de3c ca3f
00000010: d0c8 9f3f 4d2b 9c3f 1829 af3f ab2b b63f
00000020: 57b5 a43f 3e5c 9d3f cfab af3f 1f57 a73f
00000030: 6812 a33f 93da a73f 9505 9e3f 8dc9 b03f
1.1076208 1.2448943 1.2910101 1.5799825 1.2483158 1.2200714 1.3684416 1.4232076
1.286784 1.2293775 1.3724307 1.3073462 1.2739992 1.3113579 1.2345454 1.3811508

conv32.1.bias f4 [16]
00000000: 8728 0fbf 398c 0abf b3c7 0dbf 3f73 87bf
00000010: 2eaf e3be 41c4 0cbf 0091 f2be dae4 37bf
00000020: ad7f 1bbf b9cd 11bf 259c 3cbf 1dba 0fbf
00000030: f5a2 37bf 6d22 2fbf 1adf 3dbf 5f87 39bf
-0.55921215 -0.5412021 -0.5538284 -1.0582045 -0.4446959 -0.5498696 -0.4737625 -0.71833575
-0.6074169 -0.5695453 -0.7367576 -0.5614336 -0.7173303 -0.68411905 -0.7416855 -0.72472185

conv32.1.running_mean f4 [16]
00000000: ea4d 09c0 b2b3 8fbf 53d7 01c0 a672 e0bf
00000010: 7a11 1ec0 774f d53f 210b 55bf 6e23 0ec0
00000020: 7089 99bf 1280 8fc0 8964 6bc0 1b72 aa3f
00000030: ce7c 8cc0 b6f6 cfbf 0102 a33f 46c1 07c0
-2.1453805 -1.1226714 -2.0287673 -1.7534988 -2.4698167 1.6664876 -0.83220106 -2.2209125
-1.1995068 -4.4843836 -3.6780112 1.3316072 -4.390235 -1.6247165 1.2734987 -2.1211715

conv32.1.running_var f4 [16]
00000000: f77f cb40 9b99 f740 fa21 4741 761d 0d41
00000010: 349b 0a41 0a63 2941 c442 0e41 d5eb 2941
00000020: 8b8f 2341 2a7f e940 7280 0541 cce4 1b41
00000030: 940f 1541 1c10 1d41 0290 e540 a9a9 2d41
6.3593707 7.7375007 12.445795 8.819693 8.662891 10.586679 8.8913 10.620076
10.222545 7.296773 8.343859 9.743359 9.316303 9.816433 7.173829 10.853921

fc.0.weight f4 [10, 784]
00000000: 87e3 c2be fb77 a33f 9d5a b8bc 7772 20bd
00000010: c33c 943e b681 7d3e fc40 9dbe 5de0 b6be
00000020: f210 1c3e 8137 c7be d88d 7d3e e91f 043f
00000030: cabd 02be ec9e b2be 221e 413f 6c31 ab3e
00000040: 6d61 d2bd 18f8 48be 8b6e 2ebf 0c2a 6abe
00000050: 79bc 16bd 4a54 e5be 569e 713d 99c7 30be
00000060: 0b10 b63d 0e29 71be 5e3e f13e 57d5 f8be
00000070: 3e5b b6bf 50c9 16be 3f27 45bf fad0 dfbe
00000080: a9f9 1ebe 9ff4 9c3e 1c57 0fbf aed1 1f3f
00000090: 7d1e 433f 30f5 ffbe a1ce 3ebf 5de2 503e
000000a0: 3023 623f c583 c9be a6dc 40be f61e 573e
000000b0: 4fc9 c2bd 9ab8 3e3e 4aa5 383e 303c e83d
000000c0: ba44 223d 23c1 733e ea9b db3e f179 a73d
000000d0: f369 6e3b 806f 15bf 8faf 5c3e ce39 93be
000000e0: 33bd 7cbd f2ec 24bf 7906 c6be d2f7 853e
000000f0: 1f85 413e 70f2 73bf 95d6 29be a938 4a3d
00000100: d46b a2bc 211b 683e de30 e83d 2f6d d93e
00000110: a3f2 583e aed9 5b3c d34e a2be 3347 16bf
00000120: 2e58 333e bf56 803e 264d 513e 74c1 4dbf
00000130: 7cef ddbe c86c c0be 24fc a3be 44bf 76bf
00000140: bb3b f5be 6074 993e cac5 f93e 49cf 48bd
00000150: 1e36 903e 4296 ea3e 3aeb 2fbf 72ad 413e
00000160: bcf4 f83d 3fc7 443e 3278 d73e df88 24be
00000170: 1d3f 823e b6da b73e fd5e fb3e 40a0 67be
00000180: 53f5 b6bd a739 ec3c a039 e0be f449 e43d
00000190: 367e 2fbe 04dc 4a3e 362b 693f 4e4e c03e
000001a0: 71cb cbbe 2b01 1ebf 3855 813e 4d2f 8dbf
000001b0: 9fa1 0bbd ce90 68bf d6e4 fcbe 537f 63bf
000001c0: 191c 023f 0d5d 2fbf 5407 1bbd fe48 a7be
000001d0: c1f3 a1be a303 1fbe 4ecc d3be 0997 31bf
000001e0: 04fa a8be 13f1 dbbd 79c5 b03d eead f6bd
000001f0: 02b7 f3be 43bb c2be 1906 e4bf 7501 7cbf
00000200: bddc ebbe de4b 02bf 91df 183f 167b 4f3f
00000210: 65a1 c53e 8531 56bf f891 c8be 7c8e 05bf
00000220: ecda babe 5e84 243e 84e4 503e 98be 0c3e
00000230: b7b9 4b3c 91b7 c3bd d4f6 6f3e 30a0 5e3d
00000240: fdff 7f3e b4c7 f93d 876b dcbb 9471 74be
00000250: a5a1 193e 62cc 6dbf 5134 aabe 3320 57bf
00000260: a680 833e 9570 1f3d e172 30bf df79 3fbe
00000270: 0abf f73d addd bbbe 3207 c63c 528a 2dbd
00000280: 4c04 a83e 7796 1d3f 97fa dcbc da12 313c
00000290: de8c b9be fe26 c43a e3ee 91bd 44b0 41bf
000002a0: 41cb 8e3e 1003 0c3e 5ece 69be 99af 11be
000002b0: c752 37bf 9815 7ebf 2459 3c3e 0cd3 053f
000002c0: 88d8 80be 3d86 023e e4f3 023f 1e66 aebe
000002d0: 98b8 be3d edb1 643e bd07 3b3e 4bb9 7e3e
000002e0: a2b7 ec3e 7090 913f 6e58 d2be 6bc0 2dbe
000002f0: 13df 23be 1eb7 9abe c0a7 443c 9dac 4bbf
00000300: 86bc 91be e0fc 56be 99db 8a3e a202 3a3d
00000310: c62c 153d 9860 923e 7245 923d 10a0 d9bc
00000320: 1772 303a 12a1 123d 6a19 82bd 7190 833e
00000330: 781a cfbe ca35 52bf 67c8 cd3e 2b86 3ebe
00000340: d4a0 94be 0e4f 933d fd3c db3d 5a28 6d3e
00000350: 0a66 05bf c99c 5ebe 45e7 cbbe 95db 7d3d
00000360: 0f86 adbd 538e 1e3f ba89 a0bd 1324 abbd
00000370: b524 42be bc15 8c3d 19f3 ba3e 725d ca3c
00000380: e853 d93e cfe6 d13e 2db0 793d a1b8 7a3b
00000390: 8013 8cbe 5752 153e f04b 36bf c36f c03e
000003a0: 382a 6b3e 8761 b2be a3f9 a5be 3850 843f
000003b0: f79b f1bd 390f 85bd 43ce abbe 1799 56bf
000003c0: 2428 073f da59 7ebd d440 81be 41c0 8cbe
000003d0: 05bb 35be 84dc 073d 4c5b b83e 226c 0f3f
000003e0: abd2 acbe 71a9 d83e 2c86 8fbe 2aae 7c3e
000003f0: 240c d63e 154e 5a3d 2386 0c3f 5c5c 07bf
-0.38064215 1.277099 -0.022504145 -0.039171662 0.28952608 0.24756512 -0.30713642 -0.3571805
0.15240839 -0.38909534 0.2476114 0.5161119 -0.12767711 -0.34886873 0.75436604 0.33436143
-0.10272489 -0.1962589 -0.68137425 -0.22867602 -0.036800835 -0.4479087 0.05898889 -0.1726364
0.08889779 -0.23550817 0.47117895 -0.48600265 -1.4246595 -0.14725232 -0.7701301 -0.43714124
-0.15524925 0.3065538 -0.55992293 0.6242932 0.76218396 -0.4999175 -0.7453404 0.2039885
0.8833494 -0.39358345 -0.1883417 0.21007904 -0.09511053 0.18625107 0.18031803 0.11339605
0.039616324 0.23804145 0.4289239 0.08177555 0.0036379069 -0.5837326 0.21551345 -0.2875504
-0.061703872 -0.6442405 -0.38676813 0.26165634 0.18898438 -0.95291805 -0.16585763 0.04937044
-0.019826807 0.22666599 0.11337446 0.42466113 0.21186309 0.013418598 -0.31700763 -0.5870239
0.17514107 0.25066182 0.20439586 -0.8037331 -0.43346775 -0.37582994 -0.32028306 -0.963856
-0.47897133 0.299716 0.48783714 -0.049025808 0.28166288 0.45817763 -0.687183 0.1891382
0.121560544 0.19216631 0.4208389 -0.16067837 0.25438777 0.3590905 0.49095908 -0.22619724
-0.08933511 0.028836085 -0.43793964 0.11146918 -0.1713799 0.19810492 0.9108156 0.37559742
-0.3980365 -0.6172053 0.2526033 -1.103006 -0.03408968 -0.90845954 -0.49393338 -0.88866156
0.50824124 -0.6850136 -0.037848786 -0.32672876 -0.31631282 -0.15528731 -0.4136681 -0.69371086
-0.33003247 -0.10739341 0.08631415 -0.12044893 -0.4760056 -0.38033494 -1.7814361 -0.98439723
-0.46066847 -0.50897014 0.59716135 0.8104719 0.38599697 -0.8366931 -0.39173865 -0.5217054
-0.3649515 0.16066119 0.20399672 0.13744581 0.012434415 -0.09556497 0.23434001 0.054351985
0.24999996 0.121962935 -0.0067266854 -0.23871452 0.15003069 -0.9288999 -0.3324304 -0.8403351
0.25684088 0.038925726 -0.6892529 -0.18698834 0.12096985 -0.36692563 0.024173353 -0.04236824
0.32815778 0.61557716 -0.02697496 0.010807717 -0.36240286 0.0014965234 -0.07125642 -0.75659585
0.27889445 0.13673043 -0.22832629 -0.14227141 -0.71610683 -0.992517 0.1839338 0.52275157
-0.251652 0.1274652 0.511534 -0.34062284 0.09312552 0.22333498 0.1826467 0.24875371
0.4623385 1.1372204 -0.41083091 -0.16967933 -0.16003065 -0.30217832 0.012002885 -0.7956026
-0.28464144 -0.20994902 0.27120665 0.045412667 0.036419652 0.2858932 0.07142152 -0.026565582
0.0006730868 0.03579814 -0.063525036 0.25696138 -0.40449882 -0.82113326 0.40191957 -0.18605869
-0.29028952 0.07192813 0.10704992 0.23159924 -0.52108824 -0.21739496 -0.39824882 0.061976988
-0.08472835 0.6193592 -0.07838769 -0.0835649 -0.18959315 0.06840083 0.36513594 0.024702761
0.42446828 0.40996405 0.06095903 0.003825702 -0.27358627 0.14582191 -0.7120962 0.37585267
0.22965324 -0.34840032 -0.3241702 1.0336981 -0.11797326 -0.06497044 -0.33555803 -0.83827347
0.52795625 -0.062097408 -0.25244772 -0.27490428 -0.17747124 0.033169284 0.36007154 0.5602437
-0.33754477 0.42316774 -0.28032053 0.24675813 0.41806138 0.05329712 0.54892176 -0.52875304

fc.0.bias f4 [10]
00000000: 926e ccbd 0295 c73d c879 ccbd c263 ed3c
00000010: 4fad ae3d 06e1 83bd 58f1 efbd 7d38 18bd
00000020: 012f 673e df65 81bd
-0.09982027 0.09745218 -0.099841654 0.028978232 0.0852915 -0.06439404 -0.117159545 -0.037163246
0.22576524 -0.063182585
