log/epoch-5.pth (torch_old, 43962 bytes, 32 tensors)

conv1.0.weight f4 [2, 1, 3, 3]
000000 bd 52 76 3e 12 51 00 3e cc 82 91 3e 45 44 85 3e
       0.24055 0.12530926 0.28420103 0.26028648
000010 6a 65 1b 3f ce d9 cb 3e b3 9b 43 3f 3a c0 14 3f
       0.6070162 0.3981461 0.76409453 0.58105814
000020 88 b2 9a 3e cd e4 b5 3e 4c e3 07 bf d7 d4 af bf
       0.30214334 0.35526124 -0.530812 -1.3736829
000030 3e b8 de be c6 81 d2 be e5 d6 f9 bd 15 1b f0 be
       -0.4349994 -0.41114634 -0.12199191 -0.46895662
000040 f7 8b 95 be e9 71 29 3e
       -0.29208347 0.1654736

conv1.0.bias f4 [2]
000000 db d4 13 be fa dd 51 bd
       -0.14436667 -0.051237084

conv1.1.weight f4 [2]
000000 d6 ae 7c 3f 21 78 73 3f
       0.9870428 0.9510518

conv1.1.bias f4 [2]
000000 77 85 0e 3f dc 50 1f 3e
       0.556724 0.15558189

conv1.1.running_mean f4 [2]
000000 dd d1 99 3e 5a eb e7 be
       0.30042925 -0.45296746

conv1.1.running_var f4 [2]
000000 0a 35 5d 3f 90 1e 39 3f
       0.86409056 0.7231226

conv21.0.weight f4 [4, 2, 3, 3]
000000 78 fb e2 3d df fe 7f 3e 15 93 e0 bd ae b1 24 3f
       0.1108312 0.2499957 -0.10965554 0.6433362
000010 bc d7 d2 be 0d c2 c7 be 8a 2f 01 3f 33 7b b1 be
       -0.41180217 -0.39015236 0.50463164 -0.34664306
000020 ac 0a 67 bd 36 b2 a5 3e a9 e4 84 be cd 6b b8 3b
       -0.056406662 0.32362527 -0.25955704 0.005628085
000030 8f c2 ad be 16 88 5a 3f af 84 be be 8b 4f d7 be
       -0.339375 0.853639 -0.37210605 -0.42052874
000040 bd 39 2c 3e 00 b5 2f 3c 62 4b 00 be ad 9f 51 3e
       0.168189 0.010724306 -0.12528756 0.20471068
000050 1d 0e 62 be 50 28 3e 3f 0e 23 4a be 00 28 a1 be
       -0.22075696 0.7428026 -0.19739935 -0.3147583
000060 49 85 71 be a7 3e ad be de 12 5c 3e f3 c4 23 3c
       -0.23586 -0.33836862 0.21491572 0.009995687
000070 bb 45 72 be 93 16 a6 3e a8 ef 35 3c cc 33 4b 3f
       -0.23659413 0.32439098 0.011104502 0.7937591
000080 43 fa ff 3e 80 74 5b b9 07 a8 c1 3e 8f 97 dd be
       0.49995622 -0.00020928867 0.37823507 -0.43279693
000090 10 50 ea 3d 83 5f 29 3f f8 7d ef 3e a6 97 c6 bd
       0.11441052 0.66161364 0.46775794 -0.096968934
0000a0 13 cc bc 3e ae 40 bc 3d 52 1e 87 3e e7 13 1a bd
       0.36874446 0.09192024 0.2639032 -0.037616637
0000b0 62 4d 9f be 83 43 57 be 65 45 9c be e1 02 42 bf
       -0.31113726 -0.21021847 -0.30521694 -0.7578564
0000c0 f6 1b ae 3e f4 4c 1f bf a0 19 3d bf 96 01 1c bd
       0.34005708 -0.62226796 -0.73867226 -0.03808745
0000d0 c3 ab 9a be 8f f1 7a be 3a 8a 8b be 9f a4 10 be
       -0.3020917 -0.2450621 -0.27253896 -0.14125298
0000e0 aa aa 69 be 13 71 d9 3e 86 a8 3c 3f 2d 49 96 3e
       -0.2281901 0.4246908 0.73694646 0.29352704
0000f0 f9 8f c7 be 67 f1 ef be 1e 37 0e 3e 0a f0 ca 3d
       -0.3897703 -0.46863863 0.13888213 0.09909065
000100 4f 82 ec 3d 2e 9e 84 3d 6d 82 c7 bc ea 8a 1d bf
       0.11548292 0.06475483 -0.024354184 -0.6154009
000110 28 bf 8a be 64 bf 06 3e 33 2f 8e be b8 b8 b5 be
       -0.27098966 0.13158947 -0.27770385 -0.35492492

conv21.0.bias f4 [4]
000000 54 66 e6 bd 04 4d dc be 8b b1 bf 3e 72 35 1a 3f
       -0.11249986 -0.43027508 0.37440142 0.602378

conv21.1.weight f4 [4]
000000 97 14 88 3f b2 6a a5 3f 4c 78 85 3f b3 91 87 3f
       1.0631284 1.2923186 1.0427337 1.0591339

conv21.1.bias f4 [4]
000000 95 9c 7c be 5d 94 8b bd c6 51 65 3e e5 c9 80 3e
       -0.24669106 -0.068154074 0.22394475 0.25154033

conv21.1.running_mean f4 [4]
000000 52 86 47 3d 07 2f d1 3c 25 61 22 3e 82 41 ef 3d
       0.048712082 0.02553512 0.1585737 0.116824165

conv21.1.running_var f4 [4]
000000 24 b8 b8 3f 28 1b 62 3f 1f 71 86 40 7d 11 24 3f
       1.4431195 0.8832269 4.2013087 0.64089185

conv22.0.weight f4 [4, 4, 3, 3]
000000 9d 1b e1 be 44 9a 1d bf d2 d4 d3 be 21 4a ae bd
       -0.4396638 -0.61563516 -0.41373307 -0.08510233
000010 70 41 e5 bc 57 1c 13 be 0a 77 44 3d 5d 97 10 be
       -0.027985305 -0.1436628 0.047965087 -0.1412024
000020 f4 9f e8 be 7e 05 d2 3e 2e f6 81 3e e3 39 36 be
       -0.45434535 0.41019815 0.25383133 -0.1779552
000030 85 94 b8 be b5 25 ca 3e c5 30 29 3e c2 49 24 bf
       -0.3605081 0.39481893 0.1652251 -0.64175045
000040 c4 18 5b be ab db ff bc 9e 79 d9 be 13 35 25 3d
       -0.21396166 -0.031232676 -0.424756 0.04033382
000050 31 0c 5a 3e 27 13 a4 bb ae e2 a6 be 6f 9d 78 be
       0.21293713 -0.005007166 -0.32594818 -0.24278806
000060 30 4e ff 3d 73 22 85 3e f9 a5 1f 3e 68 d6 b8 be
       0.12466085 0.26002845 0.15590657 -0.3610108
000070 9c 54 a7 bf d9 a3 78 bf d2 4c 1e 3d 8e 78 5f bd
       -1.3072696 -0.9712501 0.03864748 -0.05455833
000080 fb c6 c8 3e 3e 58 3a 3e 6b d5 67 bd 62 fe b9 3e
       0.3921431 0.18197724 -0.056600016 0.3632689
000090 4a d8 d8 bd 26 d2 ab be a7 72 36 3e 61 3c ef bd
       -0.10588129 -0.33558768 0.17817174 -0.11681438
0000a0 f1 42 8d be 11 17 14 be 24 04 90 be 01 58 dc be
       -0.27590135 -0.14461924 -0.2812816 -0.43035892
0000b0 f9 f2 4f be 1c 6e ab be 0f ec 24 bf 3b bc 15 bf
       -0.2030753 -0.33482444 -0.64422697 -0.5849034
0000c0 3f 78 11 3e 38 36 8c be 87 b5 39 bf 75 8d 37 3f
       0.14206026 -0.27385116 -0.72542614 0.7170022
0000d0 2c b2 8c 3e 17 c6 e3 bd 68 d2 1e 3f 05 57 33 3f
       0.27479684 -0.11121767 0.62039804 0.70054656
0000e0 a7 d4 01 3d c8 38 16 bd 27 0b 45 bd 56 b2 ae 3d
       0.03169694 -0.036675245 -0.04810634 0.08530109
0000f0 87 bd 35 be 7e 61 1a be a1 43 bd bd 65 2e 95 be
       -0.1774808 -0.15076253 -0.09241415 -0.2913696
000100 cf be 9b 3e 4a 29 14 3f 89 4a d8 3c 51 ca e7 3d
       0.30419013 0.578755 0.026402729 0.11317886
000110 75 8d e0 3e a9 58 f2 bd ba 78 8a bd 1b ee 1d bd
       0.43857923 -0.11833317 -0.06761308 -0.038557153
000120 5b 7b c1 be 90 84 6d be 3b 7f 49 3e e8 ad 24 bf
       -0.37789425 -0.231951 0.19677441 -0.6432786
000130 3e 93 2c bc 1d b9 be 3e 8c 6e b4 3e 97 2d a2 3e
       -0.010533152 0.37250605 0.3524059 0.31675407
000140 50 90 04 3f f7 dc b5 3d e9 2a 37 3e 6b 44 5c be
       0.51782703 0.08880036 0.17887463 -0.21510474
000150 d8 2e 5d 3e d1 e1 88 3e 77 49 3a 3d d1 63 fe 3e
       0.215999 0.26734784 0.045480218 0.4968553
000160 34 ad 2b 3f 19 e1 30 3d 7d 08 15 3e a8 55 ac bb
       0.6706116 0.04318342 0.1455402 -0.0052592345
000170 47 a5 78 bd 6e ec 50 3e d7 0f 9d 3e ca 08 19 3f
       -0.060704496 0.20402691 0.30676147 0.59779036
000180 fe ad 3d 3e e1 d2 20 3f f5 f8 e1 3e 1c d1 b4 3c
       0.18523404 0.62821776 0.44135252 0.022072367
000190 de e5 c5 be 55 98 c3 be cb 9e 07 bf 57 34 0a be
       -0.38651937 -0.38202158 -0.52976674 -0.13496529
0001a0 7f c0 a5 be 23 4a 58 bd 6b 7a 56 3d 21 70 22 bb
       -0.32373425 -0.052805077 0.05236284 -0.0024786072
0001b0 4f e1 8f be 56 42 27 be 71 59 e2 bd 88 a3 ab be
       -0.28101584 -0.16333899 -0.11052216 -0.33523202
0001c0 1a b3 83 be e4 f7 b8 be 76 32 00 3f a9 bb 82 3d
       -0.2572258 -0.36126626 0.50077 0.063834496
0001d0 ea 48 7b be f7 4b 0f 3f 0d da 96 be 11 40 f0 bd
       -0.24539533 0.5597529 -0.29463235 -0.1173097
0001e0 b2 15 41 bf 01 3f 99 bc ff 55 23 3e d6 60 bf 3e
       -0.7542373 -0.0187068 0.15950774 0.37378567
0001f0 f5 63 c6 3c 2e aa 40 bd 58 bf 2f bd 8c 7f bc be
       0.024217585 -0.047037296 -0.04290709 -0.3681606
000200 38 f3 cc bd 11 00 9f 3e 89 4f 80 3e 3f 1f f0 bd
       -0.10007328 0.31054738 0.2506068 -0.1172471
000210 e7 f7 f8 3e af a1 f4 3d 88 60 bc be a9 25 50 3c
       0.48626634 0.11944901 -0.36792397 0.012704291
000220 26 69 d2 3d d5 65 9c 3e 82 2f 97 3d 38 de c7 3e
       0.10273962 0.30546442 0.07382108 0.39036727
000230 72 60 05 3f 93 1d 4a 3e df 1f f6 be d6 2e 05 bf
       0.5210029 0.19737844 -0.4807119 -0.5202459

conv22.0.bias f4 [4]
000000 25 5b a7 3e cb 07 29 be f8 c2 c7 3d a8 15 07 bb
       0.32686725 -0.16506879 0.09753984 -0.0020612273

conv22.1.weight f4 [4]
000000 3f 47 ad 3f 52 d2 88 3f dd 41 83 3f 44 19 65 3f
       1.3537368 1.0689185 1.0254475 0.8949168

conv22.1.bias f4 [4]
000000 a4 11 e0 bd fd 36 cc 3d 0e dc fe 3d 88 89 3c 3c
       -0.10940865 0.09971426 0.12444316 0.011507399

conv22.1.running_mean f4 [4]
000000 0c a0 ac bf 50 68 aa be 5b 3b b6 3f 0e f7 c2 bb
       -1.3486342 -0.3328271 1.4236864 -0.0059498614

conv22.1.running_var f4 [4]
000000 fc 35 f0 40 66 af 54 40 fa 07 4b 40 68 4e 00 40
       7.50659 3.3232055 3.1723619 2.0047855

conv31.0.weight f4 [8, 4, 3, 3]
000000 75 0d 09 be 01 e6 c4 bd 5d b4 8a 3e 23 92 af 3b
       -0.1338404 -0.09614182 0.2709073 0.005357997
000010 63 10 85 bd d0 01 52 3d 75 ba 3c 3e f7 bd dc 3e
       -0.06497266 0.05127126 0.18430503 0.43113682
000020 c6 53 fd 3d 6d 12 6b 3e 6e db d7 3c 73 02 bd be
       0.12369494 0.22956248 0.02634975 -0.3691593
000030 34 3a f0 bc 7a a4 04 3f 37 49 5a 3f 77 41 32 3c
       -0.029324628 0.5181347 0.85267967 0.010879866
000040 0b f3 db be 81 74 8e 3d 93 6b 60 be 09 b5 ef 3e
       -0.42958865 0.06955815 -0.21916036 0.46817806
000050 ee 60 a4 3d 71 db 0b be cb 07 29 3d 4e e1 1b 3c
       0.080263 -0.13657929 0.041267198 0.009514166
000060 dc 98 8d 3e 7e 9d 08 3d db 36 9a 3e d5 25 b4 be
       0.27655685 0.03335332 0.30119976 -0.35185114
000070 ef 1f 19 bd e0 cd 9a be f2 5e c6 3d be 92 19 be
       -0.03738397 -0.30235195 0.09686078 -0.14997384
000080 b8 cd 79 3e 43 c3 3c 3e 0d f3 4a 3d f3 0d c8 be
       0.24394882 0.18433861 0.049548198 -0.39073142
000090 bd 45 04 3f c7 87 4e 3f fa a8 80 3d 65 4d 1d be
       0.5166891 0.8067593 0.0628223 -0.15361555
0000a0 41 56 51 be 17 59 25 3d 20 6d 97 3e 52 b7 47 3f
       -0.2044306 0.040368166 0.29575443 0.780141
0000b0 97 7d 64 3f 2e b0 80 bd 80 d3 58 3d 24 21 56 3d
       0.89254135 -0.062836036 0.052936077 0.0522777
0000c0 7d 2e 93 3d 72 d6 45 3e 8c 34 77 3e fe 93 74 3c
       0.07186601 0.19320086 0.24141139 0.014927862
0000d0 05 e9 b0 bc 84 a1 37 be ab d5 e7 be 0e a1 09 bf
       -0.021595487 -0.17932707 -0.45280203 -0.53761375
0000e0 a6 5d a2 3d 43 1e df 3e 4d e8 02 be 4c 86 c0 bd
       0.07928018 0.43577775 -0.12783928 -0.09400615
0000f0 a4 85 79 3e 3a 9f ed be 4a 3e b2 be f2 88 25 3e
       0.24367386 -0.46410543 -0.34813148 0.16165522
000100 bf 77 04 be b0 e1 e8 3d cb 50 a2 3e 55 10 36 3e
       -0.12936305 0.113711715 0.31702265 0.17779668
000110 b4 c7 1d 3e 29 62 8e 3e ce 7d dc 3d bb 7d 94 3d
       0.15408212 0.27809265 0.10766183 0.07250544
000120 5d b4 a0 3d 2e 31 d4 bc 11 19 86 be c2 1a a4 3e
       0.078469016 -0.025902357 -0.26191 0.32051665
000130 6d 2c c8 3e 0f 7a 0a bf ee f3 27 3f e2 7e 0a bf
       0.39096394 -0.54092497 0.6560658 -0.5409986
000140 fa 3f 06 bf 1e c0 d9 3d a1 9b fe 3e 53 71 81 be
       -0.5244137 0.106323466 0.4972811 -0.25281772
000150 bf 2a 20 be de 34 02 bf 82 65 fd 3d 8d c7 06 bf
       -0.15641306 -0.5086192 0.12372877 -0.5264824
000160 40 80 5a 3d 7c d7 80 3e e9 d5 83 be 97 cf 1d bf
       0.053344965 0.25164402 -0.25749138 -0.6164488
000170 35 cf b2 bc ba c7 cb bd d9 1c 50 3f a3 2b 17 be
       -0.02182732 -0.09950204 0.8129402 -0.1476274
000180 35 4d a6 be 53 f0 17 3e fa 97 93 3d 62 6e 9a 3e
       -0.3248078 0.1483777 0.072067216 0.3016234
000190 24 f8 8d be a9 3e ac be 66 fb b3 bd ee 25 cf bd
       -0.2772838 -0.33641556 -0.08788185 -0.101146564
0001a0 6b 6e 96 3e c0 ad 73 3e e6 ff 8c 3d 2a b7 a8 be
       0.29381117 0.23796749 0.06884746 -0.32952243
0001b0 da ac ea be 42 a4 88 3c 64 b2 4a be 6c c2 ce be
       -0.45835 0.016679887 -0.19794613 -0.40382707
0001c0 e1 be 46 bf 07 d5 bc 3e 21 39 02 be 1c 03 d0 be
       -0.7763501 0.36881277 -0.12717105 -0.40627372
0001d0 1c b1 3d be 17 65 71 3c 59 e0 32 bf f2 0b a7 3e
       -0.18524593 0.014733574 -0.6987358 0.326263
0001e0 70 60 f6 3e f9 ff cf 3e 2f 84 b0 bd 78 15 ed 3a
       0.4812045 0.4062498 -0.08618962 0.0018088063
0001f0 33 e1 01 3f 72 41 50 3e 4c cf 61 3c ef 9b af be
       0.5073425 0.20337465 0.013782334 -0.34298655
000200 3c 47 3a be f0 5f 92 3e 78 4a 11 3e e3 78 c5 be
       -0.18191236 0.2858882 0.14188564 -0.38568792
000210 1b 8c eb bd f1 f3 f2 be ec 32 9e be 55 10 e3 bb
       -0.11501332 -0.47451738 -0.30898225 -0.006929437
000220 51 23 a3 3e 5d 51 bd 3e 5d 73 f4 3e ba ac 9c bd
       0.31862882 0.36976138 0.47744265 -0.076501325
000230 00 ca 4e be ab a9 25 bf 08 b6 9c bd 6e e1 8e bd
       -0.20194244 -0.6471202 -0.07651907 -0.06976591
000240 e4 c8 24 3e a3 d9 b6 bd 7a 14 30 3e 7a 0b 89 3e
       0.16092259 -0.0892823 0.17195311 0.26766568
000250 f9 81 9a be d4 7c d8 3d 3d 77 f9 bd 20 bb 9b 3e
       -0.30177286 0.10570684 -0.12180946 0.30416203
000260 12 04 48 3f 37 e4 07 bf 02 71 05 3f 10 65 8c be
       0.7813121 -0.53082603 0.5212556 -0.27420855
000270 51 c2 3e bd ea 0b 4d be 7f af ea be 15 c3 4d 3d
       -0.046572033 -0.20024076 -0.45837018 0.050234873
000280 8b 49 5e bf 58 f6 82 bc f0 af ce bd 94 35 7d be
       -0.8683097 -0.015986606 -0.10092151 -0.2472747
000290 f0 fb 2b 3e 4d e7 ab 3d 09 6c 65 be bc 01 30 3e
       0.16795325 0.083937265 -0.22404493 0.17188162
0002a0 48 01 3d 3d 08 2b 2b bf f9 54 93 be 12 86 c3 be
       0.0461438 -0.66862535 -0.28775766 -0.38188225
0002b0 64 6b 22 bd dd 3e a1 3e b0 0d 28 3f a6 80 4a 3e
       -0.039653197 0.31493273 0.65645885 0.19775638
0002c0 75 20 be bd 29 d3 17 be 32 2c 04 bc 06 b6 4c 3e
       -0.092835344 -0.14826645 -0.008067178 0.19991311
0002d0 36 96 8b 3d 14 08 9e be aa e8 e0 3e 31 41 71 be
       0.0681576 -0.30865538 0.4392751 -0.23560025
0002e0 c0 cb c4 bd 7b 14 87 be bf 24 67 3d ef 2d f0 be
       -0.09609175 -0.26382813 0.05643153 -0.46910045
0002f0 43 ba ba be 28 c6 42 be fc d2 58 be 90 1b 6c be
       -0.3647023 -0.19020903 -0.21174234 -0.2305739
000300 57 5e 83 3d 94 46 12 be 9c 46 15 bb 72 30 2d 3e
       0.06414478 -0.14284736 -0.0022777682 0.16913012
000310 3b f0 b0 3e 14 6b 86 be 3c 29 ec bc 4e b2 19 3f
       0.3455828 -0.2625357 -0.028828256 0.60037696
000320 9d 3a 9b 3d 97 f3 d7 bd 46 3b 94 3d 16 73 94 bc
       0.07579539 -0.10544508 0.07237868 -0.018121284
000330 a8 45 b3 be 3f 35 94 3e a8 8d 13 3b 22 9b 1a 3d
       -0.3501408 0.28946874 0.0022514854 0.037745602
000340 17 15 87 bf 72 13 a8 bd 96 c7 08 bf 4b fe 0b bf
       -1.0553311 -0.08206834 -0.53429544 -0.54684895
000350 e7 88 95 3e ac 23 30 be 83 7d 78 be b0 64 fa bd
       0.2920601 -0.17201108 -0.24266629 -0.12226236
000360 22 b6 f8 3d 9a 89 86 be e9 28 fa be 5c 4e 09 3c
       0.12144114 -0.26276857 -0.48859337 0.008380499
000370 fa 48 d6 3e 1f 1f 0e be f9 73 9c be 18 06 84 3d
       0.41852552 -0.1387906 -0.3055723 0.06446475
000380 70 92 c3 3e 0b bf 9d be 2b 69 64 3e e0 78 c2 be
       0.3819766 -0.30809817 0.22305743 -0.37982845
000390 ca 72 7a be 4a 11 b2 bd aa 88 b8 3e ec a8 7f 3d
       -0.24457851 -0.08694704 0.36041766 0.062416956
0003a0 96 06 46 3e 17 03 71 3e 47 cb 92 be e5 67 34 be
       0.1933845 0.23536335 -0.28670713 -0.17617758
0003b0 11 c0 28 3e d2 aa 3d 3f 9b 62 3c 3f 8f 72 ab be
       0.16479518 0.74088776 0.7358796 -0.3348584
0003c0 9f 77 3d be f0 f8 ae be 9b b0 f1 bc d1 67 9b 3d
       -0.18502663 -0.341743 -0.029503157 0.07588161
0003d0 64 a0 f7 be ac be 6e be ed 80 5b 3d fd 31 06 3e
       -0.48364556 -0.23314923 0.05358975 0.13105007
0003e0 a6 05 30 be 2f e4 36 3d 40 66 57 3e 42 75 e0 3e
       -0.17189655 0.044651207 0.21035099 0.4383946
0003f0 f1 21 47 3e 09 d6 b2 3e 76 98 ac 3e a5 a1 6b 3e
       0.19446541 0.3492892 0.33710068 0.23010881

conv31.0.bias f4 [8]
000000 77 15 b1 3e 4e 5f a2 3e cb 76 df bd 1a 93 d1 bd
       0.3458669 0.31713337 -0.1091133 -0.102331355
000010 6a cc 8c 3d c4 ad ec bd e4 5a f4 be 1f f9 15 3e
       0.068749264 -0.11556581 -0.47725594 0.14645813

conv31.1.weight f4 [8]
000000 97 9b 58 3f 23 b5 81 3f b1 07 8d 3f ac 38 8c 3f
       0.8461241 1.0133404 1.1017972 1.0954795
000010 0c 82 a1 3f 97 26 88 3f d1 3e 8d 3f 8e 57 9d 3f
       1.2617812 1.0636777 1.1034795 1.2292345

conv31.1.bias f4 [8]
000000 79 bf 71 3d 27 02 b1 bd 2a 38 cc bb 3a a7 ea 3c
       0.059020493 -0.08642989 -0.006232281 0.028644193
000010 f9 a6 bd be 07 f4 68 bd 8b d0 41 3e 09 e6 27 be
       -0.37041453 -0.056873348 0.18927209 -0.16396345

conv31.1.running_mean f4 [8]
000000 c7 14 c9 3f 50 10 e7 3f 3f 9f 6e bf 89 db af bf
       1.5709466 1.8051853 -0.9321174 -1.3738872
000010 c2 26 74 bf ef da 04 c0 c7 d3 b8 bd e3 73 c2 bf
       -0.9537164 -2.0758626 -0.09024768 -1.5191616

conv31.1.running_var f4 [8]
000000 03 5c fd 3f 42 19 2f 40 db 06 18 40 b5 65 62 40
       1.9793705 2.7359166 2.3754184 3.5374577
000010 51 a4 3d 40 c5 df 2d 40 4b 13 10 40 c7 78 b4 40
       2.963154 2.7167828 2.2511775 5.6397433

conv32.0.weight f4 [16, 8, 3, 3]
000000 a3 78 80 3e 13 f8 b5 3e 41 32 fc 3d f0 5b 11 bb
       0.2509204 0.35540828 0.12314273 -0.0022180043
000010 b8 a8 a5 be 57 d6 98 3e 86 3a c8 3d 82 4b 2e be
       -0.32355285 0.29851028 0.097767875 -0.17020991
000020 3b fd 34 be 46 8d a3 bc a7 49 fa be 95 99 5c bd
       -0.17674725 -0.019964825 -0.48884317 -0.053857405
000030 9c a2 d7 3e 99 04 b7 bd 63 d5 05 be 06 73 19 3f
       0.4211625 -0.08936424 -0.13069682 0.59941137
000040 52 f3 b5 3a cc 3f 85 bd 5c 91 00 bf a1 a4 1b 3e
       0.0013881719 -0.06506309 -0.502218 0.1519952
000050 2b b3 d7 3e a1 37 3c bd 30 ac 1c bd 5c bc e3 3e
       0.42128882 -0.04595149 -0.03825015 0.44479644
000060 e6 17 ef 3d 25 90 ce 3d 02 63 34 bf b6 fc 97 3e
       0.1167448 0.10086087 -0.70463574 0.2968499
000070 19 02 f4 bc 20 2f 15 39 54 9a b7 3c 5b b7 16 bd
       -0.029786156 0.00014227303 0.022412457 -0.036795955
000080 eb cb a6 bc b4 60 8b 3e fe a9 31 be d0 7e 6e bd
       -0.020360908 0.27222216 -0.17350003 -0.058226407
000090 ae 31 52 be 08 2b 4d 3e 41 aa d0 3e dd 98 25 3e
       -0.20526764 0.20035946 0.40754893 0.16171594
0000a0 98 a8 84 be 02 20 41 3d b1 71 38 3e c1 b1 2f be
       -0.25909877 0.047149666 0.1801212 -0.17157651
0000b0 f6 d7 ef be bc 0b 5a be 32 5b bd bd e3 72 8d be
       -0.46844453 -0.21293539 -0.0924591 -0.27626714
0000c0 bc 20 53 be dc 24 ec be 1a c2 48 be 1a fa 04 3f
       -0.20617956 -0.4612187 -0.19605294 0.51944125
0000d0 51 0e 6d 3e de 0c 5e bd 78 26 06 bf 2c 87 38 be
       0.23149993 -0.05421149 -0.5240245 -0.18020314
0000e0 20 04 b5 3e 06 2f f9 bd 6d ac 10 be 44 0b 0a 3e
       0.3535471 -0.12167172 -0.14128275 0.1348086
0000f0 f0 e3 2c be 0c 28 77 3c ed d0 06 bf a5 47 15 3e
       -0.16883826 0.0150852315 -0.52662545 0.14578111
000100 8b 14 00 3e 8a 04 a6 bd 07 40 a9 be 17 42 85 be
       0.12507837 -0.081063345 -0.3305666 -0.26026985
000110 88 bd ba be e0 74 7e be d0 07 64 bd 09 5d 2b be
       -0.36472726 -0.24849272 -0.055671513 -0.16734709
000120 14 4c 8f 3d 5a 3f 06 3f a6 12 74 3e 4e 56 c1 bd
       0.069969326 0.52440417 0.23835239 -0.094402894
000130 d7 89 10 3e 44 c8 83 3e c0 fe f3 be 30 2a 4c be
       0.14115082 0.25738728 -0.47655296 -0.19937968
000140 a1 69 75 be bd fe 9b 3d a5 de 8b be 73 18 2e be
       -0.23966075 0.07616947 -0.27318302 -0.17001514
000150 30 06 f6 3d 57 71 1f 3e 07 b0 92 bd b7 66 0a 3e
       0.12012899 0.1557058 -0.07162481 0.13515745
000160 fa ac df 3e 0b 74 28 3e bc 50 80 bc c6 35 08 3e
       0.43686658 0.16450517 -0.015663497 0.13301763
000170 96 6f b6 be 27 20 1b bf 22 88 e2 3d 2f b1 e6 3e
       -0.35632008 -0.60595936 0.110611215 0.45057055
000180 59 8d 11 3e bd db 04 be 99 e3 ae 3d 6e 31 4e bd
       0.14214076 -0.12974449 0.085395046 -0.05034011
000190 2d c9 57 be 64 ac ba 3c 75 f4 96 be cb a9 f0 3e
       -0.21072836 0.02278728 -0.2948338 0.47004542
0001a0 6f b0 e0 be c5 9d 33 bf cb 9e 7d bd db 07 ca bd
       -0.43884608 -0.7016261 -0.061919015 -0.098647796
0001b0 a1 3b dd 3d 91 7b 3a 3c 77 30 bc be e4 c9 94 3e
       0.10802389 0.011382 -0.36755726 0.2906028
0001c0 f7 b8 a9 3e f3 56 25 be 5c 47 dc 3e 56 5b 9a 3e
       0.3314893 -0.1614645 0.43023193 0.3014781
0001d0 e2 ee f1 3d bf d0 fc 3d 4b 75 6c be d1 da 23 3e
       0.118131414 0.12344503 -0.23091619 0.1600144
0001e0 09 26 a1 be e1 4f 89 be 00 e4 32 be 3b 6d 4c 3e
       -0.3147433 -0.26818755 -0.17469788 0.19963543
0001f0 d0 3e 61 3e d0 22 19 be 19 c8 9a be e7 88 20 3e
       0.21996617 -0.14954686 -0.30230787 0.15677224
000200 eb 35 5d 3e 27 5a 12 3e 23 dd 34 3e 60 b4 07 3e
       0.216026 0.14292203 0.17662482 0.13252401
000210 c7 9a 04 bc f3 b6 97 3d a2 75 b6 3d 14 ee bd 3e
       -0.008093542 0.07407942 0.089091554 0.37095702
000220 47 d6 6a 3e 91 6f b9 be a1 c2 34 be bc c1 85 3e
       0.22933303 -0.3621793 -0.1765237 0.2612437
000230 e8 4b 25 be a9 44 b2 bb 29 8b 87 bd c9 4a 8d bd
       -0.16142237 -0.005440314 -0.066183396 -0.0689903
000240 47 bf 10 be ec 4e f1 3d 7e 0e 9e 3e db 52 39 bc
       -0.14135467 0.11782631 0.30870432 -0.011311258
000250 6f ee ae 3e 22 61 08 bd e4 5f 48 be f8 ee 1b be
       0.34166285 -0.033295758 -0.1956783 -0.15227878
000260 33 8f 2f bf bc 48 88 bd d1 4e b3 bd 9b 58 3b 3f
       -0.6857788 -0.06654498 -0.087552674 0.73182076
000270 f2 16 67 3e b1 aa 0d 3e 40 fd bf be 69 db 1a be
       0.22567347 0.13834645 -0.37497902 -0.15122761
000280 4a 00 b4 be f7 db 21 be bd c7 96 bd 42 19 64 bd
       -0.3515647 -0.15806566 -0.07362316 -0.05568815
000290 72 9a d7 3e cf e6 32 be d6 85 d2 be 3c 49 b8 be
       0.4211002 -0.17470859 -0.41117734 -0.35993373
0002a0 1f 96 18 bf e3 02 23 3e 8f 21 d6 3e 3e 42 00 bf
       -0.59604067 0.1591907 0.41822478 -0.5010108
0002b0 58 47 67 be 35 06 e1 bd 4f 69 81 3e 44 b0 76 3e
       -0.22585809 -0.10987512 0.25275657 0.24090677
0002c0 d0 c7 39 be c5 31 2a be 75 7a b7 be 6a 3a b6 be
       -0.18142629 -0.16620548 -0.35835615 -0.3559144
0002d0 01 a3 32 be 16 5d 2a 3d b4 c4 22 bf 7a 86 84 3e
       -0.17444994 0.04159268 -0.63581395 0.25883847
0002e0 16 4d 98 3e 9f df 84 be 39 66 cf 3e 65 90 3a be
       0.29746312 -0.2595186 0.40507677 -0.18219145
0002f0 ba 2a e2 3e 86 c9 be bd b9 ce 8d 3d d8 c6 03 3f
       0.44173223 -0.09315781 0.06924195 0.51475286
000300 bf ed 89 3d 2c f9 a2 be 48 20 b6 be 4f fb a6 bd
       0.067347996 -0.31830728 -0.35571504 -0.08153402
000310 33 9a 0b 3e ff a9 74 bd a3 3c 1c 3e 1c aa b4 3e
       0.13633041 -0.059732433 0.15257506 0.35286033
000320 92 ee a7 3e 0f 5f 7b 3d 82 b9 a1 3e c4 24 9a be
       0.32799202 0.06136995 0.31586844 -0.30106175
000330 9b 92 51 bf fb 87 80 be 4b 9a 30 3e 96 5b 20 be
       -0.8186433 -0.25103745 0.17246358 -0.15659937
000340 7f 36 87 be 31 ec 72 3e 54 01 9a 3d 1e 50 a3 bd
       -0.26408765 0.23722912 0.075197846 -0.079742655
000350 70 6f 74 3d 2a 92 43 be 79 20 8e 3e 5a 48 ee bd
       0.059676588 -0.19098726 0.2775915 -0.11634894
000360 7c 24 b1 be 1e 22 aa be fb ba 18 be a7 a1 b3 bc
       -0.34598148 -0.33229154 -0.14915077 -0.021927668
000370 00 04 00 38 78 7a 5d 3d 80 36 57 3c 2a 67 cc be
       3.0521303e-05 0.054071873 0.013135552 -0.39922458
000380 dc 06 b7 bd 50 87 e4 3d 43 cc f3 3d 15 c3 fe be
       -0.08936855 0.11158621 0.11904194 -0.4975821
000390 6b 36 38 be c4 47 c0 be 62 22 ba bd d6 bf 95 be
       -0.17989509 -0.37554753 -0.09088589 -0.29247922
0003a0 03 58 27 bf db 8e 01 3f 27 fa 4d 3e ee b3 b9 bc
       -0.6536867 0.50608605 0.20114957 -0.022668805
0003b0 5e 11 48 be 0a 56 1a 3f 61 41 7a 3d 56 c6 11 be
       -0.19537875 0.60287535 0.061097506 -0.14235815
0003c0 62 99 ad be 22 b4 2d bd 13 a5 db be ea ef b8 3d
       -0.33906084 -0.042408116 -0.4289938 0.09030135
0003d0 e1 ec ba 3d b8 5e 2a bf 1d 06 a9 be 6f e0 1d be
       0.09127212 -0.6655078 -0.33012477 -0.15417646
0003e0 35 35 9d be f3 70 ad bc 4f f3 31 be 09 57 d4 3c
       -0.30704656 -0.021172022 -0.17377971 0.025920408
0003f0 0e f3 a7 bd 17 da 1c be 5d c6 ae bd 7e 87 bb 3e
       -0.08200656 -0.1531757 -0.085339285 0.3662681

conv32.0.bias f4 [16]
000000 08 4e 8a bd 1f c8 91 3c e7 a4 82 3d 59 c8 f7 bd
       -0.067531645 0.01779562 0.06379109 -0.1209876
000010 b0 45 c6 3d d4 54 f5 3d ea 6c 36 3d cc af 03 3d
       0.096812606 0.1197907 0.044537462 0.032150075
000020 ee 72 78 be 04 35 29 bd 26 50 b7 bd 8a 19 32 bc
       -0.24262592 -0.041310325 -0.08950834 -0.010870347
000030 02 05 d9 3d a8 c1 94 bd ce f1 f3 3d ab 6a ff 3d
       0.10596658 -0.072634995 0.11911355 0.12471517

conv32.1.weight f4 [16]
000000 02 55 5a 3f 3b 39 72 3f 5e 59 92 3f ac c8 a4 3f
       0.8528596 0.94618577 1.1433523 1.287374
000010 b5 98 80 3f e5 68 6d 3f c1 da 86 3f a5 81 92 3f
       1.0046602 0.9273818 1.0535508 1.1445814
000020 b6 bc 8d 3f 4e 20 8b 3f af a5 77 3f 0a 50 7c 3f
       1.1073215 1.0869234 0.9673719 0.9855963
000030 1f 55 7f 3f b5 23 7a 3f aa 79 7d 3f 07 83 85 3f
       0.9973926 0.97710735 0.9901377 1.0430611

conv32.1.bias f4 [16]
000000 34 e3 af be 7b 51 ab be 8f 04 b7 be c0 eb 26 bf
       -0.3435303 -0.33460602 -0.35745665 -0.65203476
000010 cb f6 96 be 54 c9 c0 be 96 d6 91 be ed 4b cb be
       -0.29485163 -0.376536 -0.2848403 -0.39706364
000020 a6 90 c8 be 07 4e b2 be a2 ff b9 be 91 05 c8 be
       -0.39172858 -0.34825155 -0.36327845 -0.39066747
000030 e1 cf e1 be 19 16 07 bf 96 85 d8 be 17 4f 08 bf
       -0.44103912 -0.52768093 -0.42289418 -0.5324568

conv32.1.running_mean f4 [16]
000000 bf 68 7f bf 8a 04 6b 3e 62 f3 3b bf 59 d6 8f bf
       -0.99769205 0.2295095 -0.7341825 -1.1237289
000010 3f 4b b0 bf b5 e1 82 3f ae b3 dc be 45 d1 72 bf
       -1.3772963 1.022513 -0.43105835 -0.9485057
000020 b8 9b 19 bf 94 ba 0c c0 e3 0e 05 c0 9a cf 4a 3f
       -0.6000323 -2.1988878 -2.0790336 0.79223025
000030 3a a9 15 c0 d7 42 c2 be 0f fc 0b 3f 7d 9e 3e be
       -2.3384538 -0.3794162 0.54681486 -0.18615146

conv32.1.running_var f4 [16]
000000 70 1a b0 3f 14 3e d0 3f c8 b7 4c 40 b3 9f 20 40
       1.3758068 1.6268945 3.198717 2.5097473
000010 af 84 1c 40 7b 13 3d 40 96 84 36 40 d0 e5 2a 40
       2.4455984 2.954314 2.8518424 2.6702766
000020 b7 22 34 40 3b c8 fb 3f 0b 9e e0 3f ac 51 29 40
       2.8146188 1.967048 1.7548231 2.6456099
000030 74 be 23 40 2d 76 28 40 21 9a 00 40 10 7a 0a 40
       2.5584993 2.6322129 2.0094073 2.1637

fc.0.weight f4 [10, 784]
000000 d3 11 37 3e b3 e5 87 3e 25 02 be 3d cd 0d 82 bc
       0.17877893 0.26542434 0.09277753 -0.015875721
000010 e9 6d f3 bd e7 d2 3c 3e 45 2b 12 be c6 53 c7 3d
       -0.11886198 0.18439828 -0.14274319 0.097327754
000020 95 62 ce 3d 7f 70 2f be eb 0a 18 3e fe 36 4d 3e
       0.10077397 -0.17132758 0.14847915 0.20040509
000030 20 9a 11 3e 75 51 28 be 9f 9a 1a 3f 7d 36 90 3e
       0.1421895 -0.16437323 0.60392183 0.2816657
000040 2d 87 a1 3c 66 9a 6d be 8f ba 0c be d3 6e bc 3d
       0.019717777 -0.2320343 -0.13743041 0.092008255
000050 64 bc b9 3a 0e 73 98 bd 1d a5 b2 3d d5 27 ef bd
       0.0014170525 -0.0744382 0.08722899 -0.11677519
000060 51 cf 34 bd 0e ec 9b 3d ae a9 45 3e e2 c8 8d bc
       -0.044143025 0.07613383 0.19303009 -0.017307702
000070 bd 04 e7 be aa f2 ac be 19 f2 e6 be 5a f1 67 be
       -0.45120803 -0.33778888 -0.4510658 -0.22650662
000080 f5 62 1a 3d cc 71 a1 3e 16 81 c5 bd a5 c7 96 3e
       0.03769203 0.31532133 -0.09643762 0.29449192
000090 58 9d 85 3e b6 43 58 be 67 d6 2c be ad 23 10 3e
       0.26096606 -0.2111958 -0.16878663 0.14076109
0000a0 cc 45 54 3e 72 3b a3 bd e2 6b 8e bd 90 ef 9a 3d
       0.2072975 -0.07970323 -0.06954171 0.07565224
0000b0 05 05 55 3b ec b2 a4 bb 1a 12 d3 3d b9 64 8a ba
       0.0032504213 -0.005026212 0.10306187 -0.0010558582
0000c0 51 31 7a 3c 42 cc 2e 3d f2 88 b9 3d 96 09 9a bc
       0.015270547 0.042675264 0.09059323 -0.018803399
0000d0 49 ec d4 3c b4 a3 47 be 82 99 1d 3e ac 29 af bc
       0.025991576 -0.19496042 0.1539059 -0.021382175
0000e0 ab d2 9d bd 0f ae 9e be 62 51 aa be 92 88 6d 3e
       -0.07706197 -0.3099217 -0.33265215 0.23196629
0000f0 d4 e2 01 3e 89 b0 11 bf 39 c2 0b be 6e 73 8c 3c
       0.12684184 -0.56909996 -0.13648309 0.017144885
000100 bd 68 68 bd b5 18 8f 3e 1c 33 e0 3d 3b 39 a1 3e
       -0.05674051 0.27948537 0.10947248 0.31488976
000110 96 25 32 be 53 27 82 bd 24 05 a9 bc 76 2a 75 be
       -0.1739715 -0.06355157 -0.020632334 -0.23941979
000120 0b a9 2d bb 88 c9 2b 3e 76 d8 96 3e 20 cf 2b be
       -0.0026498463 0.16776097 0.29462022 -0.1677823
000130 b3 e8 0d be 3a 7d c0 bd fd a7 76 be d4 b8 03 bf
       -0.13858299 -0.09398885 -0.2408752 -0.514539
000140 05 84 8a be 8c 79 0a 3e e3 16 8f 3e 96 3d 96 bd
       -0.27053848 0.13522929 0.2794715 -0.07335965
000150 d0 c2 11 3e a4 a0 d5 3e d3 86 e0 be f2 f7 a3 bd
       0.14234471 0.41724122 -0.43852863 -0.08006276
000160 6b bd 54 be 59 b9 31 3e 85 12 a9 3e 67 9d 16 bd
       -0.20775382 0.17355861 0.33021942 -0.036771204
000170 e3 18 bc 3d 2a 21 4f 3e c8 c5 55 3e 11 10 1e be
       0.09184434 0.20227495 0.20876229 -0.15435816
000180 e8 cd ed bd 96 b4 44 be 92 0e c8 bd 94 4e 98 3d
       -0.11611539 -0.19209513 -0.09768404 0.074368626
000190 a8 76 08 bd 19 fe b9 3e 92 3d 82 3e 7d 9e 23 3e
       -0.033316284 0.36326674 0.254376 0.15978427
0001a0 fa 85 36 be 3e c6 20 bf fc 0f 2a be 58 3d 0a bf
       -0.17824546 -0.62802494 -0.1660766 -0.53999853
0001b0 50 64 26 be cd cb 9f be 70 38 3f be 91 29 00 bf
       -0.16249204 -0.31210175 -0.18673873 -0.50063425
0001c0 7b 52 e4 bd d6 0f a1 be 56 33 68 bc bf 7a 73 be
       -0.111485444 -0.31457394 -0.014172396 -0.23777293
0001d0 14 e4 67 be a9 f9 b0 bd e6 84 a7 be 08 db d2 be
       -0.22645599 -0.08641369 -0.3271858 -0.41182733
0001e0 96 45 5d be b1 5c 8b bd b7 64 58 3d 50 f8 ab be
       -0.21608576 -0.06804789 0.052830424 -0.33587885
0001f0 4d 5f b8 be d2 8e 85 be 02 0d 53 bf be 89 a4 be
       -0.3601021 -0.26085526 -0.82441723 -0.3213634
000200 5d cb aa be b9 0c 92 be 18 1c 8c 3e c2 ca 60 3e
       -0.3335828 -0.28525332 0.27365184 0.21952346
000210 4f 87 35 3e 5d bf f8 be b2 ab 3b be 8b b4 2c be
       0.17727397 -0.485835 -0.18327215 -0.16865747
000220 3e 0b 2b be 72 1d f3 3c 56 43 aa 3c f3 20 b8 3d
       -0.16703507 0.029677127 0.020784061 0.089906596
000230 6d 51 07 3b 8f bb e0 3b 03 4f 10 3e 7f ee 73 3d
       0.0020647899 0.006858296 0.1409264 0.05955362
000240 72 bb 03 3e 52 12 9b 3d b6 b0 8b bd d9 05 0c 3e
       0.12864473 0.07571854 -0.06820814 0.13674106
000250 cd 08 e8 bc 02 48 e8 be 2a 56 01 be c8 6d 82 be
       -0.028324509 -0.45367438 -0.12630525 -0.2547438
000260 b9 8d 48 3d 17 18 82 3b ff 55 ce be fa 83 1d 3d
       0.048963282 0.003970157 -0.40299985 0.03845594
000270 56 46 bc bc 6f 28 25 be 22 08 51 3d e1 e4 fd 3d
       -0.022982758 -0.16128705 0.051033147 0.12397171
000280 69 8a 17 3c 11 52 4d 3e ee c6 00 3e ec 61 ec bc
       0.009249308 0.20050837 0.12575886 -0.028855287
000290 49 5e 77 be a0 bf 28 be 4a 0f f6 bd 15 2c b3 be
       -0.2415706 -0.16479349 -0.12014635 -0.3499457
0002a0 23 67 be 3d 89 ff 28 3d 98 89 45 be e1 1b 99 bc
       0.092970155 0.041259322 -0.19290769 -0.018690052
0002b0 95 a4 8d be d1 a8 ba be e3 41 53 3e b3 4f e6 3e
       -0.2766463 -0.36456922 0.20630603 0.4498268
0002c0 a5 1e 9c be b8 fa 9f 39 f3 dc 1f 3e 0c be 88 be
       -0.3049213 0.00030513643 0.15611629 -0.26707494
0002d0 b3 f7 e2 bd 3c 0b 46 3e f6 e5 6e 3e cf bf d8 3d
       -0.11082401 0.19340223 0.2332991 0.105834596
0002e0 e0 f8 02 3e 72 01 b7 3e 00 c7 b8 bc f0 9d 3e be
       0.12790251 0.3574329 -0.022555828 -0.18614936
0002f0 ac 1b b8 bd bd 16 41 be 23 9d 13 be 43 3c 14 bf
       -0.08989653 -0.1885633 -0.14415412 -0.5790445
000300 bd 15 20 be 7d 62 17 be d0 c2 7e 3c ac 15 f8 3c
       -0.15633292 -0.14783664 0.015549377 0.030283771
000310 6e a1 cc 3d 8e 95 74 3e 87 22 f7 bb 70 ec bc bb
       0.09991728 0.23885176 -0.007541958 -0.0057654902
000320 df 91 01 be 10 b2 d6 3c 0e f8 b8 bb a0 b7 7c 3d
       -0.12653302 0.026207954 -0.005644805 0.061698556
000330 b0 c8 52 be b8 24 9d be ce 38 56 3d e9 16 e6 bd
       -0.20584369 -0.30692077 0.052300267 -0.112348385
000340 ed 2a 8f be 26 76 fe bb 6a c8 00 3d 6d 96 de 3d
       -0.27962437 -0.0077655492 0.03144113 0.10868535
000350 90 40 8d be 5b 6e ab ba de 43 11 be ec 7e 63 bd
       -0.2758832 -0.0013079153 -0.14186046 -0.055540964
000360 6b 52 c5 bd e3 09 63 3e 8b b1 04 bd 30 c8 c3 3d
       -0.096348606 0.2217174 -0.03239588 0.09559667
000370 72 89 41 bd a8 41 66 3d 25 69 20 3e e1 72 e8 3c
       -0.04725022 0.05621496 0.1566511 0.028375091
000380 8a ee e1 3e 34 47 e4 3e cb ec 0a 3e 92 55 61 bb
       0.44127303 0.44585574 0.13566892 -0.003438328
000390 f0 4b a7 bd df 90 07 be 63 4c 17 be eb 37 72 3e
       -0.08168781 -0.13238858 -0.14775233 0.23654144
0003a0 ef ac 63 3e ca c2 08 bf 0d 74 d2 bd c9 7d 8f 3e
       0.22233938 -0.53422225 -0.10276041 0.28025654
0003b0 0b a4 d3 bd a8 77 ac 3d ea 68 e0 3d 53 81 7f be
       -0.10334023 0.0842126 0.10957511 -0.24951677
0003c0 d0 e8 5b 3e 43 78 c7 3d b3 28 2e be c1 06 88 bd
       0.2147553 0.09739735 -0.17007713 -0.06641913
0003d0 22 2e 71 bd 8b d7 5f bc 49 25 8d 3a 77 9a b6 3d
       -0.058881886 -0.013662229 0.0010768558 0.089161806
0003e0 e9 76 fb bd 8d 31 0e 3e bd 4e b3 3a 11 68 f4 bc
       -0.1227854 0.1388609 0.0013680082 -0.029834779
0003f0 36 80 23 3e f0 31 1a 3d 89 b4 48 3e 92 ce 2a be
       0.15966877 0.03764528 0.19600119 -0.16680363

fc.0.bias f4 [10]
000000 06 74 a4 bc cb 29 db 3c e2 b8 02 bd 49 de 07 3d
       -0.020074856 0.026753327 -0.0319146 0.033170972
000010 ac d8 37 3b 7b f2 3d bd f0 f5 ac bd fb a8 0e 3c
       0.002805273 -0.046373826 -0.08445346 0.00870728
000020 eb b1 f8 3d 8c 98 d1 bc
       0.1214331 -0.025585435
