log/epoch-40.pth (torch_old, 43962 bytes, 32 tensors)

conv1.0.weight f4 [2, 1, 3, 3]
0.3622829 0.34474996 0.38529602 0.5450757 1.0297942 0.606184 1.0840456 0.83436424
0.391245 0.5553032 -0.75675976 -1.8274117 -0.31542236 -1.5473069 0.023347475 -0.9152613
-0.4911055 0.23369677
00000000: 257d b93e 1183 b03e 8545 c53e 158a 0b3f
00000010: 4cd0 833f e02e 1b3f 02c2 8a3f e598 553f
00000020: 4451 c83e 5a28 0e3f 02bb 41bf a0e8 e9bf
00000030: 0a7f a1be 270e c6bf 3443 bf3c 914e 6abf
00000040: 2e72 fbbe 354e 6f3e

conv1.0.bias f4 [2]
0.9941631 0.36811972
00000000: 7981 7e3f 307a bc3e

conv1.1.weight f4 [2]
1.2126539 1.2551963
00000000: 3e38 9b3f 46aa a03f

conv1.1.bias f4 [2]
0.6444597 0.027037805
00000000: 50fb 243f 637e dd3c

conv1.1.running_mean f4 [2]
1.7303164 -0.2965459
00000000: 027b dd3f ddd4 97be

conv1.1.running_var f4 [2]
2.1435509 1.9895096
00000000: f02f 0940 40a8 fe3f

conv21.0.weight f4 [4, 2, 3, 3]
0.17434436 0.33749518 -0.0386598 1.1115484 -0.7433507 -0.465356 0.7401807 -0.6261301
0.043997273 0.57833964 -0.21849546 -0.09988001 -0.83043534 1.3694084 0.052220747 -0.93117046
0.38491285 -0.3075868 -0.21612155 0.50606173 -0.21260561 1.258239 -0.37004146 -0.58302736
-0.47483653 -0.5244486 0.40949005 -0.005649821 -0.21624807 0.44674534 0.2811995 1.2316449
0.9974702 0.06241147 0.5381186 -0.3973737 -0.14742188 1.2586806 0.6617987 0.30771425
0.79657304 -0.10698146 0.27064332 -0.1816237 -0.5802824 0.12733705 -0.08104647 -1.2950675
0.5672279 -0.50111866 -1.2223146 0.561088 -0.8584153 -0.9891945 -0.24338065 -0.3267954
-0.4455755 0.641833 1.2450157 0.47100708 -0.63961303 -0.8515565 0.24901886 0.1492663
0.078952484 0.010943615 0.08260938 -1.1357312 -0.3674755 0.097025886 -0.4340194 -0.4796403
00000000: 5487 323e 2bcc ac3e bd59 1ebd 3847 8e3f
00000010: 3b4c 3ebf 2443 eebe 7b7c 3d3f 104a 20bf
00000020: 7c36 343d 110e 143f 46bd 5fbe e48d ccbd
00000030: 6997 54bf c648 af3f 6ce5 553d 3061 6ebf
00000040: 4c13 c53e 047c 9dbe f84e 5dbe 438d 013f
00000050: 49b5 59be fa0d a13f 1376 bdbe 4841 15bf
00000060: c61d f3be 4342 06bf aea8 d13e 2222 b9bb
00000070: 2270 5dbe cebb e43e 62f9 8f3e 8aa6 9d3f
00000080: 355a 7f3f 2ba3 7f3d 24c2 093f 9174 cbbe
00000090: c3f5 16be 721c a13f a46b 293f b98c 9d3e
000000a0: 36ec 4b3f 1819 dbbd c391 8a3e 90fb 39be
000000b0: 638d 14bf a564 023e b1fb a5bd c6c4 a5bf
000000c0: d935 113f 5049 00bf ce74 9cbf 77a3 0f3f
000000d0: 1bc1 5bbf da3b 7dbf c738 79be ba51 a7be
000000e0: 7922 e4be 2b4f 243f ad5c 9f3f d727 f13e
000000f0: aebd 23bf 9bff 59bf cdfe 7e3e 44d9 183e
00000100: d7b1 a13d d94c 333c 1b2f a93d a45f 91bf
00000110: c025 bcbe 82b5 c63d ca37 debe 6a93 f5be

conv21.0.bias f4 [4]
0.18731603 -0.20093054 1.050272 1.068868
00000000: c6cf 3f3e bcc0 4dbe 506f 863f abd0 883f

conv21.1.weight f4 [4]
1.3010005 1.3222849 1.2176232 1.241248
00000000: 2f87 a63f a240 a93f 14db 9b3f 37e1 9e3f

conv21.1.bias f4 [4]
-0.56776005 -0.011894788 0.30394846 0.2561409
00000000: b958 11bf 5be2 42bc 229f 9b3e e624 833e

conv21.1.running_mean f4 [4]
0.7447411 1.0874556 1.3244464 0.15888983
00000000: 5aa7 3e3f bf31 8b3f 7687 a93f 04b4 223e

conv21.1.running_var f4 [4]
5.049324 2.974149 14.319058 2.2380018
00000000: 1094 a140 7558 3e40 dd1a 6541 6c3b 0f40

conv22.0.weight f4 [4, 4, 3, 3]
-0.8255218 -1.3840069 -0.9386476 -0.3800642 -0.8495032 -0.46387658 0.1726572 -0.09392916
-0.9200251 0.6739488 0.45944846 -0.17817686 -0.42920017 0.45692745 0.28025725 -1.3397673
-0.1949674 -0.07570034 -0.5380114 0.011346805 0.15937549 -0.02146961 -0.45320088 -0.17433546
0.072926335 0.3349697 0.27622837 -0.3395479 -2.1755407 -1.7082496 -0.2919223 -0.17720404
0.74022084 0.28169078 0.079769075 0.48833224 -0.36747319 -0.7052185 0.33845022 0.009330179
-0.4435082 -0.34615272 -0.5798212 -0.6841655 -0.069801435 -0.6987061 -0.77297735 -0.9886707
0.10623961 -0.38821825 -0.9149333 0.9573995 0.17639536 0.03901278 1.1367749 1.3548118
0.13284564 -0.15366597 -0.06741983 -0.15074326 -0.47065026 -0.17871399 -0.009654324 -0.736416
0.59484994 1.0405964 0.10856304 0.29776633 0.76442236 -0.06503218 -0.10470012 -0.15222138
-0.49976283 -0.30191606 0.75183946 -0.81514794 0.13361675 0.6436488 0.58945626 0.33610216
0.7354027 0.05820001 0.058996283 -0.47571117 0.46499664 0.5993331 -0.16942248 0.61644554
1.0966295 0.08466926 0.32230952 -0.027302712 -0.2878148 -0.09578817 0.6393242 1.0367644
0.5153676 1.2175523 1.0287799 -0.02425048 -0.55502325 -0.58922505 -0.785845 -0.24247037
-0.55688304 -0.3915569 0.13129869 -0.32850513 -0.29050055 -0.34786442 -0.47564685 -0.721637
-0.6744826 -0.6772431 0.72667736 0.24627902 -0.46713343 1.0410128 -0.29778835 -0.0003108518
-1.2650486 -0.13684681 0.61316776 0.5337386 -0.2104521 -0.0055359188 -0.13079561 -0.58042985
-0.05861954 0.6377921 0.28302398 -0.18682112 0.9427424 0.23822847 -0.44420415 0.1082598
0.13455184 0.3434789 0.22195537 0.657989 0.8529523 0.22871079 -0.7950741 -0.838049
00000000: 6655 53bf 2327 b1bf 364b 70bf c697 c2be
00000010: 0b79 59bf 3b81 edbe 0dcd 303e ee5d c0bd
00000020: c486 6bbf e987 2c3f d43c eb3e ff73 36be
00000030: 20c0 dbbe 65f2 e93e e17d 8f3e 7f7d abbf
00000040: 89a5 47be c808 9bbd 1dbb 09bf f3e7 393c
00000050: 5433 233e 09e1 afbc f209 e8be ff84 32be
00000060: 675a 953d 2681 ab3e ce6d 8d3e 39d9 adbe
00000070: 0f3c 0bc0 eca7 dabf d776 95be fa74 35be
00000080: 1d7f 3d3f c639 903e f85d a33d af06 fa3e
00000090: 7225 bcbe 3389 34bf 5949 ad3e 9bdd 183c
000000a0: 8213 e3be ee3a b1be 2a6f 14bf 7825 2fbf
000000b0: 0ef4 8ebd 67de 32bf d8e1 45bf 8619 7dbf
000000c0: 2794 d93d 8bc4 c6be 1239 6abf 2218 753f
000000d0: fca0 343e ddcb 1f3d d781 913f 796a ad3f
000000e0: b008 083e 9d5a 1dbe 6813 8abd 715c 1abe
000000f0: 12f9 f0be cd00 37be 2b2d 1ebc c285 3cbf
00000100: 1648 183f 4332 853f 4d56 de3d d474 983e
00000110: 2fb1 433f 972f 85bd 046d d6bd ecdf 1bbe
00000120: eae0 ffbe be94 9abe 8d78 403f 89ad 50bf
00000130: d4d2 083e 2bc6 243f 9be6 163f 9515 ac3e
00000140: 5a43 3c3f 2263 6e3d 16a6 713d 6a90 f3be
00000150: 0a14 ee3e e56d 193f 167d 2dbe 60cf 1d3f
00000160: 5b5e 8c3f 1467 ad3d c105 a53e f0a9 dfbc
00000170: 765c 93be 972c c4bd c0aa 233f b2b4 843f
00000180: 22ef 033f c1d8 9b3f 0faf 833f f1a8 c6bc
00000190: 0116 0ebf 74d7 16bf 232d 49bf 274a 78be
000001a0: e38f 0ebf 257a c8be 2a73 063e d331 a8be
000001b0: 7dbc 94be 491b b2be fc87 f3be 34bd 38bf
000001c0: e4aa 2cbf ce5f 2dbf 8707 3a3f 9130 7c3e
000001d0: 1d2c efbe e83f 853f b777 98be d3f9 a2b9
000001e0: 1ded a1bf 9221 0cbe 90f8 1c3f 18a3 083f
000001f0: c180 57be a766 b5bb 49ef 05be 0d97 14bf
00000200: 0b1b 70bd 5846 233f 85e8 903e 094e 3fbe
00000210: 9157 713f 2af2 733e ba6e e3be 50b7 dd3d
00000220: f5c7 093e 77dc af3e 4548 633e f871 283f
00000230: 155b 5a3f 2933 6a3e fa89 4bbf 618a 56bf

conv22.0.bias f4 [4]
0.6706633 -0.15613583 0.0085294815 -0.091268815
00000000: 97b0 2b3f 12e2 1fbe 3dbf 0b3c 25eb babd

conv22.1.weight f4 [4]
1.7163349 1.1821496 1.2061632 1.0218263
00000000: ddb0 db3f ae50 973f 8e63 9a3f 34cb 823f

conv22.1.bias f4 [4]
-0.23393811 0.25237614 0.3538261 0.012616687
00000000: 798d 6fbe 7237 813e b228 b53e 39b6 4e3c

conv22.1.running_mean f4 [4]
-2.6949484 -0.1767815 2.3941727 0.08325037
00000000: 097a 2cc0 3606 35be 203a 1940 2c7f aa3d

conv22.1.running_var f4 [4]
30.779005 11.862075 13.583446 7.6660714
00000000: 673b f641 0fcb 3d41 cb55 5941 7550 f540

conv31.0.weight f4 [8, 4, 3, 3]
-0.22892575 -0.19574146 0.31616196 0.11624426 -0.1914648 0.6196554 0.32135302 0.93268174
-0.115074575 0.21602806 0.17006704 -0.697242 -0.30923736 0.64760166 1.8359438 0.20398548
-0.6310037 0.10883457 -0.09620885 0.8968212 -0.07555845 -0.11537661 0.31598118 -0.084356934
0.57500273 0.08031709 0.6675019 -0.6458549 -0.058766596 -0.44101575 0.17483118 -0.52821183
0.3745792 0.24227521 -0.40064356 -0.766222 0.70335567 1.4335355 0.35378054 -0.1756802
-0.49600965 0.10130422 0.20838135 1.6088437 1.6587572 -0.16494103 -0.025135448 0.20850441
0.3166026 0.5239598 0.19933796 -0.05638964 -0.032405097 -0.3377868 -0.761394 -0.9642382
0.065259136 0.7390407 -0.20265953 -0.2912656 0.48762628 -0.7253015 -0.49228182 0.15881205
-0.2524287 0.14207447 0.7824059 0.20988171 0.24601412 0.78070676 0.107317135 -0.03539123
0.10135334 -0.2993491 -0.24472055 0.7074957 0.73963535 -1.0041059 0.9235606 -0.5042344
-0.978141 0.17421497 0.70866066 -0.35632834 0.21199384 -0.90507466 0.4038576 -0.9989678
-0.014846774 0.5140385 -0.4223731 -0.9490258 -0.020431483 -0.17891267 1.5859531 -0.33968115
-0.6141239 0.200174 0.16493404 0.5923177 -0.24522349 -0.6201046 -0.12115256 -0.25719193
0.44422713 0.5206749 0.11952248 -0.68517727 -0.31119198 0.14849995 -0.09406133 -0.4376689
-1.1274971 0.5360122 -0.07519596 -0.94734913 -0.48737523 -0.06896298 -1.2474941 0.5611637
0.99332184 0.663618 0.17728299 -0.14823572 0.78618664 0.591841 -0.09076811 -0.5165988
-0.30756667 0.7091911 0.3908847 -0.9890205 -0.33734432 -0.88150185 -0.53147674 -0.06109748
0.5991573 0.6179162 0.5605491 -0.432575 -0.31368405 -1.018443 0.0659331 -0.3949267
0.293526 -0.34154034 0.10884627 0.39909253 -0.16469835 -0.14891678 -0.049137257 0.21737798
1.2220637 -1.0890007 0.8989958 -0.49037024 -0.051120862 -0.4573485 -0.85231405 0.10510324
-1.5083569 -0.06040107 -0.15691881 -0.33149266 0.5115245 0.26643795 -0.36139584 0.48743603
0.22952257 -1.0902116 -0.045398455 -0.7915128 -0.3205389 0.30991638 1.2514285 0.2047156
-0.25720814 -0.55752623 -0.017824598 0.29470357 0.097963825 -0.69102544 1.1035054 -0.32903337
-0.19133626 -0.32586923 0.08938483 -0.56665814 -1.0280225 -0.15616384 -0.5481234 -0.39056748
0.05989748 -0.38793632 -0.10348739 0.3249671 0.5501917 -0.4066256 -0.23178135 1.1089278
0.14514409 -0.33983025 0.26492366 -0.0003716432 -0.5013718 0.47075236 0.055886496 -0.03360578
-1.9416145 -0.075607195 -0.74742925 -1.1349212 0.60050666 0.084006645 -0.5502689 -0.30130813
-0.20114654 -0.34494185 -0.93767136 -0.11065313 0.6348683 -0.24308777 -0.618094 0.08388074
0.5474976 -0.6214177 0.08896719 -0.8704536 -0.3946288 -0.10271847 0.62990266 0.105370566
0.25386754 0.3140103 -0.5356227 -0.05950446 0.33031327 1.4332067 1.2140573 -0.742908
-0.33733642 -0.55167633 0.1454672 0.18137749 -0.87962425 -0.32223254 -0.18535383 0.15256543
-0.2958241 0.23382597 0.31875172 0.9133391 0.1090167 0.49208555 1.1538744 0.5426843
00000000: 836b 6abe 7370 48be fbdf a13e 7811 ee3d
00000010: 590f 44be bca1 1e3f 6288 a43e 3bc4 6e3f
00000020: 38ac ebbd 7636 5d3e 0e26 2e3e 747e 32bf
00000030: 5c54 9ebe 39c9 253f 3500 eb3f 92e1 503e
00000040: 7589 21bf a9e4 de3d 2509 c5bd 1396 653f
00000050: 63be 9abd 924a ecbd 49c8 a13e 54c3 acbd
00000060: 6133 133f 497d a43d 68e1 2a3f bf56 25bf
00000070: 3eb5 70bd d1cc e1be f206 333e e438 07bf
00000080: d8c8 bf3e fe16 783e 2721 cdbe 2027 44bf
00000090: 1e0f 343f 177e b73f b922 b53e 83e5 33be
000000a0: faf4 fdbe 9678 cf3d ec61 553e 97ee cd3f
000000b0: 2852 d43f 4de6 28be dbe8 cdbc 2e82 553e
000000c0: bc19 a23e 3b22 063f 401f 4c3e d3f8 66bd
000000d0: 35bb 04bd 64f2 acbe b8ea 42bf 51d8 76bf
000000e0: 95a6 853d c531 3d3f fb85 4fbe c420 95be
000000f0: 27aa f93e 5cad 39bf 5d0c fcbe a09f 223e
00000100: 563e 81be f87b 113e c14b 483f 3beb 563e
00000110: 20eb 7b3e 66dc 473f 16c9 db3d 65f6 10bd
00000120: 5792 cf3d 4944 99be 0698 7abe 701e 353f
00000130: be58 3d3f 8b86 80bf 786e 6c3f 8115 01bf
00000140: 7367 7abf 6965 323e c96a 353f ab70 b6be
00000150: ea14 593e f9b2 67bf 6cc6 ce3e 5bbc 7fbf
00000160: e23f 73bc 0798 033f 4941 d8be 5bf3 72bf
00000170: ed5f a7bc e234 37be 8300 cb3f b0ea adbe
00000180: 3937 1dbf 6afa 4c3e 78e4 283e 22a2 173f
00000190: de1b 7bbe 2dbf 1ebf d51e f8bd a9ae 83be
000001a0: bd71 e33e f34a 053f 34c8 f43d c767 2fbf
000001b0: 8e54 9fbe 5f10 183e 3aa3 c0bd 2316 e0be
000001c0: d351 90bf 1838 093f 5700 9abd 7985 72bf
000001d0: 3f89 f9be 763c 8dbd e3ad 9fbf 6da8 0f3f
000001e0: 574a 7e3f dfe2 293f ac89 353e 1bcb 17be
000001f0: 8743 493f e482 173f a1e4 b9bd d23f 04bf
00000200: 6179 9dbe 8c8d 353f 0a22 c83e 7330 7dbf
00000210: 65b8 acbe 1baa 61bf dc0e 08bf 5a41 7abd
00000220: 5f62 193f c22f 1e3f 2580 0f3f 787a ddbe
00000230: 329b a0be 575c 82bf ef07 873d d533 cabe
00000240: 0a49 963e 60de aebe cbea de3d db55 cc3e
00000250: afa6 28be a47d 18be 2644 49bd 5598 5e3e
00000260: 956c 9c3f 6064 8bbf 9724 663f cf11 fbbe
00000270: 1c64 51bd 9529 eabe 4131 5abf 5e40 d73d
00000280: d711 c1bf 1d67 77bd 53af 20be 68b9 a9be
00000290: 45f3 023f 8e6a 883e e008 b9be 3791 f93e
000002a0: f707 6b3e 0e8c 8bbf bbf3 39bd 95a0 4abf
000002b0: ad1d a4be 5cad 9e3e cf2e a03f f7a0 513e
000002c0: c9b0 83be 0aba 0ebf e404 92bc 63e3 963e
000002d0: 42a1 c83d 0be7 30bf aa3f 8d3f 1077 a8be
000002e0: a7ed 43be 55d8 a6be 650f b73d 8210 11bf
000002f0: 3e96 83bf 6ae9 1fbe d151 0cbf 76f8 c7be
00000300: 0f57 753d 979f c6be 32f1 d3bd 1662 a63e
00000310: 5dd9 0c3f 3b31 d0be 1758 6dbe 59f1 8d3f
00000320: a7a0 143e 3bfe adbe 13a4 873e 1bd9 c2b9
00000330: e759 00bf 7406 f13e 3de9 643d 37a6 09bd
00000340: d386 f8bf f2d7 9abd 8657 3fbf 1945 91bf
00000350: ceba 193f ad0b ac3d 6cde 0cbf 0f45 9abe
00000360: 5cf9 4dbe 389c b0be 3b0b 70bf 1c9e e2bd
00000370: bb86 223f 00ec 78be 693b 1ebf aac9 ab3d
00000380: cd28 0c3f 3b15 1fbf 6e34 b63d 0cd6 5ebf
00000390: c90c cabe 105e d2bd 4d41 213f 86cc d73d
000003a0: edfa 813e f5c5 a03e 921e 09bf f3ba 73bd
000003b0: d21e a93e 5173 b73f 3b66 9b3f 382f 3ebf
000003c0: 5cb7 acbe a93a 0dbf 5bf5 143e 05bb 393e
000003d0: 0e2f 61bf aafb a4be 65cd 3dbe 1d3a 1c3e
000003e0: 4276 97be 1370 6f3e 6d33 a33e 97d0 693f
000003f0: 2644 df3d a3f2 fb3e 28b2 933f 5ced 0a3f

conv31.0.bias f4 [8]
0.44489396 -0.22608456 -0.3725758 -0.08450153 -0.22193247 0.054384734 -0.4384132 -0.033402067
00000000: 24c9 e33e b682 67be 41c2 bebe 230f adbd
00000010: 4442 63be 87c2 5e3d b277 e0be 9bd0 08bd

conv31.1.weight f4 [8]
1.0039834 1.1450018 1.3092 1.3671116 1.3805375 1.3151538 1.4416957 1.6281016
00000000: 8782 803f 6b8f 923f de93 a73f 83fd ae3f
00000010: 74b5 b03f f656 a83f 7c89 b83f a265 d03f

conv31.1.bias f4 [8]
0.16795897 -0.044309936 0.000969347 -0.0362405 -0.2586671 -0.09773039 0.09026849 -0.33558163
00000000: 70fd 2b3e 567e 35bd c71b 7e3a eb70 14bd
00000010: 0470 84be df26 c8bd b0de b83d 5bd1 abbe

conv31.1.running_mean f4 [8]
3.4722733 2.8928025 -1.4672377 -2.605982 -2.5963576 -3.7145789 -0.40787336 -3.3204632
00000000: ba39 5e40 ad23 3940 72ce bbbf 69c8 26c0
00000010: b92a 26c0 a9bb 6dc0 c7d4 d0be 7882 54c0

conv31.1.running_var f4 [8]
8.950558 13.268006 8.646778 16.648798 12.723412 13.170357 12.0096445 24.35328
00000000: 7c35 0f41 c149 5441 3459 0a41 bd30 8541
00000010: 1893 4b41 c8b9 5241 8127 4041 84d3 c241

conv32.0.weight f4 [16, 8, 3, 3]
0.28330532 0.70430744 -0.07610048 -0.14333914 -0.9205979 0.60891205 -0.3003539 -0.32227147
-0.28394446 -0.28604183 -1.1195688 0.04041052 1.1253481 -0.020511098 -0.47919485 1.0933659
0.18878083 -0.31808266 -0.8049408 0.3661772 0.359187 0.15077479 -0.034369327 1.0239689
0.32065386 0.38188112 -1.6002635 0.2559944 -0.01461613 -0.10059695 0.16790162 -0.15005463
0.07070047 -0.037165478 -0.14100806 -0.18419051 -0.8119381 0.2030848 0.56873083 0.11974278
-0.6201399 -0.1656754 0.19986202 -0.39135262 -1.2313739 -0.41755712 -0.14177307 -0.32332793
-0.44769776 -1.1213858 -0.09853801 1.1641822 0.8395957 -0.2702195 -0.78036964 -0.34056526
0.396134 -0.16493055 -0.14940909 0.5531088 -0.18545045 0.16387434 -1.3044763 0.13149838
0.3451674 0.020135831 -0.6563317 -0.56365377 -0.44309136 -0.39992455 0.018129647 -0.4535587
0.11550018 1.2429726 0.48699972 -0.44072264 0.21628922 0.45989656 -0.86755276 -0.44646522
-0.18856524 0.10599623 -0.7128053 -0.12996244 0.052399 0.47133663 0.08710839 -0.00019597911
0.6700918 0.36197516 0.12377569 0.112347215 -1.4172683 -0.5278073 0.21832639 0.8579199
0.25159973 -0.34202534 -0.16611618 -0.03706849 -0.4691942 0.023073986 -0.7530297 1.0023925
-1.0299962 -1.0440378 -0.1392864 -0.3513317 0.41675946 0.11647668 -1.0532088 0.23414099
0.62476027 -0.5060652 0.6189921 0.35747227 0.3234032 0.69556147 -0.7281733 0.20964667
-0.8488697 -0.8524986 -0.4879172 0.33261698 -0.03844122 -0.5626125 -0.8027365 0.25307772
0.28602532 0.14196116 0.082810916 0.18189949 0.036155805 0.15347502 0.12827495 0.92613614
0.09689887 -0.6187085 -0.8481379 0.23280251 -0.49656546 0.37087268 0.14572859 -0.22699621
-0.44177198 0.32027748 0.41432315 -0.07056833 0.827915 -0.13485558 -0.7846561 -0.6395199
-0.709212 -0.14583032 0.027049517 1.5159318 0.52246696 0.16423328 -0.56309 -0.13163275
-1.162966 -0.39537308 -0.10271837 -0.32168013 0.49073896 -0.5345067 -0.8513737 -0.75711685
-0.3774407 0.21399473 0.5897637 -0.48090297 -0.34019944 0.2522593 0.19045827 0.41956237
-0.49403992 -0.53735465 -0.98392683 -0.42148012 -0.93019426 -0.13189359 -0.77293026 0.1446007
0.51996404 -0.61902463 0.61294013 0.17079926 0.46911475 0.39428934 0.15281245 1.1155281
-0.31289402 -0.71999097 -0.84043163 -0.009477549 -0.3503185 -0.06253412 0.44728348 0.34092587
0.55281115 0.07424511 0.7158025 -0.7259325 -1.2620941 -0.50429785 0.54680616 -0.16283445
-0.57573044 0.152461 0.051389065 0.06276137 -0.412961 -0.6965742 0.44966686 -0.08293947
-0.64668274 -0.91503257 0.094449565 0.15859522 0.3694317 0.17651019 0.030509531 -1.1267048
-0.2800997 0.12670892 0.18959619 -0.72190475 -0.6538053 -0.5736345 0.07030418 -0.6565382
-1.3191062 0.8991895 0.47005996 -0.12845376 -0.3181325 0.98724693 0.027596198 -0.17636284
-0.42685223 -0.027187862 -0.8377216 0.33594152 0.48716605 -1.364831 -0.39191347 -0.027645905
-0.6138797 -0.20965877 -0.3983956 0.099552885 -0.13349776 -0.2598235 -0.07631252 0.77319026
00000000: 650d 913e 7e4d 343f 92da 9bbd 7fc7 12be
00000010: 4eac 6bbf a9e1 1b3f fdc7 99be c400 a5be
00000020: 2b61 91be 1374 92be 084e 8fbf 8085 253d
00000030: 680b 903f e406 a8bc 0759 f5be 6af3 8b3f
00000040: c34f 413e bbdb a2be 9a10 4ebf 947b bb3e
00000050: 5ce7 b73e b564 1a3e dac6 0cbd 6a11 833f
00000060: be2c a43e ec85 c33e 6fd5 ccbf b311 833e
00000070: 7e78 6fbc c605 cebd 67ee 2b3e eca7 19be
00000080: 68cb 903d d43a 18bd 6b64 10be 709c 3cbe
00000090: 2ddb 4fbf 76f5 4f3e 5898 113f b43b f53d
000000a0: 7dc1 1ebf d0a6 29be a1a8 4c3e 5f5f c8be
000000b0: a99d 9dbf 0cca d5be f62c 11be 3d8b a5be
000000c0: a438 e5be 9289 8fbf 4cce c9bd ec03 953f
000000d0: beef 563f 365a 8abe 4ec6 47bf 925e aebe
000000e0: 13d2 ca3e 8ee3 28be b2fe 18be 8a98 0d3f
000000f0: b9e6 3dbe adce 273e 14f9 a6bf 83a7 063e
00000100: c8b9 b03e e6f3 a43c 5b05 28bf 9d4b 10bf
00000110: dfdc e2be e9c2 ccbe a084 943c d938 e8be
00000120: 5c8b ec3d ba19 9f3f 0758 f93e 66a6 e1be
00000130: ec7a 5d3e 9077 eb3e f017 5ebf 1797 e4be
00000140: 3f17 41be 8d14 d93d 687a 36bf e014 05be
00000150: 55a0 563d 0953 f13e e265 b23d be7f 4db9
00000160: 238b 2b3f cf54 b93e 1c7e fd3d 4c16 e63d
00000170: 0c69 b5bf 611e 07bf f490 5f3e a3a0 5b3f
00000180: aed1 803e f21d afbe 5c1a 2abe 21d5 17bd
00000190: 393a f0be a805 bd3c 8ec6 40bf 664e 803f
000001a0: ead6 83bf 08a3 85bf 18a1 0ebe c0e1 b3be
000001b0: 7f61 d53e 538b ee3d 8ccf 86bf a8c2 6f3e
000001c0: 4af0 1f3f 7d8d 01bf 4476 1e3f 9b06 b73e
000001d0: 1b95 a53e 5110 323f 9169 3abf 9ead 563e
000001e0: 864f 59bf 593d 5abf 49d0 f9be c64c aa3e
000001f0: 8a74 1dbd 5f07 10bf 2480 4dbf 6793 813e
00000200: e971 923e 445e 113e c598 a93d dc43 3a3e
00000210: 1c18 143d 8e28 1d3e 825a 033e 4217 6d3f
00000220: ea72 c63d ae63 1ebf 911f 59bf c863 6e3e
00000230: d43d febe 06e3 bd3e e039 153e b271 68be
00000240: f02f e2be 69fb a33e 2a22 d43e 2186 90bd
00000250: 3df2 533f 9517 0abe 39df 48bf 93b7 23bf
00000260: eb8e 35bf 8b54 15be f396 dd3c 0e0a c23f
00000270: 65c0 053f c52c 283e ab26 10bf bcca 06be
00000280: 12dc 94bf 576e cabe 025e d2bd 42b3 a4be
00000290: 2342 fb3e 6ed5 08bf a0f3 59bf 69d2 41bf
000002a0: e83f c1be 6f21 5b3e c1fa 163f ea38 f6be
000002b0: 9f2e aebe 2228 813e 7e07 433e e1d0 d63e
000002c0: cdf2 fcbe 1390 09bf a1e2 7bbf 3ecc d7be
000002d0: 3621 6ebf 1d0f 07be c2de 45bf 3512 143e
000002e0: 5d1c 053f 6678 1ebf a5e9 1c3f 00e6 2e3e
000002f0: cf2f f03e 4be0 c93e de7a 1c3e a0c9 8e3f
00000300: a533 a0be 5451 38bf 8726 57bf b947 1bbc
00000310: f25c b3be e411 80bd 5702 e53e d68d ae3e
00000320: 0885 0d3f d20d 983d d53e 373f b6d6 39bf
00000330: 4d8c a1bf aa19 01bf 7dfb 0b3f 13be 26be
00000340: 1263 13bf bd1e 1c3e 577d 523d 0889 803d
00000350: a06f d3be b052 32bf bc3a e63e 2bdc a9bd
00000360: 008d 25bf 933f 6abf c66e c13d c966 223e
00000370: 2726 bd3e 16bf 343e 20ef f93c dd37 90bf
00000380: 3a69 8fbe fcbf 013e 8125 423e c0ce 38bf
00000390: c95f 27bf b6d9 12bf a3fb 8f3d e312 28bf
000003a0: 79d8 a8bf 4831 663f b3ab f03e 6289 03be
000003b0: 43e2 a2be 37bc 7c3f 6c11 e23c 7698 34be
000003c0: 608c dabe 14b9 debc ec74 56bf 8700 ac3e
000003d0: d46d f93e c8b2 aebf e2a8 c8be aa79 e2bc
000003e0: 3827 1dbf cab0 56be 82fa cbbe 62e2 cb3d
000003f0: a3b3 08be 9607 85be bd49 9cbd ccef 453f

conv32.0.bias f4 [16]
0.24063984 -0.1773991 0.19697711 -0.32721734 -0.14178406 0.2359475 0.23365523 -0.05009928
-0.10864571 -0.08540492 -0.06853801 0.1177416 0.2064509 0.032607507 -0.05748043 0.14486134
00000000: 4a6a 763e 1ca8 35be 5eb4 493e 0889 a7be
00000010: d72f 11be 399c 713e 5143 6f3e e734 4dbd
00000020: a481 debd c6e8 aebd a85d 8cbd 8222 f13d
00000030: dd67 533e 738f 053d 9970 6bbd 8856 143e

conv32.1.weight f4 [16]
1.2373059 1.3284025 1.3657625 1.7783444 1.3584465 1.3942428 1.490051 1.5499057
1.3574913 1.3494655 1.5054299 1.3916916 1.3961489 1.401265 1.344107 1.4815361
00000000: 0a60 9e3f 1809 aa3f 4ed1 ae3f caa0 e33f
00000010: 93e1 ad3f 8c76 b23f feb9 be3f 4f63 c63f
00000020: 46c2 ad3f 49bb ac3f edb1 c03f f322 b23f
00000030: 02b5 b23f a75c b33f b30b ac3f faa2 bd3f

conv32.1.bias f4 [16]
-0.6494003 -0.5464148 -0.58484834 -1.0482581 -0.59642667 -0.6069459 -0.5383897 -0.8526591
-0.64506084 -0.56759244 -0.86869246 -0.62664765 -0.8627342 -0.7483953 -0.8439916 -0.8257058
00000000: 193f 26bf d7e1 0bbf 9fb8 15bf 522d 86bf
00000010: 6baf 18bf ce60 1bbf e8d3 09bf de47 5abf
00000020: b522 25bf bd4d 11bf a162 5ebf fb6b 20bf
00000030: 26dc 5cbf d696 3fbf d50f 58bf 7561 53bf

conv32.1.running_mean f4 [16]
-2.4366577 -1.4953474 -2.6871004 -2.3117738 -2.6928675 2.195287 -1.0008224 -2.4953642
-2.1564913 -5.1410027 -4.536726 1.658553 -5.494474 -1.6617633 1.3354625 -2.2028499
00000000: 33f2 1bc0 8b67 bfbf 74f9 2bc0 1af4 13c0
00000010: f157 2cc0 957f 0c40 f31a 80bf 0cb4 1fc0
00000020: f403 0ac0 1883 a4c0 dc2c 91c0 774b d43f
00000030: bbd2 afc0 a9b4 d4bf 6ff0 aa3f 7efb 0cc0

conv32.1.running_var f4 [16]
8.483582 11.481142 16.304878 11.91561 11.307755 13.912165 12.397243 13.24924
14.308438 9.63006 11.060719 11.541807 11.91523 12.6617565 10.025556 14.025242
00000000: c0bc 0741 c2b2 3741 6470 8241 57a6 3e41
00000010: 91ec 3441 3a98 5e41 1b5b 4641 e3fc 5341
00000020: 5def 6441 ba14 1a41 b4f8 3041 3eab 3841
00000030: c8a4 3e41 8e96 4a41 ad68 2041 6467 6041

fc.0.weight f4 [10, 784]
-0.0071200985 1.9591011 -0.07263524 -0.13718362 0.3629138 0.21822532 -0.2504941 -0.44457665
0.15191877 -0.47810557 0.35068482 0.46556482 -0.1902107 -0.42111668 0.7352236 0.36379284
-0.18099393 -0.08786006 -1.1950964 -0.15408432 0.112292856 -0.3891864 0.1436236 -0.19921553
0.31976414 0.0006142689 0.33423483 -0.44794062 -1.5445914 -0.081707306 -0.85320187 -0.647632
-0.1609773 0.31167907 -0.7773922 0.79842216 0.8718591 -0.7957301 -1.0593572 0.32624683
1.055675 -0.41622844 -0.18903418 0.36210033 -0.15162787 0.16350794 0.05053333 0.16223535
-0.14177138 0.24281006 0.5758408 0.23787081 0.059237704 -0.47723132 0.32612258 -0.45426363
-0.22191785 -0.9166877 -0.30418688 0.37794945 0.42227918 -0.9660586 -0.33173165 0.13577764
0.15052058 0.22882883 0.06304483 -0.005540624 0.083037004 -0.029663654 -0.57744515 -0.96258473
0.05586632 0.24628617 0.24372642 -1.0516464 -0.4372284 -0.6190032 -0.48778683 -0.92610985
-0.49369794 0.2328573 0.32566407 -0.07303701 0.27099612 0.4540091 -0.612492 0.25962782
0.20539334 0.18927829 0.49138743 -0.24477983 0.35751712 0.40802068 0.82894343 -0.21943808
0.10018074 0.19015972 -0.8048464 0.0023122933 -0.05437701 0.3190059 0.9469261 0.57740265
-0.2637337 -0.6180951 0.37039113 -1.340311 -0.09842258 -1.2213432 -0.6670806 -1.1296217
0.60648286 -0.8463356 -0.13511245 -0.35044482 -0.5009996 -0.20341875 -0.42846078 -0.8094213
-0.5989933 -0.12968305 0.15974352 0.06400289 -0.68275166 -0.4308136 -1.879187 -1.1320558
-0.41362897 -0.58141375 0.7096133 0.9862679 0.41334146 -0.88807297 -0.362391 -0.77020425
-0.46570304 0.2134211 0.18715373 0.069405004 -0.019282384 -0.10735491 0.25832185 0.18723184
0.45469907 0.18171428 -0.04551778 -0.29974866 0.35937643 -1.046059 -0.4356122 -1.1932378
0.27238417 0.26936966 -1.0503529 -0.46262774 0.2261662 -0.5021946 -0.053458754 0.12382963
0.58297414 0.8085689 -0.1964778 0.12503807 -0.3883844 -0.012904206 -0.17174956 -1.0937228
0.34570253 0.16975465 -0.37820283 -0.17765574 -1.1017404 -1.4486998 0.3020577 0.6940427
-0.074966475 0.118894614 0.73392636 -0.22939987 -0.087845944 0.21712343 0.19144718 0.39301872
0.6561664 1.271172 -0.55272126 -0.2517334 -0.13236919 -0.3607466 0.4136463 -0.7603547
-0.35148278 -0.28696132 0.22580132 0.022189653 0.08815151 0.46085784 0.19209813 -0.23541483
0.13426632 0.046707198 -0.021829737 0.35726875 -0.2147187 -0.9067889 0.5156239 -0.2343852
-0.29305714 0.11277581 0.21153946 0.2886231 -0.74890167 -0.18998696 -0.4495549 -0.17452016
-0.22147971 0.7610213 -0.09316778 -0.109027326 -0.29021692 -0.030486733 0.50307804 -0.069501065
0.26839617 0.4463208 0.036901083 -0.030303957 -0.2883759 0.14336577 -1.0669403 0.6265273
0.3645028 -0.16325518 -0.502261 1.0305567 -0.10052523 0.01269665 -0.39673296 -1.0446715
0.51669717 -0.092438556 -0.34364533 -0.2753356 -0.31783542 0.14920598 0.35410574 0.72434413
-0.5157331 0.35068813 -0.18506676 0.2585531 0.53710806 0.120607935 0.58532023 -0.31195724
00000000: b74f e9bb d3c3 fa3f c9c1 94bd dd79 0cbe
00000010: d6cf b93e 7576 5f3e c340 80be 8d9f e3be
00000020: 9890 1b3e 41ca f4be f68c b33e 835e ee3e
00000030: 98c6 42be 9b9c d7be 9d37 3c3f 0e43 ba3e
00000040: 7956 39be faef b3bd ebf8 98bf 48c8 1dbe
00000050: ccf9 e53d 7143 c7be 1112 133e 28ff 4bbe
00000060: 20b8 a33e e306 213a d420 ab3e 7958 e5be
00000070: 2cb5 c5bf 2956 a7bd 706b 5abf 36cb 25bf
00000080: 3cd7 24be 6694 9f3e 2d03 47bf 6565 4c3f
00000090: 2832 5f3f f8b4 4bbf 0499 87bf d309 a73e
000000a0: 5c20 873f e51b d5be 2d92 41be 3765 b93e
000000b0: 5644 1bbe a06e 273e 09fc 4e3d 0621 263e
000000c0: 842c 11be 33a3 783e 4d6a 133f 6894 733e
000000d0: 3ca3 723d aa57 f4be 8af9 a63e 3e95 e8be
000000e0: 6f3e 63be 0cac 6abf 62be 9bbe 9782 c13e
000000f0: fa34 d83e 9e4f 77bf bbd8 a9be 4b09 0b3e
00000100: 1122 1a3e 1b52 6a3e a61d 813d 1f8e b5bb
00000110: 4e0f aa3d 3101 f3bc 72d3 13bf f46b 76bf
00000120: 15d4 643d 7132 7c3e 6b93 793e 599c 86bf
00000130: 67dc dfbe fe76 1ebf 32bf f9be 8915 6dbf
00000140: fac5 fcbe 2572 6e3e 71bd a63e 6e94 95bd
00000150: 01c0 8a3e e173 e83e 47cc 1cbf f0ed 843e
00000160: a252 523e 2bd2 413e 2297 fb3e 90a7 7abe
00000170: 7c0c b73e 16e8 d03e a335 543f 60b4 60be
00000180: 8f2b cd3d 3bb9 423e 6a0a 4ebf d889 173b
00000190: 6dba 5ebd be54 a33e c069 723f a9d0 133f
000001a0: 1b08 87be 7b3b 1ebf e8a3 bd3e 508f abbf
000001b0: c791 c9bd f954 9cbf cbc5 2abf 7297 90bf
000001c0: 7642 1b3f 73a9 58bf eb5a 0abe 816d b3be
000001d0: 8341 00bf 014d 50be 365f dbbe 3c36 4fbf
000001e0: a057 19bf a2cb 04be ce93 233e f213 833d
000001f0: d0c8 2ebf 9a93 dcbe 3389 f0bf 34e7 90bf
00000200: 2dc7 d3be 88d7 14bf 38a9 353f 0e7c 7c3f
00000210: 7ea1 d33e c058 63bf 508b b9be 1b2c 45bf
00000220: a170 eebe 108b 5a3e 3aa5 3f3e 3624 8e3d
00000230: 17f6 9dbc e4dc dbbd c342 843e b4b9 3f3e
00000240: 51ce e83e 4f13 3a3e da70 3abd a878 99be
00000250: 3000 b83e 43e5 85bf 9008 dfbe 04bc 98bf
00000260: f075 8b3e d2ea 893e f771 86bf 8bdd ecbe
00000270: 1d98 673e d38f 00bf 91f7 5abd 649a fd3d
00000280: cb3d 153f 5ffe 4e3f 7a31 49be fb09 003e
00000290: 52da c6be 2a6c 53bc 1edf 2fbe 1cff 8bbf
000002a0: ecff b03e 2ad4 2d3e cda3 c1be 63eb 35be
000002b0: d405 8dbf ff6e b9bf 4fa7 9a3e c8ac 313f
000002c0: 0688 99bd 057f f33d 99e2 3b3f cde7 6abe
000002d0: 93e8 b3bd 9b55 5e3e bb0a 443e c039 c93e
000002e0: 85fa 273f c4b5 a23f 247f 0dbf 33e3 80be
000002f0: ca8b 07be c7b3 b8be 73c9 d33e 9ba6 42bf
00000300: 8df5 b3be 98ec 92be 7638 673e 13c7 b53c
00000310: c788 b43d 8ff5 eb3e 5fb5 443e 9610 71be
00000320: 1c7d 093e 0c50 3f3d 47d4 b2bc eeeb b63e
00000330: 38df 5bbe 5123 68bf eeff 033f ad02 70be
00000340: 960b 96be 01f7 e63d cd9d 583e 68c6 933e
00000350: 05b8 3fbf f18b 42be 0f2c e6be 6ab5 32be
00000360: 94cb 62be 4bd2 423f c0ce bebd b849 dfbd
00000370: 5097 94be 50bf f9bc b9c9 003f 9356 8ebd
00000380: 396b 893e 2984 e43e 9725 173d 0140 f8bc
00000390: 02a6 93be 7ace 123e 8091 88bf 1864 203f
000003a0: 1ca0 ba3e 5e2c 27be 2d94 00bf 48e9 833f
000003b0: 2ce0 cdbd 9c05 503c 9520 cbbe ccb7 85bf
000003c0: 4446 043f 6d50 bdbd 48f2 afbe caf8 8cbe
000003d0: 53bb a2be 74c9 183e 594d b53e 9e6e 393f
000003e0: 1607 04bf 658d b33e 2482 3dbe 1261 843e
000003f0: ea7f 093f 4b01 f73d 8cd7 153f dcb8 9fbe

fc.0.bias f4 [10]
-0.10342923 0.13058212 -0.13883214 0.06705588 0.07741771 -0.11011136 -0.1301769 -0.045835685
0.2788359 -0.07313836
00000000: b4d2 d3bd 52b7 053e 032a 0ebe 9854 893d
00000010: 2d8d 9e3d 1182 e1bd 184d 05be 33be 3bbd
00000020: 94c3 8e3e 91c9 95bd
