log/epoch-35.pth (torch_old, 43962 bytes, 32 tensors)

conv1.0.weight f4 [2, 1, 3, 3]
0.33885983 0.2853205 0.41969487 0.53709537 1.0758375 0.58818704 1.0371405 0.796924
0.39229128 0.5193089 -0.7384447 -1.8261294 -0.3159803 -1.5008061 0.021909822 -0.90948594
-0.47096905 0.26826623
00000000: 097f ad3e 8715 923e 3fe2 d63e 157f 093f
00000010: 0bb5 893f 6d93 163f 05c1 843f 3603 4c3f
00000020: 67da c83e 6ef1 043f b60a 3dbf 9cbe e9bf
00000030: 2bc8 a1be 6a1a c0bf 3a7c b33c 12d4 68bf
00000040: db22 f1be 315a 893e

conv1.0.bias f4 [2]
0.92162865 0.529615
00000000: dbef 6b3f d994 073f

conv1.1.weight f4 [2]
1.2258873 1.1859374
00000000: e0e9 9c3f cccc 973f

conv1.1.bias f4 [2]
0.69220966 0.009746976
00000000: a734 313f c8b1 1f3c

conv1.1.running_mean f4 [2]
1.6465584 -0.1313478
00000000: 6dc2 d23f 0a80 06be

conv1.1.running_var f4 [2]
2.022213 1.8717942
00000000: f06b 0140 f496 ef3f

conv21.0.weight f4 [4, 2, 3, 3]
0.1716182 0.29807618 -0.053695843 1.0806248 -0.7367777 -0.43825313 0.74080104 -0.6029126
0.058556017 0.5568613 -0.16771227 -0.099608935 -0.76981884 1.3455104 -0.044251833 -0.9467809
0.3502477 -0.26959217 -0.19047363 0.50227386 -0.22124897 1.2504729 -0.34773827 -0.6098182
-0.43467703 -0.5015824 0.3986162 -0.03169715 -0.2296566 0.4195347 0.163643 1.1607493
0.8722515 0.0027189194 0.4920196 -0.37687054 -0.12868357 1.2399925 0.67840636 0.3026266
0.776045 -0.052761648 0.29168546 -0.16386546 -0.52880687 0.08184457 -0.11183144 -1.2473711
0.6039064 -0.43496946 -1.2040534 0.5249231 -0.8008013 -0.9329872 -0.27699557 -0.3348257
-0.4472855 0.61902285 1.1867348 0.44866812 -0.6146482 -0.84800756 0.27044606 0.088144965
0.13348822 0.026876338 0.11601152 -1.0873905 -0.36952105 0.095499225 -0.41809607 -0.5695875
00000000: aebc 2f3e 719d 983e 2cf0 5bbd ea51 8a3f
00000010: 779d 3cbf b762 e0be 23a5 3d3f 7b58 1abf
00000020: 6fd8 6f3d 768e 0e3f c4bc 2bbe c5ff cbbd
00000030: d912 45bf af39 ac3f 6941 35bd 3c60 72bf
00000040: ab53 b33e fc07 8abe 850b 43be 0595 003f
00000050: 178f 62be 7f0f a03f c00a b2be 0c1d 1cbf
00000060: fd8d debe b467 00bf 6c17 cc3e dfd4 01bd
00000070: 1a2b 6bbe 41cd d63e 0892 273e 6f93 943f
00000080: e04b 5f3f e62f 323b fee9 fb3e 2df5 c0be
00000090: a0c5 03be 13b8 9e3f 0aac 2d3f e0f1 9a3e
000000a0: e3aa 463f 991c 58bd cc57 953e 59cc 27be
000000b0: e35f 07bf 209e a73d e207 e5bd dba9 9fbf
000000c0: 9c99 1a3f 51b4 debe 6c1e 9abf 5c61 063f
000000d0: 5001 4dbf 40d8 6ebf 5dd2 8dbe 466e abbe
000000e0: 9b02 e5be 4878 1e3f ede6 973f d4b7 e53e
000000f0: 9659 1dbf 0617 59bf e877 8a3e 5985 b43d
00000100: 23b1 083e c42b dc3c 7397 ed3d 9d2f 8bbf
00000110: dd31 bdbe 1995 c33d b010 d6be 7dd0 11bf

conv21.0.bias f4 [4]
0.30248958 -0.26016048 0.75274086 1.0898423
00000000: eadf 9a3e c133 85be a0b3 403f f47f 8b3f

conv21.1.weight f4 [4]
1.2978317 1.3232527 1.181676 1.2680396
00000000: 591f a63f 5860 a93f 2941 973f 1f4f a23f

conv21.1.bias f4 [4]
-0.53644663 -0.00022978429 0.29141858 0.21560116
00000000: 9154 09bf 40f2 70b9 d134 953e 8dc6 5c3e

conv21.1.running_mean f4 [4]
0.8175282 0.7155393 1.465323 0.20318417
00000000: 8749 513f 952d 373f b48f bb3f 830f 503e

conv21.1.running_var f4 [4]
4.7594104 2.8699667 14.989301 2.0251272
00000000: 174d 9840 89ad 3740 2dd4 6f41 af9b 0140

conv22.0.weight f4 [4, 4, 3, 3]
-0.84189004 -1.257894 -0.919023 -0.4913533 -0.8577316 -0.4597662 0.17065836 -0.13104823
-0.90723133 0.65118706 0.45304224 -0.19149782 -0.35250747 0.43288434 0.3006587 -1.2767885
-0.10837091 -0.1230948 -0.5023509 -0.030560125 0.1400412 0.024872312 -0.42768326 -0.14987515
0.07075915 0.34676796 0.29081327 -0.31913015 -2.1643252 -1.6980996 -0.29691568 -0.18984047
0.7022893 0.28117108 0.06882289 0.45993826 -0.33942235 -0.73359203 0.3217132 -0.011025276
-0.47406754 -0.33377418 -0.52659315 -0.724466 -0.049300376 -0.6730091 -0.7377459 -0.9358906
0.12177839 -0.32797542 -0.9552748 0.9713346 0.16595754 0.050031073 1.0723158 1.2524356
0.13759907 -0.15032347 -0.034751516 -0.14000754 -0.47082615 -0.17977554 -0.048237577 -0.7613097
0.5709426 1.037781 0.13501413 0.29760686 0.761554 -0.13923109 -0.08930828 -0.15070981
-0.50103736 -0.30390152 0.6944395 -0.85580695 0.15204261 0.6753563 0.5236009 0.3059089
0.74723107 0.017155379 0.06338593 -0.44898242 0.4955073 0.5936394 -0.12628426 0.58813494
1.0906652 0.13708735 0.31116274 -0.058996554 -0.29330608 -0.10448643 0.6500784 0.9966348
0.47308394 1.17467 0.9924092 -0.043080214 -0.55131507 -0.52469844 -0.75952065 -0.26218525
-0.5320391 -0.3665868 0.08562032 -0.3569619 -0.2870313 -0.30750045 -0.44958213 -0.71434146
-0.6334588 -0.6250901 0.6934033 0.22807129 -0.4531703 0.9941315 -0.2703666 0.062148463
-1.2746923 -0.12854496 0.640515 0.47932583 -0.16990416 0.025007812 -0.09688526 -0.59465295
-0.11607032 0.61411786 0.26264483 -0.16639028 0.93576646 0.2396063 -0.40877682 0.12940556
0.13415085 0.381771 0.22494094 0.6160877 0.8730136 0.24796978 -0.75610185 -0.7956661
00000000: 1b86 57bf ac02 a1bf 1745 6bbf a992 fbbe
00000010: 4c94 5bbf 7a66 ebbe 11c1 2e3e 8231 06be
00000020: 5040 68bf 32b4 263f 27f5 e73e 0118 44be
00000030: dc7b b4be 04a3 dd3e f0ef 993e ce6d a3bf
00000040: 91f1 ddbd 2019 fcbd 129a 00bf 3a59 fabc
00000050: f666 0f3e 05c1 cb3c 4df9 dabe df78 19be
00000060: 2cea 903d 928b b13e 7ae5 943e 0765 a3be
00000070: 4e84 0ac0 545b d9bf 5505 98be 8a65 42be
00000080: 3bc9 333f a8f5 8f3e 04f3 8c3d 077d eb3e
00000090: c4c8 adbe b0cc 3bbf 98b7 a43e 5ca3 34bc
000000a0: fbb8 f2be 73e4 aabe cfce 06bf 9b76 39bf
000000b0: 31ef 49bd 534a 2cbf eadc 3cbf 8796 6fbf
000000c0: f366 f93d 65ec a7be e48c 74bf 62a9 783f
000000d0: c6f0 293e 62ed 4c3d a541 893f cf4f a03f
000000e0: c5e6 0c3e 65ee 19be 9b57 0ebd 235e 0fbe
000000f0: 2010 f1be 1417 38be c494 45bd 31e5 42bf
00000100: 4b29 123f 02d6 843f 2541 0a3e ed5f 983e
00000110: 34f5 423f 9892 0ebe 42e7 b6bd ac53 1abe
00000120: fc43 00bf fb98 9bbe c9c6 313f 2a16 5bbf
00000130: 0fb1 1b3e 27e4 2c3f b50a 063f 17a0 9c3e
00000140: 894a 3f3f 7089 8c3c 7cd0 813d 06e1 e5be
00000150: 22b3 fd3e c0f8 173f a950 01be 0390 163f
00000160: eb9a 8b3f a060 0c3e b950 9f3e 5fa6 71bd
00000170: 372c 96be fbfc d5bd 8a6b 263f 7523 7f3f
00000180: 0f38 f23e 965b 963f 880e 7e3f e174 30bd
00000190: fc22 0dbf a352 06bf f26f 42bf 253d 86be
000001a0: b733 08bf 44b1 bbbe b559 af3d b6c3 b6be
000001b0: c4f5 92be b370 9dbe a12f e6be 15df 36bf
000001c0: 5b2a 22bf e805 20bf e182 313f 858b 693e
000001d0: f005 e8be 677f 7e3f 7e6d 8abe 638f 7e3d
000001e0: 1e29 a3bf 4aa1 03be cbf8 233f 326a f53e
000001f0: 5bfb 2dbe 2fdd cc3c c76b c6bd 2d3b 18bf
00000200: 47b6 edbd d436 1d3f 6279 863e 3762 2abe
00000210: 648e 6f3f 5b5b 753e 324b d1be e482 043e
00000220: d75e 093e 7d77 c33e eb56 663e ecb7 1d3f
00000230: d27d 5f3f caeb 7d3e e48f 41bf c6b0 4bbf

conv22.0.bias f4 [4]
0.6784632 -0.014333174 0.1627092 0.04537079
00000000: c4af 2d3f b0d5 6abc 3e9d 263e b9d6 393d

conv22.1.weight f4 [4]
1.6972687 1.1921785 1.2049918 0.98160034
00000000: 1a40 d93f 4e99 983f 2c3d 9a3f 294a 7b3f

conv22.1.bias f4 [4]
-0.22952792 0.3098485 0.36157537 0.0028996156
00000000: 5e09 6bbe 76a4 9e3e 6820 b93e 7a07 3e3b

conv22.1.running_mean f4 [4]
-2.4744036 -0.022565112 2.3978271 0.35603115
00000000: a15c 1ec0 78da b8bc 0076 1940 b749 b63e

conv22.1.running_var f4 [4]
27.517317 10.65289 13.979195 7.514837
00000000: 7723 dc41 3d72 2a41 c8aa 5f41 8b79 f040

conv31.0.weight f4 [8, 4, 3, 3]
-0.22032881 -0.14558473 0.33989778 0.15295462 -0.15377583 0.592401 0.26935405 0.86134374
-0.11309888 0.20772274 0.19008243 -0.7215695 -0.3062547 0.6588593 1.7609342 0.19775587
-0.5602899 0.14510392 -0.11520339 0.9130049 -0.06692293 -0.1603654 0.30325848 -0.0741758
0.5701338 0.036120906 0.6506464 -0.6195423 -0.03947619 -0.42497003 0.17395063 -0.48123544
0.4039424 0.22590487 -0.36847115 -0.74766463 0.6846858 1.3468872 0.31614318 -0.16084452
-0.48837978 0.05679588 0.27555975 1.6718045 1.624848 -0.15956074 -0.038468234 0.18521832
0.3346503 0.5222109 0.19560923 -0.04285436 -0.0009954381 -0.31313366 -0.7349938 -0.9314296
0.044339735 0.7575539 -0.21655235 -0.24269114 0.46895865 -0.68001443 -0.4696474 0.16453838
-0.23944424 0.10870734 0.75042844 0.2088543 0.22471954 0.7262224 0.15606163 0.022853892
0.09610194 -0.2976659 -0.22720645 0.70972514 0.75889224 -0.91198856 0.9138598 -0.4723478
-0.96117204 0.1430512 0.70048225 -0.3775239 0.15728891 -0.92953444 0.37260053 -0.9633024
-0.05753892 0.55643135 -0.41827404 -0.9363594 -0.057610407 -0.22843762 1.5235689 -0.34471545
-0.6252932 0.17229554 0.18674466 0.54299235 -0.28629088 -0.6304057 -0.06811495 -0.22522224
0.41078496 0.50963634 0.09858747 -0.68668216 -0.3014498 0.17344926 -0.117589846 -0.46200576
-1.0601155 0.53436494 -0.11794446 -1.0284436 -0.447207 -0.09563574 -1.1901528 0.59056336
0.97465235 0.65114397 0.1383613 -0.16057315 0.76065624 0.5883826 -0.17090242 -0.54308397
-0.3409207 0.7028802 0.37252158 -0.94260067 -0.33262002 -0.8269876 -0.47828826 -0.023753088
0.6188945 0.56923115 0.5626389 -0.41376907 -0.35104814 -0.98992056 0.041511018 -0.38646796
0.28801355 -0.32716063 0.10142845 0.48071057 -0.2271789 -0.087427735 -0.042483557 0.21655056
1.1562688 -1.0584464 0.8565292 -0.5039052 -0.09085825 -0.47304562 -0.83551234 0.102061376
-1.4833059 -0.028802466 -0.09054799 -0.2857141 0.44628075 0.34014928 -0.4239026 0.44479978
0.20227776 -1.0793419 -0.06159954 -0.7911029 -0.37946665 0.31230792 1.2127023 0.25964516
-0.16123581 -0.47191495 0.044673096 0.30240154 0.098330215 -0.65362763 1.0862577 -0.35866722
-0.28784212 -0.29534736 0.08422011 -0.58914727 -0.98406214 -0.16925675 -0.5342328 -0.4302911
0.03884409 -0.3772759 -0.11703814 0.30453187 0.5696236 -0.37933683 -0.23440267 1.070642
0.107523955 -0.2896937 0.30140617 -0.03708784 -0.4863604 0.44557253 0.017563755 -0.021487795
-1.9063911 -0.11703124 -0.74775475 -1.0835419 0.60804063 0.1004407 -0.5144945 -0.22702251
-0.15788016 -0.3581252 -0.9193318 -0.10986285 0.6361105 -0.24337417 -0.6369925 0.084077284
0.5468794 -0.6309089 0.115459666 -0.7354257 -0.38799357 -0.07770857 0.65578306 0.15980427
0.2653773 0.29990524 -0.5619162 -0.07971296 0.34928644 1.3884158 1.2113223 -0.71217996
-0.3128879 -0.5658176 0.14059865 0.198748 -0.863679 -0.3432418 -0.16924267 0.18969221
-0.23499975 0.15808195 0.35731137 0.80289763 0.16522735 0.51856893 1.0819849 0.49459952
00000000: e09d 61be 2a14 15be 1507 ae3e 23a0 1c3e
00000010: 6977 1dbe 98a7 173f c6e8 893e 0681 5c3f
00000020: 63a0 e7bd 45b5 543e f8a4 423e c7b8 38bf
00000030: 6bcd 9cbe 01ab 283f 4b66 e13f 8480 4a3e
00000040: 296f 0fbf 1f96 143e c1ef ebbd b0ba 693f
00000050: e40e 89bd d436 24be b244 9b3e 7be9 97bd
00000060: 4af4 113f 84f3 133d c390 263f 539a 1ebf
00000070: c9b1 21bd ac95 d9be 1d20 323e 7e64 f6be
00000080: 8ad1 ce3e 9b53 673e 40a8 bcbe f366 3fbf
00000090: 9247 2f3f cd66 ac3f 85dd a13e 6db4 24be
000000a0: ea0c fabe cca2 683d 2b16 8d3e b1fd d53f
000000b0: 05fb cf3f e463 23be de90 1dbd dfa9 3d3e
000000c0: 4957 ab3e 9daf 053f c94d 483e 0e88 2fbd
000000d0: 5c79 82ba 0e53 a0be 8e28 3cbf 2c72 6ebf
000000e0: 959d 353d 0def 413f e6bf 5dbe 0784 78be
000000f0: 591b f03e 6d15 2ebf a075 f0be c07c 283e
00000100: df30 75be f4a1 de3d 141c 403f e7dd 553e
00000110: e11c 663e b6e9 393f 9fce 1f3e 1638 bb3c
00000120: 18d1 c43d aa67 98be cfa8 68be 8cb0 353f
00000130: c346 423f 1578 69bf b7f2 693f 92d7 f1be
00000140: 5f0f 76bf 047c 123e ce52 333f d04a c1be
00000150: 5810 213e f8f5 6dbf 7fc5 be3e fc9a 76bf
00000160: eead 6bbd 4972 0e3f 0428 d6be 40b5 6fbf
00000170: e4f8 6bbd 8deb 69be 4e04 c33f 8b7e b0be
00000180: 3713 20bf 3e6e 303e fe39 3f3e 8c01 0b3f
00000190: b894 92be 4562 21bf da7f 8bbd a9a0 66be
000001a0: 6852 d23e 8777 023f 3ae8 c93d 67ca 2fbf
000001b0: a157 9abe af9c 313e f2d2 f0bd 058c ecbe
000001c0: ddb1 87bf 24cc 083f dd8c f1bd 0aa4 83bf
000001d0: 51f8 e4be acdc c3bd ed56 98bf 292f 173f
000001e0: d182 793f 5fb1 263f 96ae 0d3e 4a6d 24be
000001f0: 5eba 423f 3ea0 163f 0b01 2fbe 8d07 0bbf
00000200: 288d aebe f5ef 333f 26bb be3e 474e 71bf
00000210: 2c4d aabe 76b5 53bf 33e2 f4be d695 c2bc
00000220: df6f 1e3f 22b9 113f 1a09 103f 8ad9 d3be
00000230: 95bc b3be 6f6b 7dbf 7507 2a3d 21df c5be
00000240: 8376 933e 9981 a7be b8b9 cf3d b21f f63e
00000250: 96a1 68be 500d b3bd 3d03 2ebd 6ebf 5d3e
00000260: 9e00 943f 2c7b 87bf 7f45 5b3f eeff 00bf
00000270: e413 babd 0933 f2be 23e4 55bf 8e05 d13d
00000280: f8dc bdbf 26f3 ebbc 3971 b9bd 1e49 92be
00000290: e97e e43e 0c28 ae3e c309 d9be ccbc e33e
000002a0: e721 4f3e e027 8abf cd4f 7cbd b885 4abf
000002b0: 7449 c2be d3e6 9f3e d439 9b3f 36f0 843e
000002c0: 001b 25be d69e f1be 23fb 363d 60d4 9a3e
000002d0: 5a61 c93d 2454 27bf 7e0a 8b3f 3ba3 b7be
000002e0: 0b60 93be c537 97be 987b ac3d 5bd2 16bf
000002f0: 7feb 7bbf a451 2dbe 7bc3 08bf 1d4f dcbe
00000300: fb1a 1f3d 4f2a c1be b1b1 efbd 9aeb 9b3e
00000310: dad2 113f 7038 c2be 4107 70be cc0a 893f
00000320: 8535 dc3d bc52 94be e951 9a3e 6be9 17bd
00000330: 3b04 f9be 1522 e43e dde1 8f3c 2c07 b0bc
00000340: a004 f4bf 13ae efbd db6c 3fbf 80b1 8abf
00000350: 8da8 1b3f dbb3 cd3d e9b5 03bf 9778 68be
00000360: 56ab 21be 305c b7be 5459 6bbf c6ff e0bd
00000370: 23d8 223f 1437 79be f111 23bf b630 ac3d
00000380: 4a00 0c3f 3f83 21bf 1e76 ec3d dc44 3cbf
00000390: 18a7 c6be ac25 9fbd 66e1 273f bba3 233e
000003a0: 89df 873e 2e8d 993e bdd9 0fbf 8c40 a3bd
000003b0: acd5 b23e 9cb7 b13f 9c0c 9b3f 6d51 36bf
000003c0: d832 a0be 6cd9 10bf 18f9 0f3e 9984 4b3e
000003d0: 111a 5dbf 64bd afbe f34d 2dbe ad3e 423e
000003e0: c6a3 70be 3ce0 213e 84f1 b63e b38a 4d3f
000003f0: 5c31 293e efc0 043f 7b7e 8a3f 263c fd3e

conv31.0.bias f4 [8]
0.4184571 -0.1523737 -0.3853097 -0.032931138 -0.18543781 0.04821741 -0.34593415 0.06573417
00000000: 0240 d63e da07 1cbe 5047 c5be cde2 06bd
00000010: 69e3 3dbe 9e7f 453d 481e b1be a39f 863d

conv31.1.weight f4 [8]
1.0138913 1.109057 1.3146635 1.3906833 1.3601246 1.2980132 1.4166136 1.6151528
00000000: 31c7 813f 94f5 8d3f e546 a83f e901 b23f
00000010: 9018 ae3f 4c25 a63f 9853 b53f 54bd ce3f

conv31.1.bias f4 [8]
0.15075982 -0.01912637 0.013071936 -0.005227765 -0.2809979 -0.044810794 0.12772848 -0.25616324
00000000: c860 1a3e e8ae 9cbc ac2b 563c ac4d abbb
00000010: f5de 8fbe 868b 37bd 41cb 023e d427 83be

conv31.1.running_mean f4 [8]
3.6781082 3.1196141 -1.5539361 -2.44063 -2.7596536 -3.800607 -0.30383465 -3.555526
00000000: 2066 6b40 c2a7 4740 61e7 c6bf 4833 1cc0
00000010: 2a9e 30c0 253d 73c0 3790 9bbe bd8d 63c0

conv31.1.running_var f4 [8]
8.565938 12.769849 8.326934 15.143162 12.293363 12.515566 10.800412 23.713955
00000000: 150e 0941 4d51 4c41 1f3b 0541 644a 7241
00000010: 9db1 4441 c23f 4841 7dce 2c41 2eb6 bd41

conv32.0.weight f4 [16, 8, 3, 3]
0.27879936 0.7272234 -0.019349672 -0.16939747 -0.8562041 0.6558017 -0.25226566 -0.39467806
-0.2899437 -0.3349135 -1.0429189 0.07887451 0.9274428 -0.10863568 -0.43008283 1.1298692
0.19172867 -0.21284074 -0.87723696 0.29745105 0.3326531 0.14346288 -0.018488178 0.9524032
0.260032 0.3007357 -1.6636928 0.3539221 0.02776765 -0.1493075 0.12465198 -0.11256671
0.019613339 -0.04406598 -0.076990515 -0.19067244 -0.73130834 0.22281726 0.53197414 0.008030011
-0.5571912 -0.254184 0.24631877 -0.3336431 -1.1921206 -0.37734255 -0.22187832 -0.28416327
-0.364342 -1.1218908 -0.122427925 1.1988453 0.7805316 -0.22334453 -0.7392536 -0.30080956
0.3767351 -0.16781871 -0.10392471 0.53776896 -0.18677853 0.18633781 -1.2691606 0.06499402
0.40810117 -0.024133403 -0.7180828 -0.5761857 -0.44875872 -0.39626667 -0.03342795 -0.4364124
0.14576498 1.2471797 0.40206528 -0.48322126 0.18105796 0.49083614 -0.81485164 -0.45643768
-0.23611413 0.14935783 -0.7020268 -0.19140415 0.033014625 0.4266347 0.05999191 0.008202434
0.6591989 0.3788207 0.022937851 0.094450265 -1.238353 -0.58072156 0.18327929 0.8270782
0.32117167 -0.35461813 -0.21145438 -0.007375624 -0.4536031 0.11268098 -0.72469056 0.9355693
-1.0322323 -0.9948727 -0.10832657 -0.2751167 0.4856272 0.18583183 -0.977633 0.2238185
0.6619263 -0.6058226 0.6264433 0.30556294 0.30162814 0.69737405 -0.71312076 0.27731118
-0.80417806 -0.7755787 -0.44385707 0.27687427 0.017740522 -0.5176771 -0.771856 0.21535227
0.3391345 0.19155824 0.11623118 0.147556 0.04118931 0.12319436 0.05585167 0.97723055
0.05260639 -0.5445338 -0.86373556 0.14330682 -0.45748407 0.32768297 0.08527799 -0.18927957
-0.4621809 0.2874796 0.44195253 -0.1140787 0.72039783 -0.12549628 -0.7690024 -0.59515464
-0.6035966 -0.14993668 -0.022634422 1.47101 0.58723754 0.20062985 -0.5606618 -0.10580335
-1.0874101 -0.34668505 -0.1025654 -0.30927706 0.48326784 -0.5583218 -0.93926334 -0.7534693
-0.28419116 0.231255 0.58683705 -0.5045389 -0.35652092 0.2353216 0.13596196 0.40432203
-0.45105422 -0.5465321 -0.9919203 -0.49211276 -0.90543145 0.016991537 -0.76394445 0.18610096
0.5930869 -0.61802334 0.533957 0.18077114 0.4764297 0.39229643 0.13023663 1.0387458
-0.34424147 -0.65500236 -0.86437297 -0.0018037285 -0.2713187 -0.13891427 0.36578155 0.29343605
0.58137465 0.13509421 0.71420044 -0.70392644 -1.2481189 -0.44726184 0.48952994 -0.20785539
-0.5107239 0.20193431 0.057236608 0.047854252 -0.46530366 -0.732764 0.4824555 -0.09139178
-0.7468272 -0.947216 0.12782545 0.19800588 0.30302468 0.16335964 0.01390807 -1.0041487
-0.25216156 0.089671575 0.16227359 -0.69860923 -0.5628213 -0.61450726 0.02215546 -0.64435273
-1.2587227 0.82270163 0.44570988 -0.10562104 -0.2830214 1.0573372 0.056007937 -0.17050032
-0.5001476 0.002884366 -0.78202844 0.3326415 0.5233522 -1.3317099 -0.3616122 -0.021515729
-0.56399614 -0.19950534 -0.51058555 0.07490511 -0.14760897 -0.36382273 -0.14809291 0.71644413
00000000: cabe 8e3e 502b 3a3f 3483 9ebc 8876 2dbe
00000010: 3130 5bbf 9fe2 273f f728 81be 3e13 cabe
00000020: 8073 94be c879 abbe 5e7e 85bf f688 a13d
00000030: e46c 6d3f 627c debd d133 dcbe 8e9f 903f
00000040: 8554 443e ecf2 59be 9a92 60bf 814b 983e
00000050: 8251 aa3e efe7 123e 8574 97bc b2d0 733f
00000060: ea22 853e 08fa 993e e3f3 d4bf 4735 b53e
00000070: fc78 e33c 11e4 18be 8a49 ff3d 6089 e6bd
00000080: 27ac a03c 877e 34bd 34ad 9dbd a33f 43be
00000090: 0637 3bbf 352a 643e 752f 083f 4f90 033c
000000a0: 15a4 0ebf 6824 82be fd3a 7c3e 45d3 aabe
000000b0: 6897 98bf 0b33 c1be 1234 63be d97d 91be
000000c0: 098b babe 1e9a 8fbf 7ebb fabd c373 993f
000000d0: ebd0 473f 6eb4 64be b93f 3dbf b603 9abe
000000e0: 6ce3 c03e abd8 2bbe 7ad6 d4bd 3aab 093f
000000f0: df42 3fbe 57cf 3e3e db73 a2bf 961b 853d
00000100: a3f2 d03e 6ab3 c5bc 46d4 37bf e880 13bf
00000110: b4c3 e5be 77e3 cabe bfeb 08bd 7271 dfbe
00000120: 6a43 153e 96a3 9f3f 80db cd3e c768 f7be
00000130: 4267 393e e04e fb3e 1e9a 50bf 33b2 e9be
00000140: e7c7 71be 42f1 183e 07b8 33bf 73ff 43be
00000150: 583a 073d dd6f da3e 14ba 753d 8063 063c
00000160: 42c1 283f c9f4 c13e 29e8 bb3c 246f c13d
00000170: 5a82 9ebf 2baa 14bf 91ad 3b3e 66bb 533f
00000180: 9d70 a43e 8290 b5be 7f87 58be 38af f1bb
00000190: aa3e e8be 49c5 e63d 5285 39bf 7881 6f3f
000001a0: 3020 84bf faaf 7ebf 52da ddbd 19dc 8cbe
000001b0: 21a4 f83e b34a 3e3e 2846 7abf ad30 653e
000001c0: 0174 293f 3117 1bbf 975e 203f bf72 9c3e
000001d0: 016f 9a3e 1b87 323f 158f 36bf bbfb 8d3e
000001e0: 9dde 4dbf 538c 46bf 3c41 e3be 77c2 8d3e
000001f0: 9254 913c 7d86 04bf 5b98 45bf 4e85 5c3e
00000200: 0aa3 ad3e d827 443e 9d0a ee3d ec18 173e
00000210: 1fb6 283d 534d fc3d b9c4 643d c82b 7a3f
00000220: cc79 573d 9166 0bbf c61d 5dbf 06bf 123e
00000230: 5a3b eabe 10c6 a73e 3aa6 ae3d 81d2 41be
00000240: faa2 ecbe 8730 933e 9a47 e23e 18a2 e9bd
00000250: fe6b 383f 1982 00be 57dd 44bf 0e5c 18bf
00000260: 4f85 1abf 0089 19be d36b b9bc 0e4a bc3f
00000270: 3355 163f e971 4d3e 8887 0fbf 6daf d8bd
00000280: 4130 8bbf b480 b1be cf0d d2bd 9059 9ebe
00000290: e26e f73e 2dee 0ebf 9073 70bf 5de3 40bf
000002a0: 8181 91be 1cce 6c3e f43a 163f 7629 01bf
000002b0: e989 b6be 25f8 703e 9d39 0b3e 4c03 cf3e
000002c0: 94f0 e6be 87e9 0bbf 7dee 7dbf 34f6 fbbe
000002d0: 5bca 67bf d631 8b3c dd91 43bf 4091 3e3e
000002e0: 8bd4 173f c736 1ebf 68b1 083f 121c 393e
000002f0: 98ee f33e 14db c83e c05c 053e 9ff5 843f
00000300: 6b40 b0be 3cae 27bf 8c47 5dbf 166b ecba
00000310: 49ea 8abe 8b3f 0ebe b847 bb3e 403d 963e
00000320: f8d4 143f 2356 0a3e d7d5 363f 8634 34bf
00000330: 5cc2 9fbf 81ff e4be aba3 fa3e 0bd8 54be
00000340: cdbe 02bf dec7 4e3e ef70 6a3d d202 443d
00000350: 483c eebe 6c96 3bbf 6804 f73e 9d2b bbbd
00000360: 1130 3fbf bf7c 72bf ade4 023e 0ec2 4a3e
00000370: 0d26 9b3e c047 273e acde 633c f287 80bf
00000380: 521b 81be bba5 b73d 0c2b 263e 0ed8 32bf
00000390: 0f15 10bf 5950 1dbf 5e7f b53c 4df4 24bf
000003a0: d31d a1bf 939c 523f 1634 e43e d84f d8bd
000003b0: 2ee8 90be d356 873f 9468 653d a397 2ebe
000003c0: ac09 00bf a207 3d3b 0433 48bf fd4f aa3e
000003d0: 69fa 053f 7875 aabf 3c25 b9be c141 b0bc
000003e0: 0d62 10bf 214b 4cbe bcb5 02bf da67 993d
000003f0: ce26 17be f946 babe aba5 17be e268 373f

conv32.0.bias f4 [16]
0.23264903 -0.16838804 0.20762259 -0.2974038 -0.11647955 0.20716172 0.20703478 -0.037478764
-0.17014524 -0.045739718 -0.084458746 0.121787086 0.18187332 0.0866911 -0.007977731 0.10343065
00000000: 8c3b 6e3e ea6d 2cbe 049b 543e 5045 98be
00000010: d58c eebd 3422 543e ed00 543e 5583 19bd
00000020: 8e3a 2ebe 9259 3bbd b5f8 acbd 826b f93d
00000030: 003d 3a3e 1a8b b13d 07b5 02bc 73d3 d33d

conv32.1.weight f4 [16]
1.189592 1.3297303 1.3754224 1.7127527 1.2682283 1.3364326 1.4102446 1.5330105
1.3632066 1.3155891 1.4405072 1.3295158 1.3798018 1.3432382 1.3252126 1.4212878
00000000: 8d44 983f 9a34 aa3f d70d b03f 7b3b db3f
00000010: 4e55 a23f 3910 ab3f e582 b43f b039 c43f
00000020: 8e7d ae3f 3965 a83f 8a62 b83f 932d aa3f
00000030: 589d b03f 3bef ab3f 91a0 a93f c2ec b53f

conv32.1.bias f4 [16]
-0.63733876 -0.5482162 -0.5708654 -1.0584943 -0.60785806 -0.6145854 -0.56286275 -0.8034688
-0.6111067 -0.5616709 -0.83974606 -0.6621652 -0.82871306 -0.77879024 -0.83503646 -0.87174517
00000000: a228 23bf e657 0cbf 3c24 12bf be7c 87bf
00000010: 969c 1bbf 7855 1dbf c617 10bf 22b0 4dbf
00000020: 7d71 1cbf aac9 0fbf 99f9 56bf a983 29bf
00000030: 8a26 54bf cc5e 47bf f3c4 55bf b12a 5fbf

conv32.1.running_mean f4 [16]
-2.5037014 -1.581952 -2.79167 -2.004136 -2.3269153 2.1642876 -1.2916276 -2.608854
-1.8404636 -4.9924874 -4.296327 1.7658067 -5.8000817 -1.9104478 1.8842674 -2.1368463
00000000: a53c 20c0 677d cabf b9aa 32c0 c443 00c0
00000010: 2eec 14c0 b083 0a40 0e54 a5bf 77f7 26c0
00000020: 5094 ebbf 75c2 9fc0 837b 89c0 f405 e23f
00000030: 459a b9c0 8e89 f4bf ad2f f13f 17c2 08c0

conv32.1.running_var f4 [16]
7.890127 10.253946 15.626607 12.37489 10.596405 13.711778 12.854907 12.326265
13.080919 9.235464 9.818062 11.284328 11.480036 12.18309 9.382345 12.982916
00000000: ec7b fc40 2a10 2441 9506 7a41 8dff 4541
00000010: e08a 2941 7163 5b41 b3ad 4d41 6238 4541
00000020: 724b 5141 76c4 1341 c816 1d41 9c8c 3441
00000030: 3aae 3741 f0ed 4241 161e 1641 06ba 4f41

fc.0.weight f4 [10, 784]
-0.013416048 1.7912645 -0.052692622 -0.014721709 0.42183697 0.24861082 -0.25039765 -0.3412557
0.21667938 -0.43088114 0.3816962 0.4713002 -0.16659905 -0.436315 0.83357936 0.41079223
-0.18141901 -0.22554329 -1.1520542 -0.16246144 0.24929947 -0.47329333 0.115654275 -0.17037764
0.2946402 0.0033915814 0.2841696 -0.4112599 -1.4288248 -0.21253079 -0.8832049 -0.5662343
-0.124292105 0.28098464 -0.8376782 0.745454 0.8189482 -0.70923185 -1.0366415 0.21628189
0.90203506 -0.44561082 -0.21616918 0.2664565 -0.18121162 0.14976418 0.076848164 0.15504183
0.032729328 0.13010046 0.46695814 0.089123785 0.13258511 -0.5309388 0.3088776 -0.38385695
-0.2192642 -0.9642851 -0.3789522 0.26657164 0.3893423 -1.0063418 -0.3888329 0.22633767
0.14356875 0.1495786 0.104858756 0.034875695 0.14149894 -0.08080885 -0.44709206 -0.9433803
0.14997998 0.32346907 0.27576935 -0.8475767 -0.48842326 -0.6448979 -0.35217774 -0.92828447
-0.49439058 0.19763102 0.26306403 -0.10016897 0.22565655 0.43172488 -0.690535 0.37913322
0.15209286 0.14775382 0.48263168 -0.26349556 0.3189696 0.32484752 0.607105 -0.12312125
0.040179584 0.023669042 -0.86290574 0.0056304378 -0.112822376 0.27922922 0.9896812 0.509666
-0.23326649 -0.59520644 0.2612498 -1.392277 -0.09967233 -1.1422238 -0.6829606 -1.1701136
0.5352466 -0.91012603 -0.050475713 -0.3541993 -0.44350144 -0.10762185 -0.4726307 -0.7297354
-0.49460894 -0.077743255 0.18385635 -0.031808347 -0.69367397 -0.37312695 -1.8803328 -1.147262
-0.47112444 -0.5831425 0.701499 0.89533556 0.35108995 -0.91897357 -0.36750335 -0.68307734
-0.35297114 0.19447336 0.1747744 0.08854908 -0.017111015 -0.112997405 0.24811785 0.07464878
0.36743444 0.20144448 0.026446978 -0.35513487 0.2371343 -1.0372887 -0.440664 -1.089135
0.21264805 0.23884718 -1.0665296 -0.39811867 0.17572106 -0.53233856 -0.05410248 0.07330116
0.57822204 0.7166496 -0.15392868 0.1033839 -0.32775748 0.03212532 -0.14124149 -1.1236076
0.39967287 0.23431875 -0.26199883 -0.18677704 -0.94750935 -1.3070652 0.2994779 0.6438092
0.04457441 0.097142406 0.69775426 -0.24480642 -0.15088911 0.23591582 0.27968115 0.3162273
0.55837053 1.2946234 -0.5100905 -0.23489356 -0.22991583 -0.5180615 0.22141822 -0.8274029
-0.39488667 -0.30964714 0.20618373 0.104135744 0.13121814 0.504314 0.14528446 -0.13293685
0.05355024 0.030038645 -0.12970984 0.33555478 -0.3050676 -0.81092495 0.49601007 -0.23226433
-0.3557141 0.14430435 0.13933095 0.3323074 -0.6577231 -0.18565391 -0.51516956 -0.07332386
-0.1358862 0.714292 -0.09144044 -0.17550391 -0.31354445 0.10346172 0.48803288 -0.1008666
0.3784946 0.4477633 0.10762311 0.1599023 -0.34973243 0.10742379 -1.0196179 0.5333639
0.20708856 -0.15681437 -0.5815044 0.92821735 -0.04716262 0.109336846 -0.41631994 -0.9481305
0.47943795 -0.1238424 -0.33264798 -0.3067334 -0.4012522 0.11937231 0.31354263 0.60377574
-0.42089048 0.29669985 -0.16071859 0.25801826 0.5186616 0.08186443 0.63934475 -0.34224057
00000000: fcce 5bbc 2848 e53f 38d4 57bd 5333 71bc
00000010: 04fb d73e d693 7e3e 1f34 80be 11b9 aebe
00000020: 33e1 5d3e 749c dcbe af6d c33e 434e f13e
00000030: f198 2abe ae64 dfbe 7565 553f 5c53 d23e
00000040: e8c5 39be d2f4 66be 8376 93bf 4b5c 26be
00000050: 5c48 7f3e 8153 f2be 26dc ec3d 7a77 2ebe
00000060: 15db 963e 4b45 5e3b ae7e 913e a890 d2be
00000070: bbe3 b6bf aca1 59be b719 62bf bbf4 10bf
00000080: dc8c febd 38dd 8f3e 1472 56bf 13d6 3e3f
00000090: 97a6 513f 3890 35bf abb0 84bf 0079 5d3e
000000a0: c5eb 663f 1a27 e4be 745b 5dbe fd6c 883e
000000b0: 8a8f 39be c85b 193e 9262 9d3d 49c3 1e3e
000000c0: 300f 063d 0e39 053e 2315 ef3e 8886 b63d
000000d0: 64c4 073e 9beb 07bf 3425 9e3e e688 c4be
000000e0: cb86 60be 63db 76bf 0606 c2be 147c 883e
000000f0: e057 c73e cfcf 80bf 1b15 c7be 10c5 673e
00000100: b003 133e 222b 193e 30c0 d63d d1d9 0e3d
00000110: 19e5 103e 1c7f a5bd 40e9 e4be 5f81 71bf
00000120: 5a94 193e bd9d a53e a431 8d3e c9fa 58bf
00000130: 9d12 fabe 0718 25bf a450 b4be 0da4 6dbf
00000140: c320 fdbe c95f 4a3e 54b0 863e 6425 cdbd
00000150: 8312 673e 0b0b dd3e e7c6 30bf c01d c23e
00000160: 3bbe 1b3e c74c 173e 801b f73e e4e8 86be
00000170: fc4f a33e 6a52 a63e 3c6b 1b3f fe26 fcbd
00000180: 5993 243d 94e5 c13c 64e7 5cbf 897f b83b
00000190: 6b0f e7bd 22f7 8e3e bf5b 7d3f 7979 023f
000001a0: 69dd 6ebe 735f 18bf 89c2 853e 2236 b2bf
000001b0: 0221 ccbd 6434 92bf 82d6 2ebf 48c6 95bf
000001c0: ec05 093f 05fe 68bf 9fbf 4ebd 9c59 b5be
000001d0: 9f12 e3be d868 dcbd a7fc f1be f0cf 3abf
000001e0: 623d fdbe db37 9fbd d744 3c3e 7849 02bd
000001f0: 9e94 31bf 7f0a bfbe bfae f0bf 7bd9 92bf
00000200: 3937 f1be d448 15bf 7095 333f b634 653f
00000210: 10c2 b33e da41 6bbf 6629 bcbe 28de 2ebf
00000220: a2b8 b4be 0624 473e 0ff8 323e 3859 b53d
00000230: 662c 8cbc 2f6b e7bd 9b12 7e3e 76e1 983d
00000240: 5e20 bc3e 7647 4e3e 55a7 d83c 3dd4 b5be
00000250: 55d3 723e e0c5 84bf b69e e1be c768 8bbf
00000260: 69c0 593e 5b94 743e 0b84 88bf 36d6 cbbe
00000270: 39f0 333e 5747 08bf 909a 5dbd eb1e 963d
00000280: 5c06 143f 5976 373f 7b9f 1dbe f0ba d33d
00000290: d4cf a7be d795 033d 9ca1 10be 60d2 8fbf
000002a0: eca1 cc3e 41f1 6f3e b624 86be 7b42 3fbe
000002b0: f98f 72bf ea4d a7bf 2b55 993e aed0 243f
000002c0: a893 363d 99f2 c63d 06a0 323f 89ae 7abe
000002d0: ad82 1abe eb93 713e 5e32 8f3e 8be8 a13e
000002e0: 5ff1 0e3f 38b6 a53f 4a95 02bf f087 70be
000002f0: 0e6f 6bbe ae9f 04bf 75bb 623e add0 53bf
00000300: 962e cabe 128a 9ebe d421 533e 1f45 d53d
00000310: 0c5e 063e b91a 013f 73c5 143e 9920 08be
00000320: 7f57 5b3d 9b13 f63c a8d2 04be d6cd ab3e
00000330: d231 9cbe c798 4fbf 08f5 fd3e b3d6 6dbe
00000340: 2920 b6be 85c4 133e c6ac 0e3e 3224 aa3e
00000350: 8b60 28bf 0f1c 3ebe 27e2 03bf d22a 96bd
00000360: c125 0bbe d7db 363f 2045 bbbd 4cb7 33be
00000370: e688 a0be bde3 d33d 72df f93e 2693 cebd
00000380: 0bca c13e 3b41 e53e 8169 dc3d 6ebd 233e
00000390: 2110 b3be 0101 dc3d d782 82bf 898a 083f
000003a0: 060f 543e f293 20be 79dd 14bf a79f 6d3f
000003b0: 972d 41bd ffeb df3d e327 d5be aeb8 72bf
000003c0: e478 f53e 16a1 fdbd d650 aabe 290c 9dbe
000003d0: ee70 cdbe 7879 f43d a988 a03e 0c91 1a3f
000003e0: f57e d7be 0be9 973e 6a93 24be f81a 843e
000003f0: 02c7 043f 8aa8 a73d 19ac 233f 283a afbe

fc.0.bias f4 [10]
-0.11651327 0.1302927 -0.1021402 0.04356407 0.06149495 -0.087796025 -0.11766203 -0.061135564
0.26258004 -0.059763018
00000000: 829e eebd 736b 053e e22e d1bd 3d70 323d
00000010: 21e2 7b3d 67ce b3bd caf8 f0bd 4969 7abd
00000020: e470 863e 11ca 74bd
