log/epoch-10.pth (torch_old, 43962 bytes, 32 tensors)

conv1.0.weight f4 [2, 1, 3, 3]
0	0x3e80131f	0.25014588
1	0x3e0a963f	0.13533877
2	0x3ea6e111	0.32593587
3	0x3e971048	0.2950461
4	0x3f39b3f9	0.7254024
5	0x3eea1a53	0.4572321
6	0x3f65d835	0.8978303
7	0x3f3ddf9b	0.7416932
8	0x3ec16d89	0.3777888
9	0x3ebba2a4	0.36647522
10	0xbf2dbde5	-0.6786788
11	0xbfc36680	-1.5265656
12	0xbeac33f0	-0.33633375
13	0xbf7be926	-0.9840263
14	0xbe4783f0	-0.19483924
15	0xbf1b880f	-0.60754484
16	0xbe80800a	-0.25097686
17	0x3e8098ae	0.25116485

conv1.0.bias f4 [2]
0	0x3dccb27e	0.09994982
1	0x3f224e12	0.63400376

conv1.1.weight f4 [2]
0	0x3f908dfe	1.1293333
1	0x3f7a68d7	0.9781622

conv1.1.bias f4 [2]
0	0x3f2338ed	0.63758737
1	0x3dbf6cec	0.09346947

conv1.1.running_mean f4 [2]
0	0x3f29d434	0.6633942
1	0x3dd39383	0.1033087

conv1.1.running_var f4 [2]
0	0x3f9e8271	1.2383558
1	0x3f9f6deb	1.2455419

conv21.0.weight f4 [4, 2, 3, 3]
0	0x3e38da82	0.18052104
1	0x3e8e49b5	0.2779061
2	0xbd3090ee	-0.043106966
3	0x3f4adf79	0.7924724
4	0xbf02cbe6	-0.51092374
5	0xbebe5d17	-0.37180397
6	0x3f186c6d	0.59540445
7	0xbede408a	-0.43408614
8	0x3ba8cd40	0.005151421
9	0x3ea0e0f4	0.31421626
10	0xbe89ddec	-0.26927125
11	0xbe14a229	-0.14514984
12	0xbf203619	-0.62582546
13	0x3f88f7f7	1.0700673
14	0xbeb40d3d	-0.3516635
15	0xbf11b566	-0.5691742
16	0x3e89af86	0.26891726
17	0xbe595ee1	-0.212276
18	0xbe3515fa	-0.17684165
19	0x3ecab91f	0.3959436
20	0xbe3d1d69	-0.1846825
21	0x3f6d9946	0.92812
22	0xbe2e94f7	-0.17049013
23	0xbed6ee2e	-0.41978592
24	0xbeb6c382	-0.35696036
25	0xbecda656	-0.40165967
26	0x3e786752	0.24258164
27	0xbcd7341d	-0.026269967
28	0xbea53a6b	-0.32271132
29	0x3ebf775e	0.37395757
30	0x3e5df7a8	0.21676505
31	0x3f52facb	0.8241393
32	0x3f3670f4	0.712661
33	0x3cb2506f	0.02176687
34	0x3eb3eab3	0.3514
35	0xbee87f20	-0.4540949
36	0xbcfd774c	-0.030940674
37	0x3f704419	0.9385391
38	0x3f14f8eb	0.5819232
39	0x3e0478e5	0.12936743
40	0x3f00c9bd	0.5030783
41	0xbccf29d2	-0.025288496
42	0x3e6f9166	0.23395309
43	0xbdfa8527	-0.12232428
44	0xbee000da	-0.4375065
45	0xbdafbe51	-0.08581222
46	0xbe873708	-0.26409173
47	0xbf662ba1	-0.8991032
48	0x3ef2d33b	0.4742678
49	0xbf029bde	-0.51019084
50	0xbf666ce0	-0.9000988
51	0x3e5803f2	0.21095255
52	0xbed14dcb	-0.40879664
53	0xbee04ca1	-0.43808463
54	0xbe8f3167	-0.27967378
55	0xbe51bcaf	-0.20482133
56	0xbe9dfc53	-0.3085657
57	0x3efb6a06	0.49104327
58	0x3f68a7fd	0.9088133
59	0x3ea2c423	0.31790265
60	0xbef57766	-0.47942656
61	0xbf1c2376	-0.6099161
62	0x3e5237ca	0.20529094
63	0xbd7c601a	-0.061615087
64	0x3de3e62f	0.111278884
65	0x3da1134b	0.07865008
66	0xbcfa9eb9	-0.030593263
67	0xbf577076	-0.84155977
68	0xbea50c0f	-0.32235762
69	0x3dd374f7	0.10325044
70	0xbe512d4e	-0.20427439
71	0xbed932f9	-0.42421702

conv21.0.bias f4 [4]
0	0x3e2e3a50	0.17014432
1	0xbe11fec6	-0.14257345
2	0x3ee7ecd1	0.45297864
3	0x3f3f1e5d	0.74655706

conv21.1.weight f4 [4]
0	0x3f9840ab	1.1894735
1	0x3fa4b98b	1.2869123
2	0x3f8bf977	1.0935506
3	0x3f8ec799	1.1154662

conv21.1.bias f4 [4]
0	0xbec8cc80	-0.3921852
1	0xbcccb7f2	-0.024990056
2	0x3e8609e4	0.2617942
3	0x3e6ed36d	0.2332284

conv21.1.running_mean f4 [4]
0	0x3ed93550	0.42423487
1	0x3f023d1f	0.50874513
2	0x3f462757	0.7740378
3	0x3da153f0	0.07877338

conv21.1.running_var f4 [4]
0	0x4021d5e8	2.5286808
1	0x3fa16aad	1.261068
2	0x40eee267	7.465137
3	0x3f85eb5d	1.0462452

conv22.0.weight f4 [4, 4, 3, 3]
0	0xbf091fe7	-0.53564304
1	0xbf69f9c8	-0.9139676
2	0xbf326880	-0.69690704
3	0xbe9416d3	-0.28923663
4	0xbe6c0f8d	-0.23052807
5	0xbe87522e	-0.26429886
6	0x3d5e1454	0.054218605
7	0xbe7d1d51	-0.24718215
8	0xbf3e063e	-0.74228275
9	0x3ef192d8	0.47182345
10	0x3ed74008	0.4204104
11	0xbde86d0f	-0.11348926
12	0xbe981c8e	-0.29709285
13	0x3ec94d79	0.3931692
14	0x3e6d0da0	0.23149729
15	0xbf66d8ca	-0.90174544
16	0xbdf9d912	-0.12199606
17	0xbe13f0f0	-0.14447379
18	0xbed3e8db	-0.41388592
19	0xbb2a63d8	-0.0025999453
20	0x3e25f21b	0.16205637
21	0xbd02280a	-0.031776465
22	0xbeca95f8	-0.39567542
23	0xbe2386b7	-0.15969358
24	0x3da08912	0.07838644
25	0x3e6e484f	0.23269771
26	0x3e487923	0.1957746
27	0xbec57b1e	-0.38570493
28	0xbfd64db8	-1.6742468
29	0xbf9f1597	-1.2428464
30	0xbcec8e90	-0.028876573
31	0xbe1ec09b	-0.1550316
32	0x3ef386c6	0.4756376
33	0x3e6d2081	0.2315693
34	0x3b8c68b9	0.004284945
35	0x3ec49561	0.38395217
36	0xbdc7ece9	-0.09761984
37	0xbee43910	-0.44574785
38	0x3e80d50a	0.25162536
39	0xbdcceec7	-0.10006481
40	0xbec7d5ca	-0.39030296
41	0xbe27e42e	-0.16395637
42	0xbee7c73b	-0.45269188
43	0xbf0b0c7f	-0.5431594
44	0xbe11e563	-0.1424766
45	0xbee2cf25	-0.44298664
46	0xbf33ab08	-0.7018285
47	0xbf3e40d9	-0.743177
48	0x3e18a14e	0.14905283
49	0xbe9a759a	-0.30167848
50	0xbf6e45b4	-0.9307511
51	0x3f3ae1aa	0.73000586
52	0x3e2f2fc7	0.1710807
53	0x3ce25e07	0.027632726
54	0x3f49c2b8	0.7881274
55	0x3f753611	0.95785624
56	0x3ca41635	0.02003012
57	0xbd3d0167	-0.046143916
58	0x3d27abef	0.040935453
59	0xbd465739	-0.048423026
60	0xbe67df0a	-0.22643676
61	0xbe50f07a	-0.20404235
62	0xbda12fc6	-0.0787044
63	0xbec2c247	-0.38038847
64	0x3f0143ec	0.50494266
65	0x3f33a022	0.7016622
66	0x3d2b0d15	0.041760523
67	0x3e4ef6bc	0.20211309
68	0x3f083a63	0.5321409
69	0xbddfa9cc	-0.10921058
70	0xbe000f96	-0.12505946
71	0xbd9c7b5e	-0.07640718
72	0xbed51ac9	-0.41621998
73	0xbe7f4e81	-0.2493229
74	0x3ebcc3e7	0.36868212
75	0xbf357852	-0.7088672
76	0x3cd09178	0.02545999
77	0x3f1025f7	0.5630793
78	0x3eeb708b	0.459843
79	0x3ec58885	0.3858072
80	0x3f0b92f1	0.5452109
81	0xbcfc973b	-0.030833831
82	0x3e5f4929	0.21805252
83	0xbe759846	-0.23983869
84	0x3ec4a012	0.38403374
85	0x3ea4e6a7	0.32207224
86	0x3b2d0b00	0.0026404262
87	0x3f1fda95	0.62442905
88	0x3f5398fa	0.826553
89	0x3dd1b59e	0.10239719
90	0x3e556cc5	0.20842274
91	0xbab0c3f3	-0.0013486132
92	0xbd9988a0	-0.07496762
93	0x3db1a37c	0.0867376
94	0x3f0ccce6	0.5500015
95	0x3f4d6d9f	0.80245394
96	0x3e909c2d	0.28244153
97	0x3f49f672	0.7889167
98	0x3f1ac950	0.6046343
99	0xbd6ff430	-0.058582485
100	0xbf0974d3	-0.53693885
101	0xbefda152	-0.4953714
102	0xbf0c2310	-0.54741
103	0xbdaf6e26	-0.08565931
104	0xbec8d451	-0.39224485
105	0xbdc67d2c	-0.096918434
106	0xbcf3ee84	-0.029776819
107	0xbe0335e1	-0.12813522
108	0xbe81179c	-0.25213325
109	0xbe72316c	-0.23651665
110	0xbe64dfce	-0.22351
111	0xbeded7a5	-0.435239
112	0xbea650d8	-0.32483554
113	0xbeed06b9	-0.4629419
114	0x3f12f84a	0.5741011
115	0x3ddce4f1	0.107858546
116	0xbeb99aaa	-0.36250812
117	0x3f4a83c3	0.791073
118	0xbe8e5573	-0.27799568
119	0xbd2e465d	-0.042547572
120	0xbf61206d	-0.879401
121	0x3c9842fc	0.018586628
122	0x3e8d5c5e	0.27609533
123	0x3ecec186	0.40382022
124	0xbd557d36	-0.052121364
125	0xbc052a29	-0.008127728
126	0xbd83a25c	-0.06427452
127	0xbed392f5	-0.41323057
128	0xbd4a7029	-0.04942337
129	0x3ee9f450	0.45694208
130	0x3e8e8c76	0.27841538
131	0xbe075341	-0.13215353
132	0x3f22a7e9	0.6353746
133	0x3e3503bb	0.17677204
134	0xbebe8cb7	-0.37216732
135	0x3d266344	0.04062201
136	0x3d98590d	0.0743886
137	0x3eb59399	0.3546417
138	0x3d9e7010	0.07736218
139	0x3f03dc51	0.5150805
140	0x3f1f051c	0.6211717
141	0x3e36c708	0.17849362
142	0xbf1ae044	-0.6049845
143	0xbf1cec5b	-0.6129815

conv22.0.bias f4 [4]
0	0x3e17ced3	0.14824991
1	0xbe88f8f5	-0.2675244
2	0x3e0c4297	0.13697277
3	0xbe4123af	-0.18861268

conv22.1.weight f4 [4]
0	0x3fc03363	1.5015682
1	0x3f8ecbbb	1.1155924
2	0x3f897c40	1.0741043
3	0x3f6fd68f	0.93686765

conv22.1.bias f4 [4]
0	0xbe2dbf4e	-0.16967508
1	0x3e734f7c	0.2376079
2	0x3e30c8e5	0.17264135
3	0x3c804c69	0.015661435

conv22.1.running_mean f4 [4]
0	0xc00d028f	-2.2032812
1	0xbef08bd9	-0.46981695
2	0x3ffa9f1f	1.957981
3	0xbd4e7402	-0.050403602

conv22.1.running_var f4 [4]
0	0x4166f457	14.434653
1	0x40a5d5b3	5.1823363
2	0x40fd2592	7.910836
3	0x40562ae1	3.3463671

conv31.0.weight f4 [8, 4, 3, 3]
0	0xbe351c1f	-0.17686509
1	0xbd81083b	-0.06300398
2	0x3eaec2c7	0.34132978
3	0x3d4fc846	0.050728105
4	0xbdc02bb0	-0.09383333
5	0x3e321cb9	0.1739377
6	0x3e4adcdf	0.19810818
7	0x3f12b660	0.5730953
8	0x3d78bb7b	0.06072567
9	0x3e7e01ae	0.24805328
10	0x3db9ade6	0.090663716
11	0xbf03800f	-0.51367277
12	0xbdf5d873	-0.12004175
13	0x3f1bec79	0.60907704
14	0x3f98b603	1.1930546
15	0xbd082a60	-0.033243537
16	0xbeeec7e4	-0.4663688
17	0x3dd4de15	0.10393921
18	0xbdff9e51	-0.12481368
19	0x3f1d4c4e	0.61444557
20	0xbd8634be	-0.065530285
21	0xbe43d29c	-0.1912331
22	0x3db0d6d8	0.08634728
23	0xbd82f0bd	-0.063935734
24	0x3ec49d42	0.38401228
25	0xbd84e1e7	-0.064884
26	0x3ee9b754	0.4564768
27	0xbee2ba07	-0.44282553
28	0xbd84e177	-0.064883165
29	0xbebc1df6	-0.36741608
30	0x3e14e597	0.14540707
31	0xbe3ecb1c	-0.18632168
32	0x3e932443	0.28738603
33	0x3e32f91d	0.17477842
34	0xbda157cf	-0.07878076
35	0xbf0d7b23	-0.55266017
36	0x3f303466	0.68829954
37	0x3f73bdf2	0.9521171
38	0x3e306fd2	0.17230156
39	0xbe59755c	-0.21236175
40	0xbec36fca	-0.38171226
41	0x3d960cb3	0.07326641
42	0x3eca3a7a	0.3949774
43	0x3f917d00	1.1366272
44	0x3f923d3a	1.1424935
45	0xbd29bab7	-0.04143783
46	0x3c10d0ea	0.0088388715
47	0x3df92651	0.121655114
48	0x3e536685	0.20644577
49	0x3eb17106	0.34656543
50	0x3e68658a	0.22694984
51	0x3adaaca0	0.0016683526
52	0xbc985f3f	-0.018600104
53	0xbe93a709	-0.28838375
54	0xbf0b0d86	-0.5431751
55	0xbf24a16e	-0.6430882
56	0x3c9fb5bc	0.019495837
57	0x3f0d874a	0.5528456
58	0xbe685051	-0.22686888
59	0xbddc9c1c	-0.10771963
60	0x3e914fba	0.2838114
61	0xbf08551d	-0.5325487
62	0xbece75eb	-0.4032434
63	0x3e2cc368	0.16871417
64	0xbe177daa	-0.14794031
65	0x3dbf4f8f	0.093413465
66	0x3efd6818	0.4949348
67	0x3e814b2b	0.2525266
68	0x3d97990c	0.07402238
69	0x3ec4d3fe	0.38442987
70	0x3dc17a1b	0.09447118
71	0xbcdd88fd	-0.02704286
72	0xbcc4d218	-0.024025962
73	0xbdb5df7b	-0.08880516
74	0xbe402f1b	-0.1876797
75	0x3edcc5e6	0.43119735
76	0x3edd335a	0.4320324
77	0xbf291bea	-0.6605822
78	0x3f4acfbf	0.79223245
79	0xbf468e0f	-0.77560514
80	0xbf25895c	-0.6466272
81	0x3e8db6b8	0.27678466
82	0x3f262e44	0.64914346
83	0xbe98403c	-0.29736507
84	0x3d8e2e21	0.06942392
85	0xbf1d60f1	-0.61476046
86	0x3e40d81c	0.18832439
87	0xbf24fa9f	-0.6444492
88	0x3b4c4d60	0.0031174049
89	0x3eba5d86	0.36399478
90	0xbe8df9d8	-0.27729678
91	0xbf2ee10d	-0.6831215
92	0x3c3bd7a9	0.011464992
93	0xbcfe6958	-0.031056091
94	0x3f97eedd	1.186977
95	0xbe658192	-0.22412708
96	0xbec5ec78	-0.38656974
97	0x3df8af0a	0.12142761
98	0x3da2778d	0.07932959
99	0x3f0348d5	0.5128301
100	0xbe44fdda	-0.19237462
101	0xbebc0cd1	-0.36728528
102	0xbd6b8a33	-0.057504844
103	0xbe306fcb	-0.17230146
104	0x3ece00ba	0.4023493
105	0x3e9c07f2	0.30474812
106	0x3d787838	0.060661525
107	0xbeecd15e	-0.46253484
108	0xbe98a492	-0.29813057
109	0x3e06c972	0.13162783
110	0xbd88308c	-0.066498846
111	0xbec066f8	-0.3757856
112	0xbf5cc026	-0.86230695
113	0x3ee31ba8	0.44357038
114	0xbe4df650	-0.20113492
115	0xbf0f87a0	-0.5606632
116	0xbe832a98	-0.25618434
117	0xbc13f8ec	-0.009031516
118	0xbf682195	-0.9067624
119	0x3f04f750	0.5193987
120	0x3f2eca3f	0.68277353
121	0x3f046ace	0.5172547
122	0x3c017469	0.0079012895
123	0xbd5d75de	-0.054067485
124	0x3f27628c	0.65384746
125	0x3e9dda56	0.3083064
126	0xbde39cb4	-0.11113873
127	0xbedaa95f	-0.42707345
128	0xbe48849d	-0.19581838
129	0x3eeda7e4	0.46417153
130	0x3e867322	0.26259714
131	0xbf16c845	-0.5889934
132	0xbe4c1f78	-0.1993388
133	0xbf26abb6	-0.6510576
134	0xbea823f1	-0.3283992
135	0x3d066b2a	0.032817043
136	0x3ee6c793	0.45074138
137	0x3f03cbdf	0.5148296
138	0x3efa2a57	0.48860428
139	0xbe3f7e5c	-0.18700546
140	0xbe897c44	-0.2685262
141	0xbf3753e5	-0.7161239
142	0xbda439b8	-0.080188215
143	0xbe5f6f3d	-0.21819778
144	0x3dfa0830	0.12208593
145	0xbe8026db	-0.25029644
146	0x3dcb1c3c	0.09917495
147	0x3ed1549c	0.40884864
148	0xbe8a611d	-0.27027217
149	0x3d6ef705	0.058341045
150	0x3ba46137	0.0050164717
151	0x3ec4dcc9	0.38449696
152	0x3f80b980	1.005661
153	0xbf358ad5	-0.70914966
154	0x3f1e7a6d	0.61905557
155	0xbeb44750	-0.35210657
156	0xbd29663f	-0.041357275
157	0xbe766aec	-0.24064225
158	0xbf226086	-0.63428533
159	0x3b9770e6	0.004621613
160	0xbf8375cd	-1.0270325
161	0xbe108dd6	-0.14116606
162	0xbe18d730	-0.14925838
163	0xbe473f46	-0.1945773
164	0x3eb6bb30	0.35689688
165	0x3debd3ea	0.11515029
166	0xbe994352	-0.29934174
167	0x3ea38dfd	0.31944266
168	0x3dc57ad8	0.09642571
169	0xbf529abb	-0.8226735
170	0xbe44887e	-0.19192693
171	0xbf1fc1fb	-0.62405366
172	0xbe294b63	-0.16532664
173	0x3e776514	0.24159652
174	0x3f5a5acc	0.85294795
175	0x3e84393f	0.25824925
176	0xbe2e8240	-0.17041874
177	0xbe9e9098	-0.3096969
178	0x3cfd76af	0.030940382
179	0x3e5551f0	0.20832038
180	0x3d0dab94	0.034587458
181	0xbee33ff1	-0.4438472
182	0x3f408b15	0.7521222
183	0xbecb6af8	-0.39730048
184	0xbe245c15	-0.16050752
185	0xbe364d67	-0.17802964
186	0x3dbf0c86	0.093285605
187	0xbf13aef1	-0.57688814
188	0xbf1daa88	-0.61588335
189	0xbe2702ce	-0.16309664
190	0xbeb31657	-0.3497798
191	0xbe8b94a2	-0.27261835
192	0x3d38dd7f	0.04513311
193	0xbe778b2c	-0.24174184
194	0xbcb74540	-0.022371888
195	0x3e4f6810	0.2025454
196	0x3ee31112	0.4434896
197	0xbe99211b	-0.2990807
198	0xbd8ccf09	-0.06875426
199	0x3f3c1329	0.73466736
200	0x3dfed2d8	0.12442559
201	0xbe1e9635	-0.15486987
202	0x3e2da4e4	0.16957432
203	0x3d3b1cbf	0.04568171
204	0xbed42443	-0.41433915
205	0x3eb82a95	0.35969988
206	0x3d648643	0.055792104
207	0xbc850136	-0.016235929
208	0xbfb1e09b	-1.3896669
209	0xbd9324f5	-0.07184783
210	0xbf2546fc	-0.6456144
211	0xbf271529	-0.6526666
212	0x3eb576e3	0.35442266
213	0xbd3a251c	-0.045445547
214	0xbe9a3c0e	-0.30123943
215	0xbe15b151	-0.14618422
216	0xbd44fd16	-0.048092924
217	0xbe612cf9	-0.21989812
218	0xbf2ec20d	-0.6826485
219	0xbd2f50de	-0.04280173
220	0x3eef720a	0.46766692
221	0xbe083f4c	-0.13305396
222	0xbece669d	-0.40312663
223	0x3dcf1833	0.101120375
224	0x3ee7813a	0.4521578
225	0xbe9b4d92	-0.3033262
226	0x3e058f21	0.1304288
227	0xbf181188	-0.5940175
228	0xbe9c68f4	-0.30548823
229	0xbdbbdce9	-0.09172995
230	0x3f044fdd	0.5168436
231	0x3dd6e5cb	0.10493048
232	0x3e6a7bfe	0.22898862
233	0x3e836dee	0.25669807
234	0xbecce497	-0.4001815
235	0xbe240c32	-0.16020277
236	0x3e66f557	0.22554527
237	0x3f7ca32d	0.98686486
238	0x3f6bb73b	0.9207646
239	0xbeef3483	-0.4671975
240	0xbe933b0b	-0.28755984
241	0xbec94384	-0.39309323
242	0xbbf0ba6c	-0.007346442
243	0x3de2e8a2	0.110795274
244	0xbf215420	-0.6301899
245	0xbea9a583	-0.33134088
246	0xbd83d7ee	-0.0643767
247	0x3e633b10	0.221905
248	0xbe2560dd	-0.16150232
249	0x3de57de1	0.1120565
250	0x3e61c48a	0.2204763
251	0x3f1b911a	0.6076828
252	0x3e82160b	0.25407442
253	0x3f0306b9	0.5118213
254	0x3f093dde	0.53610027
255	0x3e7836e6	0.24239692

conv31.0.bias f4 [8]
0	0x3ebf9c1a	0.37423784
1	0x3e1021a1	0.14075328
2	0xbeacbbcb	-0.33737025
3	0xbd3b7439	-0.045765135
4	0xbe009e81	-0.12560464
5	0xbd235f56	-0.03988584
6	0xbefb44dc	-0.49075973
7	0x3e90c0b8	0.28272033

conv31.1.weight f4 [8]
0	0x3f69c97a	0.91323054
1	0x3f8b1f94	1.0869012
2	0x3f8c5323	1.0962871
3	0x3f93b5c7	1.1539849
4	0x3fa29e0b	1.2704481
5	0x3f9111b1	1.1333524
6	0x3fa8ad53	1.3177894
7	0x3fadd88f	1.3581713

conv31.1.bias f4 [8]
0	0x3e18a2dc	0.14905876
1	0x3cab9d99	0.020949172
2	0x3d446abc	0.047953352
3	0x3be0c740	0.00685969
4	0xbe9dbb16	-0.30806798
5	0xbd78c438	-0.060734004
6	0x3e33f7c7	0.17574988
7	0xbe8ef0c9	-0.2791808

conv31.1.running_mean f4 [8]
0	0x40008519	2.0081236
1	0x400f8cf5	2.2429783
2	0xbf57b3df	-0.84258837
3	0xbfa2d751	-1.2721959
4	0xbfd34174	-1.650435
5	0xc0222f5f	-2.5341413
6	0xbe5f8396	-0.2182754
7	0xbffcbed2	-1.9745734

conv31.1.running_var f4 [8]
0	0x4063b99f	3.5582044
1	0x40a678c6	5.202243
2	0x40681d1d	3.626777
3	0x40d69925	6.7061944
4	0x40af75fc	5.4831524
5	0x40a408d9	5.12608
6	0x40922e04	4.568117
7	0x411d1aad	9.819013

conv32.0.weight f4 [16, 8, 3, 3]
0	0x3e710440	0.23536777
1	0x3efd02bf	0.49416158
2	0x3e24def6	0.16100678
3	0xbdf6590b	-0.12028702
4	0xbf0120ce	-0.5044068
5	0x3ed447d2	0.41461045
6	0x3cb1180f	0.021617917
7	0xbe4d827c	-0.20069307
8	0xbe8bbf7b	-0.27294526
9	0xbdc6011f	-0.096681826
10	0xbf160bab	-0.58611554
11	0xbdf73eb2	-0.12072505
12	0x3f2b0e05	0.6681827
13	0xbd48c840	-0.0490191
14	0xbea6a2c6	-0.3254606
15	0x3f464dec	0.7746265
16	0x3e1a7e8b	0.15087335
17	0xbe2e170d	-0.1700098
18	0xbf52a231	-0.82278734
19	0x3dc5e8a2	0.09663512
20	0x3eb0217d	0.3440055
21	0xbdec055f	-0.11524462
22	0x3da160ea	0.07879813
23	0x3f3cfad4	0.73820233
24	0x3e817a4b	0.25288615
25	0x3e40365c	0.18770736
26	0xbf81da67	-1.0144776
27	0x3ea12c9f	0.31479356
28	0xbc1382ee	-0.009003384
29	0xbdfc261b	-0.123119555
30	0x3d387fb2	0.045043655
31	0x3d117627	0.03551307
32	0x3c8f4fd0	0.017494112
33	0x3d5ff725	0.054679055
34	0xbdf8eda9	-0.12154705
35	0xbba0ebc6	-0.004910919
36	0xbf082008	-0.53173876
37	0x3e7f314a	0.24921146
38	0x3ed90267	0.42384645
39	0x3ca8322a	0.020531733
40	0xbec88341	-0.3916264
41	0xbe45cc77	-0.19316278
42	0x3e4e5744	0.20150477
43	0xbea69b4e	-0.32540363
44	0xbf45cdc5	-0.77267104
45	0xbe4bfc03	-0.19920354
46	0xbe313995	-0.17307122
47	0xbe5c9734	-0.21542054
48	0xbec976ef	-0.39348552
49	0xbf2280c5	-0.63477737
50	0xbdfbf63f	-0.12302827
51	0x3f3e811c	0.74415755
52	0x3edf6590	0.43632174
53	0xbda458b2	-0.0802473
54	0xbf3600f8	-0.7109523
55	0xbeb35684	-0.35026944
56	0x3eaff565	0.3436691
57	0xbe61966e	-0.2203004
58	0xbe54ffee	-0.20800754
59	0x3e94b559	0.29044607
60	0xbe9551c4	-0.29163945
61	0x3d164266	0.036684416
62	0xbf434e4e	-0.7629136
63	0x3e536bb8	0.2064656
64	0x3ec11574	0.3771168
65	0xbe0bdf5e	-0.13659427
66	0xbebd4390	-0.3696561
67	0xbecaef60	-0.39635754
68	0xbeea1b85	-0.4572412
69	0xbeb30af5	-0.34969297
70	0x3c708797	0.014680765
71	0xbe919ce7	-0.2844002
72	0x3d541e3e	0.051786654
73	0x3f2c7960	0.67372704
74	0x3e9602e8	0.29299092
75	0xbe20a5a7	-0.15688191
76	0x3e15d69d	0.1463265
77	0x3ea1e246	0.31617945
78	0xbf2d97bc	-0.67809653
79	0xbea03761	-0.3129225
80	0xbe4effb4	-0.2021473
81	0x3dc53bfb	0.09630581
82	0xbeef4012	-0.4672857
83	0xbe8a4776	-0.27007645
84	0x3da6c379	0.08142752
85	0x3dfe5857	0.12419193
86	0xbca12227	-0.019669605
87	0x3e13a708	0.14419186
88	0x3f17f6c1	0.5936089
89	0x3e7a0513	0.24415998
90	0x3c875667	0.016520692
91	0x3e0b5225	0.13605554
92	0xbf20f119	-0.62867886
93	0xbf0c3b75	-0.54778224
94	0x3e146a69	0.14493717
95	0x3f27084e	0.65247047
96	0x3e89c343	0.26906785
97	0xbdf02dd3	-0.1172749
98	0xbd90b3e1	-0.07065559
99	0xbe162ba6	-0.14665088
100	0xbea05cc9	-0.3132079
101	0x3db4a35e	0.08820222
102	0xbeb5657c	-0.3542899
103	0x3f1e64bf	0.61872476
104	0xbf21cde1	-0.6320477
105	0xbf5ca411	-0.86187845
106	0xbce42d8b	-0.027853748
107	0xbe27b29a	-0.16376725
108	0x3e2bf993	0.16794424
109	0xbd27b0b0	-0.040939987
110	0xbf1b4c31	-0.60663134
111	0x3ebf4a1f	0.37361237
112	0x3ec579a3	0.38569364
113	0xbe85b8b9	-0.26117495
114	0x3ef330ea	0.47498256
115	0x3eda1277	0.42592213
116	0x3dae0a23	0.08498027
117	0x3e989045	0.2979757
118	0xbeef7fc3	-0.46777162
119	0x3db8e4cc	0.090280145
120	0xbf0d7507	-0.55256695
121	0xbf101c25	-0.56292945
122	0xbec173bc	-0.3778361
123	0x3e10069f	0.14065026
124	0x3e8eb075	0.27869
125	0xbed7436c	-0.42043626
126	0xbef3fa79	-0.47652033
127	0x3e2577f0	0.16159034
128	0x3e6e9132	0.23297575
129	0x3d2ab9b9	0.041681025
130	0x3d25dd4c	0.04049425
131	0x3e48ba74	0.19602376
132	0x3e192cbd	0.14958473
133	0x3d69d763	0.057090174
134	0x3d3bee9e	0.04588186
135	0x3f171e46	0.5903057
136	0x3de87cc2	0.11351921
137	0xbf1f04fd	-0.62116987
138	0xbec6816f	-0.38770625
139	0x3e574289	0.21021475
140	0xbead9f3f	-0.33910558
141	0x3cebd981	0.028790237
142	0xbdf72ff9	-0.12069697
143	0xbd991749	-0.074751444
144	0xbdd4d9c6	-0.103930995
145	0x3e0811cf	0.13288043
146	0x3eb27ecd	0.34862366
147	0xbd40a2ef	-0.047030386
148	0x3edd8dac	0.4327215
149	0xbd3f9f16	-0.046782576
150	0xbf033d0e	-0.5126504
151	0xbeaa094a	-0.33210212
152	0xbf3f9305	-0.7483371
153	0xbd01a55b	-0.031651836
154	0xbdbf7232	-0.09347953
155	0x3f6b5a26	0.9193443
156	0x3e9e3950	0.309031
157	0x3dfb2a6f	0.12263953
158	0xbf0d3696	-0.55161417
159	0xbe0a2e9b	-0.13494341
160	0xbf2d9854	-0.6781056
161	0xbed316da	-0.41228372
162	0xbccc22b5	-0.024918893
163	0xbd8aad72	-0.06771363
164	0x3ee78049	0.4521506
165	0xbec45ed6	-0.38353604
166	0xbf1af1d9	-0.6052528
167	0xbf0ce897	-0.55042404
168	0xbf045626	-0.5169395
169	0x3e89b859	0.2689846
170	0x3ed88a7b	0.42293152
171	0xbf2cf78a	-0.67565215
172	0xbe485564	-0.19563824
173	0x3e172271	0.14759232
174	0x3e80c68c	0.2515148
175	0x3ea12c7e	0.31479257
176	0xbe9a3f98	-0.30126643
177	0xbebb273f	-0.3655338
178	0xbf16d49d	-0.5891817
179	0xbef6c63f	-0.48198125
180	0xbef21cea	-0.47287685
181	0xbc85be0d	-0.016325975
182	0xbf1f10d6	-0.62135065
183	0x3eac0a43	0.3360158
184	0x3ec261ba	0.37965184
185	0xbec4e5db	-0.38456616
186	0x3ec88325	0.39162555
187	0xbd1b9f9d	-0.037994016
188	0x3f152e73	0.58274
189	0x3d9b0e45	0.07571081
190	0x3e7fbbf1	0.24974038
191	0x3f488aff	0.7833709
192	0xbd98d5a8	-0.07462627
193	0xbee865d3	-0.45390186
194	0xbeea8836	-0.45807046
195	0xbd129685	-0.035788078
196	0x3d654077	0.05596968
197	0xbe304476	-0.17213616
198	0x3e8f66a2	0.2800799
199	0x3e99915a	0.29993707
200	0x3ed752bc	0.4205531
201	0x3dfe42d5	0.12415091
202	0x3eefb37c	0.46816623
203	0xbf0b5ba2	-0.54436696
204	0xbf80e46d	-1.006971
205	0xbe64c2dc	-0.22339958
206	0x3e9b9430	0.30386496
207	0xbdace8ed	-0.084428646
208	0xbeb090ac	-0.34485376
209	0x3dd61eff	0.10455131
210	0x3d3caa26	0.046060704
211	0xbc4460bb	-0.011985953
212	0xbdb89d90	-0.09014428
213	0xbed763e0	-0.42068386
214	0x3e8e57d5	0.27801386
215	0xbe2e00ec	-0.16992539
216	0xbedbd2ea	-0.42934352
217	0xbf1cc767	-0.61241764
218	0xbe6b07a7	-0.22952138
219	0x3d5eaa4a	0.05436162
220	0x3c92c5b8	0.017916545
221	0x3e3a8c71	0.18217637
222	0xbd59bc59	-0.053158138
223	0xbf299eb3	-0.6625778
224	0xbea69601	-0.3253632
225	0x3d59ec3b	0.053203803
226	0x3e40d8c7	0.18832694
227	0xbf226bec	-0.63445926
228	0xbeb0133a	-0.3438967
229	0xbe8a5bac	-0.27023065
230	0xbaa69b4c	-0.0012711077
231	0xbef1979e	-0.47185987
232	0xbf578bef	-0.84197897
233	0x3f191ac9	0.59806496
234	0x3ea6a25a	0.3254574
235	0xbd469921	-0.04848588
236	0xbe9b8336	-0.30373544
237	0x3f4bafca	0.7956511
238	0xbd39e339	-0.045382712
239	0xbdee515b	-0.11636611
240	0xbef82e94	-0.48473036
241	0x3d4c85c4	0.049932256
242	0xbf26e143	-0.6518747
243	0x3e64f9d2	0.22360924
244	0x3e3f6fe6	0.1869503
245	0xbf6b677d	-0.91954786
246	0xbe544e70	-0.20733047
247	0xbe82207b	-0.25415406
248	0xbf161969	-0.5863252
249	0xbd277be4	-0.040889636
250	0xbeae7c39	-0.3407915
251	0x3d0f74db	0.03502355
252	0xbe188318	-0.14893758
253	0xbe95f2c6	-0.29286784
254	0xbd13a390	-0.036044657
255	0x3ec69cba	0.38791448

conv32.0.bias f4 [16]
0	0x3db67176	0.0890836
1	0xbd922f75	-0.07137958
2	0xbc00a10c	-0.007850897
3	0xbde54b23	-0.11195972
4	0xbe03d373	-0.1287363
5	0x3e4be607	0.19911967
6	0xbc4e36b5	-0.012586285
7	0xbdffaa0a	-0.12483604
8	0xbe746af7	-0.23868929
9	0xbd2dbb6c	-0.042415068
10	0xbdb09ea4	-0.08624008
11	0x3d903a34	0.07042351
12	0x3e10d89b	0.14145128
13	0xbc854331	-0.01626739
14	0x3de4abd3	0.11165585
15	0x3db98173	0.090578936

conv32.1.weight f4 [16]
0	0x3f6e7457	0.9314627
1	0x3f757932	0.95888054
2	0x3f969e67	1.176709
3	0x3fab2516	1.3370693
4	0x3f75c45f	0.96002764
5	0x3f772517	0.9654097
6	0x3f87482d	1.0568901
7	0x3f9776dc	1.1833148
8	0x3f8f08d6	1.1174572
9	0x3f8a823e	1.0820997
10	0x3f859034	1.0434632
11	0x3f7245ee	0.94637954
12	0x3f6da203	0.92825335
13	0x3f85bfe7	1.0449189
14	0x3f70f496	0.9412321
15	0x3f8d0871	1.1018201

conv32.1.bias f4 [16]
0	0xbeff9d67	-0.49924776
1	0xbec4a1c6	-0.38404673
2	0xbef46bed	-0.4773859
3	0xbf5604c4	-0.8360102
4	0xbeadf73c	-0.33977687
5	0xbef64a0d	-0.4810337
6	0xbed35de0	-0.41282558
7	0xbf1bbb61	-0.6083279
8	0xbef9f0a1	-0.48816398
9	0xbeca0318	-0.39455485
10	0xbf18745f	-0.5955257
11	0xbf02a82d	-0.51037866
12	0xbf0d933b	-0.5530278
13	0xbf1f6042	-0.6225625
14	0xbf2dbb50	-0.6786394
15	0xbf0e7e1c	-0.5566118

conv32.1.running_mean f4 [16]
0	0xbfd6e7b2	-1.6789458
1	0xbf370c89	-0.715035
2	0xbfc97979	-1.5740196
3	0xbffc1daf	-1.9696559
4	0xc02095c5	-2.5091412
5	0x3edd5392	0.43227822
6	0xbf9b570f	-1.2135943
7	0xbfd4bddb	-1.6620439
8	0xbf94c243	-1.1621784
9	0xc05e45b4	-3.4730043
10	0xc0570ade	-3.3600383
11	0x3f86f022	1.0542033
12	0xc04a278b	-3.1586635
13	0xbf5d641e	-0.8648089
14	0x3ea87d9e	0.32908338
15	0xbfaef186	-1.3667457

conv32.1.running_var f4 [16]
0	0x408d7d40	4.4215393
1	0x40883725	4.2567315
2	0x410a5933	8.646777
3	0x40c1683b	6.0439734
4	0x40a59200	5.1740723
5	0x40e0a331	7.019921
6	0x40cf4a7e	6.4778433
7	0x40cfb2f9	6.4905972
8	0x40e8aee3	7.2713485
9	0x409d1d86	4.909854
10	0x40aaa035	5.3320565
11	0x40ce609b	6.4492927
12	0x40e44d62	7.134446
13	0x40ccbd6d	6.3981233
14	0x4092f117	4.59193
15	0x40c3607f	6.1055293

fc.0.weight f4 [10, 784]
0	0x3e5088c0	0.20364666
1	0x3f639f3c	0.8891485
2	0x3df4ec84	0.11959174
3	0xbde3df48	-0.11126572
4	0xbcea969e	-0.028636273
5	0x3e5fb161	0.21845008
6	0xbe64a10b	-0.22327058
7	0xbe8a37ef	-0.269958
8	0x3d8b7496	0.068093464
9	0xbec2afbe	-0.38024706
10	0x3e2fc01c	0.17163128
11	0x3ed2b3ca	0.41152793
12	0x3dcde16d	0.10052762
13	0xbeab72e3	-0.3348609
14	0x3f605b73	0.8763954
15	0x3ea69b3b	0.32540306
16	0x3db80d35	0.08986894
17	0xbe3727d6	-0.1788629
18	0xbec9077e	-0.3926353
19	0x3dbd1ea0	0.09234357
20	0xbd1ef21c	-0.038805112
21	0xbe798086	-0.24365434
22	0x3c90a1d1	0.017655285
23	0xbd853dea	-0.0650595
24	0xbdc23436	-0.09482615
25	0xbd779c27	-0.060451653
26	0x3e889747	0.26677915
27	0xbe500440	-0.20314121
28	0xbf745f01	-0.95457464
29	0xbeb1e95f	-0.3474836
30	0xbf11408d	-0.5673912
31	0xbe8a6017	-0.27026436
32	0x3c0ce74c	0.008600067
33	0x3eb8f84e	0.3612694
34	0xbe621877	-0.22079645
35	0x3efbbf67	0.49169466
36	0x3ef9bc52	0.4877649
37	0xbea2943f	-0.31753728
38	0xbe9e0175	-0.30860487
39	0x3df61f50	0.12017691
40	0x3eb2dad3	0.34932575
41	0xbe7a74a9	-0.24458565
42	0xbdd5a075	-0.104309954
43	0x3e31e932	0.17374113
44	0x3bf88961	0.007584736
45	0x3d1041a6	0.035218857
46	0x3e23c2fa	0.15992346
47	0x3c91f12e	0.017815199
48	0xbc9e909a	-0.01935606
49	0x3d9b9be3	0.075980924
50	0x3e23615f	0.15955113
51	0xbd0857d0	-0.03328687
52	0xbc437365	-0.011929368
53	0xbea8f4c5	-0.32999244
54	0x3e2e4afd	0.17020793
55	0xbd97edca	-0.074184015
56	0xbde5ed1e	-0.11226867
57	0xbf009367	-0.5022492
58	0xbec79ffb	-0.38989243
59	0x3e48e784	0.19619566
60	0x3e38d2e6	0.18049201
61	0xbf5b4122	-0.8564626
62	0xbe66a389	-0.22523321
63	0x3d031b06	0.032008193
64	0x3d12f31c	0.03587638
65	0x3ec54a13	0.38533077
66	0x3d93be5a	0.07214041
67	0x3eba51da	0.36390573
68	0x3d80fd77	0.062983446
69	0xbc900e5d	-0.017584974
70	0xbdb50dd3	-0.088405274
71	0xbeb0dc55	-0.345431
72	0x3de1ee2e	0.11031757
73	0x3e718c9a	0.23588791
74	0x3e52d95c	0.20590729
75	0xbeb9ea2f	-0.3631148
76	0xbe937745	-0.28801933
77	0xbe2d3444	-0.16914469
78	0xbe553b2e	-0.20823357
79	0xbf3ce78a	-0.737908
80	0xbe7e8b42	-0.2485781
81	0x3e28e678	0.16494167
82	0x3ebff7b4	0.3749367
83	0xbdb0449e	-0.08606838
84	0x3e67ddc3	0.22643189
85	0x3f034782	0.5128099
86	0xbf19aadd	-0.6002634
87	0xbd80290a	-0.062578276
88	0xbe5eca55	-0.21756871
89	0x3dde667c	0.10859391
90	0x3ef4f681	0.47844318
91	0xbdf0fe0c	-0.117672056
92	0x3e1b5fc4	0.1517325
93	0x3e84b9e1	0.25923064
94	0x3e71b109	0.2360269
95	0xbd56e0d3	-0.052460503
96	0xbe0cb04d	-0.13739128
97	0xbf023285	-0.50858337
98	0xbe6c3c99	-0.23069991
99	0xbd61009d	-0.054932225
100	0xbce41ac6	-0.027844798
101	0x3eb86655	0.36015573
102	0x3f03eac9	0.5153013
103	0x3e507cb9	0.20360078
104	0xbead614e	-0.338633
105	0xbf32b315	-0.6980451
106	0xbdb63b4c	-0.08898029
107	0xbf4901f0	-0.7851858
108	0xbe5d58e8	-0.21615946
109	0xbf21d412	-0.6321422
110	0xbeb44e3e	-0.35215944
111	0xbf515e86	-0.81784856
112	0x3e7fadfb	0.24968712
113	0xbefb9fb0	-0.4914527
114	0x3cb8b92c	0.022549234
115	0xbe9a74a7	-0.30167124
116	0xbeb92102	-0.36157995
117	0xbe04aa52	-0.12955597
118	0xbec7cca9	-0.3902333
119	0xbf249024	-0.6428244
120	0xbe51d2bb	-0.20490544
121	0xbdbf8ab3	-0.09352627
122	0x3e08b144	0.13348871
123	0xbe6b6005	-0.22985847
124	0xbec56842	-0.38556105
125	0xbee7315d	-0.4515485
126	0xbfa9df32	-1.3271239
127	0xbef59b2f	-0.47969958
128	0xbe9b85ff	-0.30375668
129	0xbec4cfbb	-0.38439736
130	0x3eaab896	0.33343953
131	0x3edca32b	0.43093237
132	0x3e81d450	0.25357294
133	0xbf102488	-0.5630574
134	0xbe2e89d2	-0.17044762
135	0xbeb28dbf	-0.3487377
136	0xbe5c8a68	-0.21537173
137	0x3dbf0c07	0.09328466
138	0x3e12e017	0.14343296
139	0x3e04441f	0.12916611
140	0xbac9cc0d	-0.0015395895
141	0xbd2299af	-0.039697345
142	0x3e70ca78	0.23514736
143	0x3dc92661	0.09821773
144	0x3e15e23f	0.14637087
145	0x3d4e0597	0.0502983
146	0x3df1f0c7	0.11813503
147	0x3e170a20	0.14749956
148	0x3dd687da	0.104751304
149	0xbf3553ed	-0.70831186
150	0xbe60de3f	-0.2195978
151	0xbeccab14	-0.39974272
152	0x3dbde652	0.09272446
153	0x3dbd53e9	0.0924452
154	0xbf16d6a4	-0.58921266
155	0xbdab9e36	-0.08379786
156	0x3d226e9d	0.03965627
157	0xbe652ed3	-0.22381143
158	0x3ce75e6a	0.028243262
159	0x3ddaef45	0.10690168
160	0x3e15b577	0.14620005
161	0x3e8e61ac	0.27808893
162	0x3d379329	0.044818077
163	0xbd9a30e1	-0.07528854
164	0xbea4c824	-0.32183945
165	0xbe02fc96	-0.12791666
166	0xbe384c8b	-0.17997949
167	0xbebecce0	-0.37265682
168	0x3e4d86f6	0.20071015
169	0x3d39659a	0.04526291
170	0xbe55c2a6	-0.20875034
171	0xbdb3a722	-0.087721124
172	0xbedcfbc3	-0.4316083
173	0xbef80494	-0.48440993
174	0x3e345716	0.17611346
175	0x3ef0f800	0.4706421
176	0xbe95875a	-0.29204828
177	0x3d33426e	0.043764524
178	0x3ececc44	0.40390217
179	0xbeba2277	-0.3635442
180	0xbd0e0eeb	-0.034682196
181	0x3e4d8095	0.20068581
182	0x3e2a46fb	0.1662864
183	0x3e7ae306	0.24500665
184	0x3ea5a0ec	0.32349336
185	0x3f2a2db6	0.66476
186	0xbe0c6d58	-0.13713586
187	0xbe6716e4	-0.22567326
188	0xbe61c0dc	-0.22046226
189	0xbe927365	-0.28603664
190	0xbe396da4	-0.18108231
191	0xbf26e259	-0.6518913
192	0xbe23bb5e	-0.15989444
193	0xbe88f6de	-0.26750845
194	0x3d0b9ace	0.03408318
195	0xbd1d01df	-0.038331863
196	0x3e477fb9	0.19482316
197	0x3ea1bd4b	0.31589732
198	0x3c47222c	0.012154143
199	0xbc6bb3c1	-0.014386118
200	0xbe0ddb8e	-0.13853285
201	0x3d3f9dc5	0.04678132
202	0xbd602633	-0.05472393
203	0x3dc5f6be	0.09666203
204	0xbe6bf7dc	-0.2304377
205	0xbee186f6	-0.4404828
206	0x3e8f7348	0.2801764
207	0xbde75faa	-0.11297543
208	0xbea89b72	-0.32931095
209	0xbced8833	-0.028995609
210	0x3e018ce9	0.12651409
211	0x3e9458fc	0.2897414
212	0xbed19aaf	-0.40938327
213	0xbba89826	-0.0051450906
214	0xbe5e5dab	-0.21715419
215	0xbc90b7f7	-0.017665846
216	0xbd8dfbfc	-0.06932828
217	0x3e9dbfe7	0.30810472
218	0xbd360589	-0.044438872
219	0x3d3fdf4e	0.04684382
220	0xbb85ef22	-0.0040873447
221	0x3d640a9b	0.055674177
222	0x3e746e50	0.23870206
223	0x3d3313a0	0.043719888
224	0x3eeb862d	0.46000805
225	0x3eec73c7	0.4618208
226	0x3dac9801	0.0842743
227	0xbd8c968c	-0.06864652
228	0xbd9fbf89	-0.07800204
229	0xbd86875d	-0.06568787
230	0xbe7d274d	-0.24722023
231	0x3eabd035	0.33557287
232	0x3e96ec53	0.29477176
233	0xbf13a7f7	-0.5767817
234	0xbe4466cd	-0.1917984
235	0x3f3bad45	0.73311263
236	0xbe197d37	-0.14989172
237	0x3d818fcb	0.063262545
238	0x3c648374	0.0139473565
239	0xbf24b65f	-0.64340776
240	0x3eb64266	0.35597533
241	0x3d91a309	0.071111746
242	0xbe54c044	-0.20776469
243	0xbe327427	-0.17427121
244	0xbd996aec	-0.07491097
245	0x3b7c0c1e	0.003845937
246	0x3dc3ae65	0.095547475
247	0x3e91f0b0	0.28503942
248	0xbe3ccdf1	-0.18437935
249	0x3e96c78f	0.29449126
250	0xbcad2065	-0.021133611
251	0x3e4837f6	0.19552597
252	0x3e775e64	0.24157101
253	0x3cf51d8e	0.02992132
254	0x3e9834b8	0.2972772
255	0xbe7a457d	-0.2444057

fc.0.bias f4 [10]
0	0xbd3f6c7f	-0.04673433
1	0x3d66332c	0.056201145
2	0xbd535d16	-0.051602446
3	0x3af159fe	0.0018413661
4	0x3d38b57b	0.04509495
5	0xbcc9ffbd	-0.024658078
6	0xbdc4a5a4	-0.09601906
7	0xbc85c405	-0.016328821
8	0x3e3a02e8	0.18165171
9	0xbd8cb125	-0.06869725
