log/epoch-30.pth (torch_old, 43962 bytes, 32 tensors)

conv1.0.weight f4 [2, 1, 3, 3]
000000 ab 78 9d 3e 06 b5 70 3e ec c1 b0 3e f9 81 06 3f
       0.30756125 0.23506555 0.3452295 0.5254207
000010 fe 96 7a 3f b4 37 1d 3f a2 7b 88 3f ae 4e 45 3f
       0.97886646 0.6141312 1.066273 0.7707318
000020 b9 50 c6 3e 15 8b 07 3f 1a f3 4d bf 19 40 de bf
       0.38733461 0.529466 -0.8044907 -1.7363311
000030 38 2b 9d be 15 c6 aa bf b6 8e f4 bb 18 67 57 bf
       -0.30697036 -1.33417 -0.0074633015 -0.84141684
000040 bb d4 e3 be 59 b9 89 3e
       -0.44498238 0.26899222

conv1.0.bias f4 [2]
000000 e3 d2 6b 3f 23 db 6a 3f
       0.9211866 0.91740626

conv1.1.weight f4 [2]
000000 6a 4d 99 3f be a1 98 3f
       1.197675 1.192436

conv1.1.bias f4 [2]
000000 35 e4 26 3f 94 d7 2c 3d
       0.65191966 0.04219778

conv1.1.running_mean f4 [2]
000000 b6 5f ce 3f 47 5e 99 3e
       1.6122959 0.2995474

conv1.1.running_var f4 [2]
000000 0a 51 f2 3f 65 ad dc 3f
       1.8930981 1.7240416

conv21.0.weight f4 [4, 2, 3, 3]
000000 0c 4a 35 3e c2 09 9e 3e 60 6a 35 bd 82 bd 86 3f
       0.17704028 0.3086682 -0.0442909 1.0526583
000010 64 49 30 bf 5d d9 cb be 32 05 3d 3f 12 af 0b bf
       -0.68861985 -0.39814273 0.7383605 -0.5456401
000020 7a f8 58 3d 6a fa 12 3f 0a 9e 3c be 59 48 1b be
       0.05297134 0.5741335 -0.18419662 -0.15164317
000030 3a 83 3c bf 9d 5c a9 3f bf d7 9b bd df 62 5d bf
       -0.73637736 1.3231388 -0.0760951 -0.8647899
000040 4e 2b ce 3e 5e dc 62 be 7f bd 60 be bb b9 05 3f
       0.40267414 -0.22154376 -0.21947287 0.5223653
000050 08 2b 73 be 93 8d 96 3f a1 f9 9b be ed 34 05 bf
       -0.23746884 1.1761955 -0.3046389 -0.52033883
000060 e1 64 e6 be 46 2e 00 bf 29 da c0 3e 1d 62 a0 bd
       -0.4499884 -0.5007061 0.37666443 -0.078312136
000070 b8 23 59 be 55 de fd 3e e0 d5 62 3e 17 2e 83 3f
       -0.21205032 0.49583688 0.221519 1.024844
000080 78 22 74 3f 23 04 e2 bc 62 a8 05 3f 91 26 dc be
       0.95365095 -0.027589863 0.52210057 -0.42998174
000090 96 77 f9 bd d9 50 99 3f f2 8e 2c 3f df 57 8a 3e
       -0.12181012 1.1977798 0.6740562 0.27020165
0000a0 13 15 41 3f 67 e3 fa bb e1 5b 86 3e 21 ee 2c be
       0.7542278 -0.007656503 0.26241973 -0.16887714
0000b0 cc 2a f6 be ff dd eb 3d 84 e4 1c be 63 bc a1 bf
       -0.48079526 0.11516952 -0.15321547 -1.2635616
0000c0 ad 72 20 3f 29 f8 f6 be 36 19 97 bf 94 c7 e5 3e
       0.6267498 -0.48236206 -1.1804569 0.4487883
0000d0 9c 9a 3f bf da 6d 54 bf 76 a2 72 be 29 60 a0 be
       -0.7484529 -0.8298012 -0.23694786 -0.31323364
0000e0 5d a4 d3 be 39 f1 18 3f e6 aa 90 3f eb 65 d8 3e
       -0.41336337 0.59743077 1.1302154 0.42265257
0000f0 58 24 1d bf 2e 13 57 bf 75 b8 82 3e f9 1c b6 3c
       -0.6138358 -0.8401364 0.25531355 0.022230612
000100 23 43 da 3d ff 6d 25 3d 21 81 b2 3d d8 e7 81 bf
       0.106573366 0.040388104 0.08716036 -1.0148878
000110 38 47 a9 be c4 65 25 3e 36 8c 9e be 57 9a 13 bf
       -0.33062148 0.16152102 -0.30966347 -0.5765738

conv21.0.bias f4 [4]
000000 a6 4d cd 3e c8 59 80 bd f5 9b 1e 3f eb 90 93 3f
       0.40098304 -0.062671244 0.6195672 1.15286

conv21.1.weight f4 [4]
000000 25 dd 9e 3f 07 2f a5 3f 98 ef 9a 3f e1 04 a0 3f
       1.2411238 1.2904977 1.2104368 1.2501489

conv21.1.bias f4 [4]
000000 85 b5 0a bf 02 f5 35 3d fc b6 8f 3e 16 ff 57 3e
       -0.54183227 0.04442311 0.28069293 0.21093401

conv21.1.running_mean f4 [4]
000000 03 6e 8b 3f f9 bf 81 3f c4 08 91 3f c7 1f 87 3e
       1.0892948 1.013671 1.13308 0.26391432

conv21.1.running_var f4 [4]
000000 d5 79 89 40 3f 33 1d 40 17 52 60 41 40 11 e6 3f
       4.296122 2.4562528 14.020041 1.7974014

conv22.0.weight f4 [4, 4, 3, 3]
000000 15 19 43 bf de bf a6 bf 2a 46 6a bf 51 58 7c be
       -0.7621015 -1.3027303 -0.9151331 -0.24643065
000010 be e0 4e bf 54 eb be be 95 28 3e 3e 82 2b af bd
       -0.8081168 -0.37288916 0.18570168 -0.0855322
000020 ac ba 53 bf e7 b4 12 3f 43 44 b6 3e 4b 74 17 be
       -0.82706714 0.57307285 0.35598955 -0.14790456
000030 9b b0 ba be 21 b2 b2 3e 83 ea 95 3e 88 fc 94 bf
       -0.36462864 0.34901527 0.2928048 -1.1639566
000040 b0 47 7a be a8 fb f8 bd 38 27 0b bf da 55 bc bb
       -0.24441409 -0.121573746 -0.5435672 -0.005747539
000050 8d 6c 2e 3e 23 c0 8f bc 54 97 df be 50 00 2d be
       0.17033596 -0.017547673 -0.43670142 -0.1689465
000060 17 ee 9d 3d 58 e6 a8 3e c6 56 91 3e ee 3e ba be
       0.07711428 0.32988238 0.28386515 -0.36376137
000070 32 0c 09 c0 c0 d5 d0 bf fd 36 80 be 78 ae 20 be
       -2.1413693 -1.6315231 -0.25041953 -0.15691555
000080 e1 a2 31 3f d3 9a 50 3e e3 44 f5 3c b4 48 e5 3e
       0.6938916 0.20371561 0.029940074 0.4478203
000090 fe 77 b9 be d8 2b 2d bf cf 14 ca 3e f9 c1 d8 bc
       -0.3622436 -0.67645025 0.39469 -0.02645968
0000a0 9a 37 e5 be 9e 83 7a be 58 d7 f0 be e2 a0 33 bf
       -0.44768983 -0.2446427 -0.47039294 -0.7016736
0000b0 dc 62 79 bd 4f 59 32 bf 94 48 46 bf 9c 61 78 bf
       -0.060885295 -0.69667524 -0.77454495 -0.9702394
0000c0 f6 75 2d 3d 6a e9 b1 be 15 8e 67 bf 9e ac 68 3f
       0.042348824 -0.34748393 -0.90451175 0.9088839
0000d0 92 64 57 3e dd 18 82 bd e5 79 85 3f 08 9d 9f 3f
       0.21034458 -0.063523985 1.0427824 1.2469797
0000e0 2b 81 0b 3e af 97 01 be 10 52 78 b9 c5 0f 0d be
       0.13623492 -0.12655519 -0.00023681694 -0.13775547
0000f0 9a b9 e2 be b0 26 15 be b4 4e 1c 3c 90 75 26 bf
       -0.44282228 -0.1456554 0.009540249 -0.65023136
000100 94 b2 08 3f bd 95 72 3f 3f 36 b8 3d 8e e0 92 3e
       0.5339749 0.9475973 0.089947216 0.28686947
000110 94 1a 3e 3f 31 df 79 bd da 21 97 bc 16 1c bf bd
       0.74259305 -0.061003868 -0.018448759 -0.09331529
000120 4e 88 f2 be b4 17 8e be bb 1d 32 3f 24 40 5d bf
       -0.47369617 -0.2775246 0.69576615 -0.86425996
000130 5f 3a b9 3d a8 a6 1e 3f 76 b5 02 3f 4b 5d 78 3e
       0.090443365 0.6197305 0.5105814 0.24254338
000140 46 12 24 3f 4a ac 57 3d 96 23 91 3c e2 85 ef be
       0.64090383 0.052654542 0.017717164 -0.46781832
000150 6a 70 d3 3e 0c c7 08 3f b4 bb 2e be c4 d7 25 3f
       0.41296703 0.5342872 -0.1706379 0.6478236
000160 90 2d 82 3f 42 2f be 3d db cb 9f 3e 71 cb a0 bd
       1.0170155 0.092863575 0.31210217 -0.07851303
000170 bf 7d 8f be cf 19 02 bd c0 76 26 3f 15 14 7c 3f
       -0.28025624 -0.031762894 0.6502495 0.9846814
000180 29 97 f4 3e 4d 96 91 3f 53 e0 6e 3f 6c f9 7b bd
       0.47771576 1.1373993 0.9331104 -0.061517164
000190 a5 73 05 bf 7b a6 f5 be 48 23 40 bf 5c 3a 8a be
       -0.52129585 -0.47978577 -0.75053835 -0.2699765
0001a0 dd b7 0c bf 18 78 94 be 13 8a 8e 3d 21 67 a5 be
       -0.54968053 -0.28997874 0.06959929 -0.32305244
0001b0 c5 2f 54 be 77 ae 81 be 4f 3b c8 be 31 ab 21 bf
       -0.20721348 -0.2532842 -0.3910775 -0.6315184
0001c0 89 e1 09 bf e9 6f 18 bf c5 4b 32 3f c6 4f 5a 3e
       -0.53859764 -0.5954576 0.69646865 0.21319494
0001d0 5f 03 e1 be 7f 53 72 3f b8 ea 8a be a5 8d c3 3c
       -0.43947884 0.94658655 -0.271322 0.023871252
0001e0 b5 0e a2 bf ab 12 5b bd 3e 57 0d 3f 47 b1 f2 3e
       -1.2660738 -0.0534846 0.55211246 0.47400877
0001f0 2d ce 24 be 02 6a bf bb 05 a2 6f bd 1f a3 05 bf
       -0.16094275 -0.0058414945 -0.058504123 -0.5220203
000200 5b e5 44 bd ee fd 22 3f 81 0f 8b 3e 2d 4d 38 be
       -0.048070293 0.63668716 0.27160266 -0.1799819
000210 b2 53 64 3f c6 35 58 3e dc c2 d6 be 1b 19 fe 3d
       0.8919021 0.21114263 -0.4194554 0.12407132
000220 02 5b 0f 3e ed 4a ab 3e 9a 52 6c 3e 01 ca 29 3f
       0.1399956 0.334556 0.23078385 0.6632386
000230 3f 27 58 3f 81 90 75 3e fa 81 3f bf 48 fb 3f bf
       0.84434885 0.23980905 -0.74807703 -0.749928

conv22.0.bias f4 [4]
000000 be cd de 3e 98 8c c2 bd 8a 64 0d 3e 9b 2e c5 bc
       0.43516344 -0.094994724 0.13807884 -0.024070075

conv22.1.weight f4 [4]
000000 82 56 d2 3f 6f 31 91 3f 3c 68 99 3f cf a3 83 3f
       1.643265 1.1343211 1.1984935 1.0284365

conv22.1.bias f4 [4]
000000 7b 37 69 be 27 d1 80 3e 47 a5 9d 3e 2e a2 76 3c
       -0.2277507 0.2515957 0.3079016 0.015053315

conv22.1.running_mean f4 [4]
000000 a0 ec 32 c0 d5 9d 30 be 8e f0 15 40 e8 4c c2 3e
       -2.7956924 -0.17247708 2.3428073 0.379493

conv22.1.running_var f4 [4]
000000 2c b1 d2 41 95 ee 22 41 2b 1d 4a 41 ef 33 d9 40
       26.33651 10.183248 12.632121 6.7875896

conv31.0.weight f4 [8, 4, 3, 3]
000000 51 33 85 be 62 33 2c be b1 0a 8d 3e 2f d1 d5 3d
       -0.26015714 -0.16816476 0.2754722 0.10440289
000010 f4 26 80 be 07 37 cf 3e 39 30 89 3e 8a b0 50 3f
       -0.2502972 0.4047167 0.26794603 0.8151938
000020 f0 01 ed bd 9e 1a 3b 3e ee 69 5d 3e c5 91 21 bf
       -0.11572635 0.18271872 0.2162244 -0.6311305
000030 a1 cb 84 be 89 3d 30 3f 10 df d7 3f 6f 51 4b 3e
       -0.25936607 0.68843895 1.6864948 0.19855283
000040 8a 10 ed be fc 1e f9 3d 15 e3 11 be b4 2f 56 3f
       -0.4630168 0.12164113 -0.14246781 0.8366654
000050 96 92 fa bd 34 3e 39 be 6c fd 8a 3e 87 fd 01 be
       -0.1223499 -0.18090135 0.2714647 -0.1269437
000060 ad 4b 07 3f f8 01 b7 3c cb 57 20 3f 1e 8b 19 bf
       0.5284985 0.022339806 0.6263396 -0.599779
000070 46 b9 03 be 37 d5 d3 be ca f4 c6 3d 54 5a ee be
       -0.12863645 -0.41373608 0.097146586 -0.4655329
000080 5f e7 d0 3e 31 2e 4c 3e 72 3f d8 be a7 6a 40 bf
       0.40801522 0.19939496 -0.42235905 -0.7516274
000090 a6 1b 2c 3f 9a 85 af 3f 17 41 a8 3e 13 cd 02 be
       0.6722969 1.3712647 0.3286216 -0.12773542
0000a0 d7 4b c1 be 23 7b 20 3e 33 c2 a1 3e 96 a3 ce 3f
       -0.37753174 0.15671973 0.31593475 1.6143672
0000b0 4f be c6 3f 85 4d 1e be 8b 66 3c bd a6 0e 49 3e
       1.5526828 -0.15459259 -0.04599623 0.19634494
0000c0 63 59 8f 3e 93 59 ea 3e f4 3b 26 3e b7 67 aa 3c
       0.27997884 0.45771465 0.16233808 0.020801408
0000d0 e2 b5 e0 bc 87 8d a4 be 92 73 33 bf c4 5a 54 bf
       -0.027430478 -0.32139227 -0.7009822 -0.82951
0000e0 f6 85 9b 3d 44 e9 37 3f 74 0b 39 be 5c c6 84 be
       0.075939104 0.7184031 -0.18070775 -0.25932586
0000f0 f3 08 df 3e 14 16 34 bf d8 73 f3 be 2f 31 50 3e
       0.43561515 -0.7034619 -0.4754932 0.20331262
000100 8d 61 2e be 01 de 48 3e 64 50 2e 3f 3b 28 4d 3e
       -0.170294 0.19615938 0.68091416 0.20034878
000110 59 5e 36 3e eb 95 32 3f 23 49 e7 3d de 4c d6 3b
       0.17809428 0.69760007 0.112932466 0.006539925
000120 a6 7d db 3d fd fd 8b be 9e 4e 52 be ea 13 23 3f
       0.10717325 -0.27342215 -0.20537803 0.6370226
000130 16 78 2f 3f 6f 82 63 bf a5 4c 60 3f 65 b8 0c bf
       0.6854261 -0.888709 0.8761695 -0.54968864
000140 60 57 53 bf 96 53 41 3e e8 e8 32 3f 70 cf 8d be
       -0.825552 0.18879542 0.69886637 -0.27697325
000150 9d d3 5c 3e 78 25 5a bf bb 75 b4 3e e0 85 64 bf
       0.21565099 -0.8521342 0.3524607 -0.8926678
000160 ca f6 52 bd 2d 7f 02 3f 42 28 f0 be 1b 26 65 bf
       -0.051504888 0.50975305 -0.46905714 -0.8951127
000170 29 ae 90 3d 43 a6 3f be 0c 0d c2 3f f6 34 95 be
       0.070644684 -0.18715768 1.5160232 -0.29141968
000180 71 54 15 bf 9b fb 29 3e 02 f0 30 3e 9d 52 10 3f
       -0.5833197 0.16599886 0.17279056 0.5637606
000190 a6 1d a7 be 07 82 15 bf 92 15 d1 bd 0f 07 6e be
       -0.32639807 -0.5840153 -0.10209192 -0.2324488
0001a0 7d c8 ee 3e 4e 69 ef 3e ad 37 8b 3d 06 18 24 bf
       0.46637335 0.4676003 0.06797729 -0.64099157
0001b0 94 7a b9 be 0a b8 20 3e 29 2c eb bd a6 93 cd be
       -0.36226332 0.15695205 -0.11483032 -0.4015171
0001c0 44 de 83 bf 0a e3 05 3f 37 2e 54 bd a7 1f 64 bf
       -1.0302205 0.5229956 -0.051801886 -0.891108
0001d0 43 4a d9 be 77 4b 19 bd 8c e0 9b bf e9 8e 03 3f
       -0.4243947 -0.037425485 -1.2177901 0.5138994
0001e0 9e 6a 62 3f 00 cc 22 3f 89 10 11 3e aa 3d ed bd
       0.88443935 0.6359253 0.14166464 -0.11584027
0001f0 04 f1 4f 3f d3 e9 09 3f df f7 c1 bd 97 cf ff be
       0.81227136 0.5387241 -0.09471106 -0.49963066
000200 12 e4 91 be 28 a5 2d 3f 59 14 bc 3e 2f 12 5e bf
       -0.28494316 0.67830133 0.36734274 -0.86746496
000210 67 14 b1 be 11 23 58 bf 6c 35 c3 be c1 af 09 bd
       -0.34585878 -0.8442851 -0.38126695 -0.033614878
000220 b3 0d 11 3f ce 53 06 3f ac c7 15 3f 77 6f c3 be
       0.5666153 0.52471626 0.585078 -0.38170978
000230 7d 42 cb be 73 b5 80 bf dc 67 ad 3c 6d d2 bd be
       -0.39699164 -1.0055374 0.021167688 -0.37074605
000240 db 41 7c 3e 47 d8 b6 be 3e 2b ea 3d 39 03 e8 3e
       0.24634497 -0.35711882 0.11434029 0.4531496
000250 af 50 56 be b1 e5 ae bd 5a 91 ee 3b 58 2d 5a 3e
       -0.20929216 -0.08539904 0.007280511 0.2130636
000260 9f 06 8f 3f 38 d6 83 bf 05 c3 50 3f 4f 24 e7 be
       1.1173896 -1.0299749 0.81547576 -0.4514489
000270 bf 06 02 bd bb e6 cc be 0d 5c 45 bf 48 b7 ca 3d
       -0.031744715 -0.40019783 -0.77093583 0.098982394
000280 e0 b5 ae bf 3c c7 c1 bd b3 10 d2 bd fe 29 98 be
       -1.3649254 -0.09461829 -0.102570914 -0.29719537
000290 34 a5 ea 3e eb a0 5a 3e 70 70 ca be e5 15 e5 3e
       0.45829165 0.21350448 -0.39538908 0.44743267
0002a0 d7 3f 32 3e 46 e5 8a bf aa 24 e8 bd 88 af 40 bf
       0.17407165 -1.0851219 -0.11335118 -0.7526784
0002b0 ca 6e 9a be 14 e7 83 3e 27 08 9c 3f c9 9b 5e 3e
       -0.3016265 0.25762236 1.2189988 0.21739115
0002c0 1d 56 49 be 3e b1 01 bf 15 f6 df bc 0f 3b 82 3e
       -0.19661756 -0.50661075 -0.02733902 0.25435683
0002d0 3e 0d ff 3d 30 85 26 bf 16 7c 85 3f bf cb a2 be
       0.124536976 -0.6504698 1.0428493 -0.3179607
0002e0 22 f9 3f be 6a bf 68 be 08 75 11 3d 69 91 1b bf
       -0.1874738 -0.22729269 0.035512 -0.60768753
0002f0 1a e6 75 bf 8d b3 31 be 87 04 ee be c9 12 bb be
       -0.9605423 -0.1735365 -0.4648783 -0.3653777
000300 49 e7 8f 3c 21 8b bb be 5a 48 9a bd 21 5c 79 3e
       0.01756634 -0.36629584 -0.07533331 0.2435155
000310 b7 8c 0f 3f 94 5b e4 be b2 ae 51 be 87 fc 83 3f
       0.5607409 -0.4460112 -0.20476797 1.031144
000320 aa 33 bc 3d 0d b0 92 be 73 0b 88 3e 19 4c dd bb
       0.09189542 -0.2864994 0.26571235 -0.0067534563
000330 8e d2 f6 be 9e 8c dc 3e 85 b2 80 3c b9 17 30 bc
       -0.48207515 0.43076032 0.015710125 -0.010747843
000340 f2 48 e5 bf c6 50 61 bd ee 79 34 bf 3d 11 86 bf
       -1.7912886 -0.055008672 -0.7049855 -1.0474011
000350 10 76 0e 3f c7 35 16 3e a9 43 de be 60 7d 81 be
       0.556489 0.14668952 -0.43410996 -0.25290966
000360 ef 15 1f be b8 8e bc be 2a 8d 6b bf 01 4d 0c be
       -0.15535711 -0.36827636 -0.92012274 -0.1370125
000370 bb 75 15 3f e2 06 58 be 06 5b 18 bf 9f 82 b3 3d
       0.5838277 -0.21096376 -0.5951389 0.08765148
000380 4f 96 00 3f e3 25 2b bf 27 b3 01 3e f5 e3 4f bf
       0.5022935 -0.66854686 0.12665997 -0.8120721
000390 bf 5d c1 be 82 77 bb bd d2 2a 06 3f 57 b3 cf 3d
       -0.37766835 -0.09153654 0.5240909 0.10141628
0003a0 54 51 5e 3e 48 e3 9f 3e 75 73 08 bf 84 21 bb bd
       0.21710712 0.3122809 -0.53301173 -0.09137252
0003b0 e2 d4 ab 3e dd ee aa 3f ee 31 90 3f 14 44 30 bf
       0.33560854 1.3354145 1.1265237 -0.6885388
0003c0 35 54 91 be 24 15 06 bf dc d8 0d 3e 9c 52 33 3e
       -0.28384557 -0.5237601 0.13852257 0.17511982
0003d0 e2 2c 50 bf d8 15 cf be 0f c8 53 be 49 a7 0f 3e
       -0.81318486 -0.40446353 -0.20681785 0.14028658
0003e0 3e 69 8e be 19 96 42 3e d0 c0 92 3e e8 37 49 3f
       -0.27814668 0.1900257 0.2866273 0.7860093
0003f0 a0 11 25 3e 6f 28 f7 3e a7 33 80 3f c9 59 e4 3e
       0.16120005 0.48273036 1.0015763 0.4459975

conv31.0.bias f4 [8]
000000 d8 a4 d4 3e a2 9b a2 bd 53 3a b5 be dd fb ab bd
       0.41532016 -0.07939841 -0.3539606 -0.083976485
000010 37 86 30 be bd a3 7e bd 6f 54 b6 be eb 22 08 3e
       -0.17238699 -0.06216787 -0.35611293 0.1329457

conv31.1.weight f4 [8]
000000 59 a3 82 3f a5 ad 90 3f e4 7b 9e 3f 28 e6 a6 3f
       1.02061 1.1302992 1.2381558 1.3038988
000010 b6 7c a8 3f 67 70 a5 3f 87 89 b2 3f f0 59 d1 3f
       1.3163059 1.2924927 1.394822 1.6355572

conv31.1.bias f4 [8]
000000 e4 6f 28 3e 96 2b 12 3c 36 43 2c 3c ed f0 90 3b
       0.16448933 0.0089215245 0.010514071 0.004423252
000010 92 85 7a be 1e 4d a7 bd b7 08 bb 3d bf 99 95 be
       -0.24465016 -0.08169006 0.091325216 -0.2921886

conv31.1.running_mean f4 [8]
000000 71 d5 28 40 b7 a1 48 40 f8 f0 9d bf 06 67 14 c0
       2.6380274 3.1348703 -1.2339163 -2.318788
000010 19 06 1c c0 53 af 66 c0 fe 11 1e bf 98 10 28 c0
       -2.4378722 -3.604451 -0.61746204 -2.6260128

conv31.1.running_var f4 [8]
000000 ea ae e7 40 d9 74 29 41 da 7a ea 40 c6 ad 4d 41
       7.240102 10.591027 7.3274965 12.854925
000010 5e c1 2f 41 04 9b 2e 41 79 7a 25 41 08 79 9d 41
       10.984709 10.912846 10.342401 19.684097

conv32.0.weight f4 [16, 8, 3, 3]
000000 c1 52 61 3e 4c 25 35 3f 83 a7 90 3d cd dc 0c be
       0.22004224 0.70760036 0.070632 -0.13756104
000010 da d2 54 bf c0 a0 32 3f 66 f6 51 be fe 31 b5 be
       -0.83134234 0.69776535 -0.2050415 -0.35389704
000020 48 2f 92 be 01 93 95 be 09 15 7c bf 43 24 87 bd
       -0.28551698 -0.29213718 -0.984696 -0.06598713
000030 f5 88 69 3f 5a 9c 53 bc cb d7 df be de 65 87 3f
       0.91224605 -0.012915695 -0.43719324 1.0577962
000040 e7 6a e3 3d e5 27 89 be 0d 22 4b bf 23 20 81 3e
       0.111043744 -0.2678825 -0.7934883 0.2521983
000050 6c 9c b6 3e 27 9b 13 3e bd 71 8c bd 14 85 74 3f
       0.35666215 0.14414655 -0.06857631 0.9551556
000060 b1 b0 a2 3e e5 01 a0 3e 8c 2e ca bf 2c 65 c3 3e
       0.3177543 0.31251445 -1.5795455 0.38163126
000070 db b1 94 3d f2 69 dd bd 52 6f 28 3d 53 35 00 bd
       0.07260486 -0.10811223 0.04112179 -0.031300854
000080 73 07 0d 3c 5d 4c a8 bd 19 94 1d bd 79 9e f2 bd
       0.008607733 -0.0821769 -0.038471315 -0.118466325
000090 cb c8 3a bf ac 25 3e 3e 9c f8 21 3f fa fb ec 3d
       -0.72962636 0.18569058 0.6326997 0.11571498
0000a0 79 31 04 bf 58 12 5a be ad 76 b1 3e 3c c5 a7 be
       -0.5163799 -0.2129606 0.34660855 -0.32767665
0000b0 fc 74 90 bf f0 fd bb be 13 6e 1e be 1b eb a5 be
       -1.1285701 -0.36717176 -0.15471677 -0.32405934
0000c0 96 2f c7 be c2 a5 7e bf dc 4b f6 bd 11 af 8d 3f
       -0.38903493 -0.99471676 -0.12026188 1.1069051
0000d0 6d 14 31 3f 2b 99 4c be c8 a5 2f bf fa df 82 be
       0.6917179 -0.19980304 -0.6861234 -0.25561506
0000e0 92 51 d5 3e 7f ee 3f be 16 cb 15 be ac 16 f1 3e
       0.41663796 -0.18743323 -0.14628252 0.4708761
0000f0 48 d2 90 be d2 7b 58 3e 73 4c 97 bf df b8 0f 3e
       -0.28285432 0.21140984 -1.1820205 0.14035366
000100 77 64 c6 3e cc fe ee bb 9a 29 1b bf dd f4 05 bf
       0.38748524 -0.0072935577 -0.60610354 -0.52326757
000110 d8 7b d4 be 58 64 b5 be b5 a3 2c bd 89 20 d2 be
       -0.41500735 -0.3542812 -0.04214831 -0.41040447
000120 9a ed b7 3d cc 82 91 3f ef 78 b8 3e 0f c2 b8 be
       0.08980866 1.1368041 0.36029765 -0.36085555
000130 05 e1 86 3e 92 c4 bd 3e 34 50 5f bf 2c 24 f9 be
       0.2634355 0.37064034 -0.87231755 -0.4866041
000140 fc e4 6c be 4e 57 c2 3d fa ba 3c bf ad c8 7e be
       -0.23134226 0.09489308 -0.73722804 -0.24881239
000150 16 1c e4 3d 3b 41 b1 3e 78 f0 b1 3d 9f 20 be 3d
       0.111381695 0.3462008 0.08688444 0.09283566
000160 f2 61 28 3f ab 43 9d 3e 07 38 b7 3d 85 94 aa 3d
       0.6577445 0.3071569 0.08946233 0.08329109
000170 7b fb 91 bf fc 07 12 bf 09 f0 0f 3e 92 73 54 3f
       -1.1404871 -0.57043433 0.1405641 0.82988846
000180 70 52 76 3e d8 53 a1 be a0 e2 3a be 0f 40 2d bd
       0.24054885 -0.3150928 -0.18250513 -0.04229742
000190 52 3f e6 be c7 57 0e 3c 84 b7 4a bf 4e 27 63 3f
       -0.44970185 0.00868792 -0.7918627 0.8873185
0001a0 f6 a0 65 bf 4f 7e 73 bf ff 79 27 be 03 e5 a2 be
       -0.8969873 -0.95114607 -0.16355132 -0.31815347
0001b0 59 1e e9 3e 9f 4f 16 3e ba e1 77 bf 80 be 72 3e
       0.45530966 0.1467881 -0.96828806 0.23705482
0001c0 67 fa 0e 3f 76 4c 06 bf 7e 52 17 3f ef 6b ea 3e
       0.55850834 -0.5246042 0.5911025 0.45785472
0001d0 64 1b 49 3e b2 b3 1b 3f b8 b1 35 bf 3f a9 17 3e
       0.19639355 0.6082107 -0.709743 0.14810656
0001e0 fd ad 41 bf 80 02 3a bf 36 59 e4 be dd 35 66 3e
       -0.7565611 -0.72660065 -0.44599313 0.22481485
0001f0 00 ab b4 3d 48 1e ca be a8 25 1f bf 31 26 94 3e
       0.08821678 -0.39476228 -0.62166834 0.28935388
000200 74 9d 83 3e 52 f1 e7 3d ab 92 45 3d 35 cd 12 3e
       0.25706065 0.11325325 0.048235577 0.14336093
000210 3e cd ac 3c 23 2d bc 3d d6 ce d3 3b 1e 06 80 3f
       0.02109396 0.09188297 0.0064638657 1.0001867
000220 03 a1 5c 3d 89 f8 23 bf 51 bb 43 bf 4d 4d 55 3e
       0.05386449 -0.6405111 -0.764577 0.20830269
000230 e4 ef e5 be 42 7c 85 3e 3b 22 a0 3d 4d 90 8b be
       -0.44909585 0.26071364 0.07819029 -0.2725853
000240 e6 c6 c0 be 92 cd 66 3e 49 19 e0 3e d6 eb 90 bc
       -0.37651747 0.22539356 0.4376929 -0.01769058
000250 66 fd 32 3f ae 45 22 be 49 69 30 bf d0 dd 21 bf
       0.69917905 -0.15846893 -0.6891065 -0.63229084
000260 45 7a 2a bf b8 80 c7 bd b9 0c f2 bc 05 5f b5 3f
       -0.6659282 -0.09741348 -0.029547082 1.4169623
000270 1f 62 0d 3f 2f ca 33 3e e5 b7 0d bf e3 7d 45 be
       0.55227846 0.17557596 -0.55358726 -0.19286303
000280 1b 95 87 bf 75 e0 99 be ac c1 1f bd 98 7f 86 be
       -1.0592378 -0.3005406 -0.03900306 -0.2626922
000290 1d d0 d9 3e 38 62 01 bf c9 f5 2e bf 18 45 4a bf
       0.4254159 -0.50540495 -0.6834379 -0.7901168
0002a0 54 64 2b be ee b1 86 3e da 7a 14 3f c4 a3 09 bf
       -0.16737491 0.26307625 0.57999957 -0.5376551
0002b0 89 54 9a be 42 43 94 3e 03 57 95 3e cb 44 e9 3e
       -0.3014262 0.28957564 0.29167947 0.45560297
0002c0 f6 f5 ad be bc e2 d3 be ae db 68 bf dc 25 d9 be
       -0.33976716 -0.41383922 -0.90960205 -0.42411697
0002d0 d0 43 6e bf 42 eb 4b be c9 5f 4b bf 2e 28 72 3e
       -0.93072224 -0.19913962 -0.7944303 0.2364814
0002e0 9c 9d f5 3e 1f 82 19 bf 99 4a f0 3e 7c a6 8c 3d
       0.4797181 -0.59964174 0.46931913 0.06867692
0002f0 ca ee 00 3f a2 6a bb 3e b9 3b fa 3d 0d 02 80 3f
       0.50364363 0.36604792 0.122184224 1.0000626
000300 aa ee ae be d0 67 17 bf 51 90 44 bf 80 15 2b 3a
       -0.3416646 -0.5914278 -0.7678271 0.0006526336
000310 21 21 8b be 3c f0 be bd 60 c4 ca 3e 2d dc 83 3e
       -0.27173713 -0.09323165 0.39602947 0.25753918
000320 2f b0 f4 3e a9 e5 3b 3e 7e 86 21 3f 44 c4 31 bf
       0.47790667 0.18349327 0.63095844 -0.694401
000330 46 c9 b4 bf be 67 01 bf 49 7e f7 3e 7b 2f 8a be
       -1.4123924 -0.50548923 0.48338535 -0.2698935
000340 aa 19 03 bf e8 cf 9c 3d de 89 1b 3d a5 9a a2 3c
       -0.51211035 0.076568425 0.037973277 0.01984913
000350 ae e0 bd be e1 3b 12 bf a3 80 e2 3e 03 a2 af bd
       -0.3708548 -0.5712262 0.44238767 -0.08575823
000360 79 9f 0a bf 6c 32 5e bf 97 d9 86 3d f9 88 30 3e
       -0.54149586 -0.8679569 0.06584471 0.17239751
000370 a7 6f 83 3e 56 e2 e3 3d c4 a0 ba 3c 4b ae 81 bf
       0.2567112 0.111271545 0.022781737 -1.0131315
000380 99 60 a3 be ef 39 68 3d b8 d0 fc 3d 3b ae 34 bf
       -0.31909636 0.056695875 0.123444974 -0.70578355
000390 56 56 03 bf d5 fb f4 be cd 51 43 3d 72 06 36 bf
       -0.51303613 -0.47848383 0.047685433 -0.71103585
0003a0 df c3 9c bf 14 f5 5c 3f bf 33 d1 3e 07 dc 17 be
       -1.2247275 0.8631146 0.40859792 -0.14830028
0003b0 54 e6 92 be 24 62 7e 3f ec 7c 44 39 21 c3 49 be
       -0.2869135 0.993685 0.00018738554 -0.19703342
0003c0 c5 d8 f5 be 00 7b 10 bd 94 4f 54 bf a5 91 a8 3e
       -0.48016945 -0.035273552 -0.82933927 0.32923618
0003d0 bb e3 06 3f fd 00 9a bf 9b 9d 84 be 2a 49 7c bd
       0.5269124 -1.2031552 -0.25901493 -0.061593212
0003e0 f1 8e 1b bf 8a a0 6e be 1a 09 d6 be 63 02 04 3d
       -0.60764986 -0.23303428 -0.4180382 0.03222884
0003f0 06 e7 1f be 1e 7e 95 be bb 84 db bd 25 89 53 3f
       -0.15615472 -0.29197782 -0.10718676 0.8263114

conv32.0.bias f4 [16]
000000 8c bf 40 3e c6 b7 5f be 37 d4 1c 3e 5b c9 4f be
       0.1882307 -0.21847448 0.15315329 -0.20291655
000010 66 a9 09 be b5 c6 69 3e 57 60 2e 3e f4 61 14 bc
       -0.13443527 0.22829707 0.17028938 -0.009056557
000020 e1 32 32 be 89 d5 8d bd 05 b9 ff bc 0a 92 9d 3d
       -0.17402221 -0.06925494 -0.031216154 0.0769387
000030 53 13 35 3e 5f 35 bc 3d ee 07 52 bd 50 c0 9d 3d
       0.17683153 0.09189867 -0.051277094 0.07702696

conv32.1.weight f4 [16]
000000 e5 3c 95 3f 26 81 9e 3f bc 5d aa 3f 8f 53 d7 3f
       1.1659209 1.2383163 1.3309855 1.6822375
000010 32 10 a1 3f c8 95 a5 3f 64 54 b2 3f ec c3 bd 3f
       1.2583067 1.2936335 1.3932004 1.4825416
000020 e0 cb a6 3f 9c 8c a7 3f 84 94 af 3f 87 12 a5 3f
       1.3030968 1.3089786 1.3717198 1.2896279
000030 f7 f4 ad 3f 53 28 a8 3f 58 dd 9f 3f f9 0d b8 3f
       1.3590382 1.3137306 1.2489424 1.4379264

conv32.1.bias f4 [16]
000000 9b ae 15 bf 10 72 12 bf 38 88 11 bf 66 f9 80 bf
       -0.5846955 -0.57205296 -0.5684848 -1.007611
000010 f0 35 05 bf cd 65 1a bf 83 5a f2 be ad d0 48 bf
       -0.5203543 -0.60311586 -0.4733468 -0.78443414
000020 28 52 18 bf f3 35 09 bf 63 59 51 bf 1f 86 16 bf
       -0.5950036 -0.53597945 -0.8177702 -0.587984
000030 4b 99 46 bf 38 ef 34 bf cf 64 56 bf e1 74 4c bf
       -0.77577657 -0.7067752 -0.8374757 -0.79865843

conv32.1.running_mean f4 [16]
000000 e8 76 09 c0 e6 e6 d3 bf 79 56 1c c0 bb b3 0b c0
       -2.1478825 -1.655484 -2.4427779 -2.1828449
000010 b9 91 1f c0 92 6b 01 40 14 5e a4 bf 7d b6 1c c0
       -2.4932692 2.0221906 -1.284121 -2.4486382
000020 89 e1 0e c0 11 cc a1 c0 19 33 7d c0 9c 13 a7 3f
       -2.2325156 -5.0561604 -3.9562438 1.3052859
000030 71 4c a3 c0 b2 c9 a5 bf 81 ee af 3f 45 e6 02 c0
       -5.103081 -1.2952178 1.3744661 -2.0453045

conv32.1.running_var f4 [16]
000000 dc e7 e1 40 ab 91 14 41 f4 c4 65 41 89 5a 22 41
       7.059553 9.285563 14.360584 10.147103
000010 da 17 12 41 d0 25 3d 41 23 04 34 41 0c 55 36 41
       9.130823 11.821732 11.25101 11.395763
000020 93 9a 49 41 79 e6 03 41 db 6a 12 41 9b bc 2e 41
       12.600238 8.243768 9.151088 10.921046
000030 fc 5b 2a 41 91 b4 30 41 8b 06 06 41 87 a3 30 41
       10.647457 11.044084 8.376597 11.039924

fc.0.weight f4 [10, 784]
000000 e9 1e 08 be 2f f2 be 3f 45 72 96 bd 1f f8 ab bd
       -0.13293041 1.4917659 -0.07346014 -0.08396935
000010 8e 41 c4 3e 2e 24 4c 3e 56 b2 bf be d8 88 d2 be
       0.38331264 0.19935676 -0.37440747 -0.41120028
000020 84 3e 62 3e 33 04 8d be 52 85 82 3e ea 39 c2 3e
       0.2209416 -0.27542266 0.2549234 0.3793481
000030 27 ad c7 bd ef 09 cd be 25 97 4f 3f fb 50 02 3f
       -0.09749823 -0.4004664 0.81090003 0.50904816
000040 b5 e9 48 be 4e b4 74 be db 3a 7d bf 97 6a fd bd
       -0.19620402 -0.23896906 -0.9891793 -0.12373846
000050 3d 1e ac 3c c1 af 0b bf 9b 59 43 3c 6c ee 9a bd
       0.021010512 -0.54565054 0.011923219 -0.075650066
000060 c6 b6 30 3e 3c 0c 09 be 3c ba a7 3e 3e a9 f2 be
       0.17257223 -0.13383573 0.32759273 -0.47394747
000070 39 dd b4 bf 07 00 8d be cd 65 74 bf 4d b4 fc be
       -1.4130012 -0.27539083 -0.95467836 -0.4935631
000080 73 78 4d be 53 32 9f 3e d9 c4 3a bf 1b 16 32 3f
       -0.20065479 0.31093082 -0.72956616 0.6956498
000090 0e 67 5c 3f 3c b3 14 bf 74 fd 6c bf 10 a3 79 3e
       0.8609475 -0.5808599 -0.9257424 0.2437861
0000a0 bf b6 76 3f 68 9e 0f bf a9 8b 59 be 14 6a 86 3e
       0.963726 -0.56101084 -0.21244682 0.26252806
0000b0 68 12 d1 bd a7 92 12 3e c7 44 08 3e 0d 71 06 3e
       -0.10208589 0.14313756 0.13307486 0.13129063
0000c0 a2 04 aa 3c b3 e2 50 3e 61 90 e7 3e b5 a7 3a 3b
       0.020754162 0.20398979 0.4522734 0.002848131
0000d0 af d2 ae 3c 2c 33 00 bf ba 9f 89 3e eb 78 e6 be
       0.021340696 -0.5007808 0.26879674 -0.45014128
0000e0 e0 17 26 be d0 6f 4b bf 60 20 98 be 37 2d 99 3e
       -0.16220045 -0.7946749 -0.297122 0.2991731
0000f0 6c 4e 7f 3e 9f b5 80 bf 28 50 6f be bb d0 34 3e
       0.2493226 -1.0055426 -0.23370421 0.1765775
000100 2e 7a c8 3c 92 01 c4 3d 94 0e 45 3d 5d 56 d8 3d
       0.024472322 0.09570612 0.048109606 0.105633475
000110 87 0d 23 3e 83 64 28 be df 56 ea be 4a 2e 4e bf
       0.15923129 -0.16444592 -0.45769402 -0.8053938
000120 2f c5 47 3e 80 31 89 3e 62 05 85 3e d8 c9 5e bf
       0.19508813 0.26795578 0.2598067 -0.8702674
000130 11 38 00 bf 26 44 00 bf 3f 0d a4 be b0 6f 60 bf
       -0.5008555 -0.50103986 -0.32041356 -0.8767042
000140 c2 04 eb be 7a 91 17 3e 58 b8 ab 3e 3b 0b 82 bc
       -0.45902067 0.14801589 0.3353908 -0.015874496
000150 a7 62 9d 3e 22 bc f6 3e 17 09 37 bf 01 2b a7 3e
       0.30739328 0.4819041 -0.71498245 0.32649997
000160 ac 20 f7 3d 31 ad 4b 3e 7d 3b e7 3e 2b 59 77 be
       0.120667785 0.19890286 0.45162573 -0.24155109
000170 15 e7 8c 3e ae c0 c2 3e f3 01 e9 3e 24 4e 5b be
       0.27520052 0.38037628 0.455093 -0.21416527
000180 b1 e3 4d bc dc ad 01 bc 28 32 32 bf a5 09 84 bd
       -0.012566493 -0.007914986 -0.6960778 -0.06447152
000190 b8 74 f2 bc aa 7a 9b 3e 97 6f 5f 3f 5b 34 bc 3e
       -0.029596671 0.30367023 0.8727965 0.36758694
0001a0 fa fc de be 9c cf 01 bf ac 97 6c 3e 0b b4 9c bf
       -0.4355238 -0.5070741 0.23104733 -1.2242445
0001b0 d0 ff f8 bd d1 3b 81 bf 4f 1d 1c bf da fe 77 bf
       -0.12158167 -1.009638 -0.6098222 -0.9687325
0001c0 70 b1 c2 3e d6 44 65 bf be 5c 06 be 0c 77 b7 be
       0.38026 -0.8955816 -0.13121316 -0.35833013
0001d0 7a bc e2 be 37 b4 61 be b4 68 eb be 82 56 51 bf
       -0.4428442 -0.22041403 -0.4597832 -0.81772625
0001e0 1a 78 dc be e4 be 1a be c4 5b 00 3e 72 25 17 bd
       -0.4306038 -0.15111881 0.12535006 -0.036900945
0001f0 39 95 0e bf 7c 0f da be d9 bd ef bf 8e c3 88 bf
       -0.55696446 -0.4258994 -1.8729812 -1.0684679
000200 ed 57 84 be 0a 46 fb be 8d 51 1e 3f 38 9d 46 3f
       -0.25848332 -0.49076873 0.61843187 0.77583647
000210 9f 2c bc 3e 3c 88 54 bf 45 36 cf be a0 f3 24 bf
       0.36752793 -0.8302038 -0.40471092 -0.6443424
000220 17 b2 d4 be dd 2a 37 3e 7b ed 50 3e 9b ed 9c 3d
       -0.41542122 0.17887445 0.20403092 0.07662507
000230 16 f1 02 bd 39 8a eb bd 2d 08 72 3e 04 51 58 39
       -0.0319682 -0.11500973 0.23635931 0.00020629546
000240 ef 2c 7f 3e 0a 94 a1 3e d0 67 79 3d 44 5c 9f be
       0.24919485 0.31558257 0.06089002 -0.3112508
000250 a9 38 2a 3e 18 81 85 bf 97 7e a4 be 84 70 78 bf
       0.16623177 -1.0430021 -0.3212783 -0.97046685
000260 03 34 94 3e 93 a0 4d 3e 2c fb 7c bf 12 67 c7 be
       0.28945932 0.20080785 -0.9882076 -0.38945824
000270 db ea 8c 3d 80 d6 da be 6b ee 07 bd 30 e2 b4 bc
       0.068807326 -0.42741776 -0.033186357 -0.02208051
000280 62 be bc 3e 4d e5 17 3f c2 71 05 be dc 30 e6 3d
       0.36864 0.5933426 -0.13031676 0.11239788
000290 5f 3a bb be 76 29 9e bd f7 59 f9 bd b6 7a 70 bf
       -0.3656797 -0.07722752 -0.121753626 -0.9393724
0002a0 67 15 cd 3e 65 fe 2c 3e aa 96 8e be 85 5a ba be
       0.4005539 0.16893919 -0.27849323 -0.36397186
0002b0 1a 5e 5c bf 2b 23 90 bf 66 7a 66 3e 92 db 1b 3f
       -0.8608109 -1.1260732 0.22507629 0.6088191
0002c0 01 06 73 be 56 da 0f 3e ea df 2b 3f e9 62 81 be
       -0.23732759 0.14048132 0.6713854 -0.25270775
0002d0 95 30 d0 bc 48 aa 4e 3e 91 ed 65 3e 53 bc 43 3e
       -0.02541379 0.20182145 0.22453906 0.19114809
0002e0 49 a6 24 3f b9 b9 a5 3f 0a 51 c4 be d1 0c 5b be
       0.6431623 1.2947303 -0.38343078 -0.21391608
0002f0 cf 84 58 be d2 02 cd be 8e c5 0d 3e af c8 5e bf
       -0.21144412 -0.40041214 0.13844892 -0.8702497
000300 8d c8 92 be da 10 5b be a8 2f 73 3e ce ea d4 3c
       -0.28668633 -0.21393147 0.23748648 0.02599087
000310 c8 86 9c 3d bc 0a ef 3e 47 ad e7 3d d8 1d a6 bd
       0.07642895 0.46687877 0.11312347 -0.08111161
000320 cb 6d 0f 3d 5e 90 84 bc 59 76 82 bd e6 13 ab 3e
       0.035016816 -0.01618212 -0.06370229 0.3341362
000330 9e 3f d7 be 74 91 45 bf fc 78 c8 3e 84 e8 5c be
       -0.42040724 -0.7717507 0.39154804 -0.21573073
000340 15 b0 a6 be 29 9a 57 3e 41 ad ef 3d 05 49 93 3e
       -0.32556215 0.21054901 0.117029674 0.28766647
000350 eb 27 24 bf 3f 00 97 be 7a 61 b4 be 19 81 00 3d
       -0.6412341 -0.29492375 -0.3523062 0.031373117
000360 50 07 e8 bd 51 01 28 3f 5b f4 b7 bd 27 dc e3 bd
       -0.1132952 0.6562701 -0.08982154 -0.11125975
000370 b2 39 91 be 08 14 e2 3d 36 9b 98 3e fa c8 7c bd
       -0.2836433 0.11038977 0.29805917 -0.061715104
000380 93 23 ba 3e 21 8f db 3e c0 70 08 3e 4f 57 00 3e
       0.36355266 0.42882636 0.1332426 0.12533306
000390 2e 2b d8 be 52 f8 d1 3d d5 b6 46 bf ee a9 03 3f
       -0.42220443 0.102524415 -0.7762273 0.5143117
0003a0 29 96 49 3e 22 90 07 be 5d dd fa be fb 03 88 3f
       0.19686188 -0.13238576 -0.48997012 1.0626215
0003b0 c1 5a 9a ba 85 20 6a bc 10 c3 bf be b8 f1 73 bf
       -0.0011776314 -0.01428998 -0.37453508 -0.9529071
0003c0 70 77 ed 3e 9f 44 91 bc 3d 24 82 be e0 99 c0 be
       0.46380186 -0.017732916 -0.25418273 -0.37617397
0003d0 9f 9a 83 be fb fd 37 3d 40 25 8a 3e f1 db 0a 3f
       -0.25703904 0.04491995 0.26981544 0.54241854
0003e0 60 18 85 be e2 ad ba 3e 64 83 1e be a0 01 8e 3e
       -0.2599516 0.36460787 -0.15479809 0.27735615
0003f0 0a 6d ef 3e 81 b2 f8 3d 34 e8 28 3f 5a 7e f7 be
       0.46762878 0.12143422 0.65979314 -0.48338586

fc.0.bias f4 [10]
000000 7c a1 dc bd 72 5c 02 3e 50 68 d1 bd 31 fc 21 3d
       -0.10772988 0.12730578 -0.10224974 0.03954715
000010 d4 0e 8b 3d c6 ca 99 bd 73 c3 ee bd 51 e2 55 bd
       0.067899376 -0.07509379 -0.11658373 -0.052217785
000020 fd 2c 73 3e ef 89 7c bd
       0.2374763 -0.06165498
