log/epoch-20.pth (torch_old, 43962 bytes, 32 tensors)

conv1.0.weight f4 [2, 1, 3, 3]
0.3410843 0.2396548 0.35040176 0.45839375 0.8837613 0.5736709 0.92149556 0.7632511
0.36710048 0.44974262 -0.77545184 -1.6085942 -0.32433274 -1.2146368 -0.0880921 -0.72404826
-0.44170666 0.2726355
00000000: 9aa2 ae3e 1168 753e dc67 b33e 96b2 ea3e
00000010: 2e3e 623f 19dc 123f 22e7 6b3f 6d64 433f
00000020: 98f4 bb3e aa44 e63e 0384 46bf 6ae6 cdbf
00000030: f10e a6be 3879 9bbf a269 b4bd 3a5b 39bf
00000040: 6027 e2be e196 8b3e

conv1.0.bias f4 [2]
0.61949635 0.8206113
00000000: 5097 1e3f 9513 523f

conv1.1.weight f4 [2]
1.1844776 1.1134709
00000000: f69c 973f 3786 8e3f

conv1.1.bias f4 [2]
0.62388676 0.097162664
00000000: 0bb7 1f3f 38fd c63d

conv1.1.running_mean f4 [2]
1.2676542 0.23132823
00000000: 7e42 a23f 4fe1 6c3e

conv1.1.running_var f4 [2]
1.6499531 1.5560229
00000000: aa31 d33f c22b c73f

conv21.0.weight f4 [4, 2, 3, 3]
0.20154367 0.2610589 -0.111361496 0.93251765 -0.61171734 -0.3886277 0.6640354 -0.5452764
-0.04500795 0.38191396 -0.19931394 -0.13318291 -0.67312783 1.295524 -0.25337052 -0.7133909
0.31854668 -0.25681028 -0.18939348 0.4165976 -0.20948388 1.093091 -0.29435116 -0.4736592
-0.40869337 -0.4572463 0.3338038 -0.11804092 -0.21691427 0.42192486 0.21368763 0.974645
0.77675545 0.009569475 0.4532829 -0.4704324 -0.074131005 1.0886371 0.6310508 0.22774886
0.6438878 -0.062412873 0.23650736 -0.21175605 -0.50147164 0.030275708 -0.11483902 -1.1058128
0.5820615 -0.5211255 -0.99518055 0.41347182 -0.5433375 -0.68189615 -0.25024763 -0.25648648
-0.38020167 0.5593103 1.0566572 0.3768835 -0.5300952 -0.72569376 0.2537766 0.022200175
0.027457085 0.044996563 0.058143448 -0.93960905 -0.37788406 0.1322356 -0.32287574 -0.5422377
00000000: 7761 4e3e 83a9 853e 7f11 e4bd 7ab9 6e3f
00000010: 8299 1cbf 36fa c6be 39fe 293f 3c97 0bbf
00000020: 425a 38bd 3a8a c33e f418 4cbe 1a61 08be
00000030: 1b52 2cbf bbd3 a53f c8b9 81be c9a0 36bf
00000040: 8d18 a33e a37c 83be 5df0 41be 484c d53e
00000050: f182 56be 68ea 8b3f 32b5 96be 7583 f2be
00000060: 4240 d1be 301c eabe 55e8 aa3e 70bf f1bd
00000070: c61e 5ebe 8906 d83e eed0 5a3e 5682 793f
00000080: 72d9 463f 4ac9 1c3c b214 e83e 84dc f0be
00000090: ffd1 97bd 7658 8b3f 8c8c 213f ff36 693e
000000a0: d5d5 243f a4a4 7fbd fc2e 723e 94d6 58be
000000b0: 7260 00bf c304 f83c b830 ebbd 468b 8dbf
000000c0: fc01 153f 7b68 05bf 27c4 7ebf 94b2 d33e
000000d0: 2b18 0bbf bf90 2ebf 7520 80be 3252 83be
000000e0: cba9 c2be f62e 0f3f 8b40 873f e0f6 c03e
000000f0: 52b4 07bf 11c7 39bf 02ef 813e 24dd b53c
00000100: aeed e03c 514e 383d d327 6e3d 388a 70bf
00000110: 057a c1be c568 073e f84f a5be 17d0 0abf

conv21.0.bias f4 [4]
0.27428147 -0.16164492 0.60185736 0.884608
00000000: 9f6e 8c3e 3f86 25be 5313 1a3f ab75 623f

conv21.1.weight f4 [4]
1.2028733 1.2907435 1.1780722 1.191034
00000000: c1f7 993f 1537 a53f 12cb 963f cd73 983f

conv21.1.bias f4 [4]
-0.47017068 -0.020251019 0.23560268 0.2536728
00000000: 36ba f0be 77e5 a5bc d441 713e 67e1 813e

conv21.1.running_mean f4 [4]
0.5518594 0.7199645 0.9039304 0.02965461
00000000: a846 0d3f 984f 383f fc67 673f 3aee f23c

conv21.1.running_var f4 [4]
3.736044 1.9764754 10.474762 1.6259335
00000000: 581b 6f40 25fd fc3f a098 2741 971e d03f

conv22.0.weight f4 [4, 4, 3, 3]
-0.59574664 -1.0942599 -0.756856 -0.24141937 -0.44852436 -0.36580354 0.17429727 -0.12128148
-0.7949405 0.6063039 0.41654828 -0.27283272 -0.3635818 0.29400316 0.3221498 -1.1630863
-0.18499783 -0.10427982 -0.44665328 -0.004875655 0.13420287 -0.015783558 -0.3654667 -0.124843165
0.06475709 0.3231836 0.2708759 -0.27237868 -1.9415848 -1.4703 -0.182946 -0.14414778
0.6510215 0.1968649 0.034374427 0.4058662 -0.30266002 -0.5561357 0.31532604 -0.0070719547
-0.4706686 -0.26103482 -0.4991245 -0.6658479 -0.117035925 -0.7153591 -0.71690613 -0.8200862
0.14805743 -0.2854783 -0.89847666 0.7989558 0.17956945 0.009905158 0.9306773 1.107391
0.04925461 -0.10968358 0.012001276 -0.1300568 -0.37358132 -0.15035945 -0.06057386 -0.55597687
0.49513185 0.8515249 0.060876347 0.25955623 0.6813621 -0.04134526 -0.028704632 -0.068962984
-0.42965704 -0.24259618 0.55788475 -0.81719416 0.09492165 0.57409006 0.5062866 0.3086663
0.5965694 0.02071952 0.12710853 -0.33897784 0.36900416 0.5321938 -0.083141394 0.68268806
0.9203423 0.08167539 0.2968302 -0.067144156 -0.19474922 0.018837437 0.6047705 0.9407752
0.3261259 1.0020778 0.8254153 0.019380743 -0.47351462 -0.47460532 -0.6550796 -0.21696368
-0.45622033 -0.2820129 0.0052264538 -0.22863998 -0.2336884 -0.2039629 -0.33885685 -0.5453067
-0.42569798 -0.54956913 0.61420935 0.17700905 -0.42191336 0.86173904 -0.3675427 -0.01299011
-1.0848124 -0.0498858 0.38306692 0.423639 -0.12888528 -0.037386067 -0.053674527 -0.49584815
-0.011717645 0.54298604 0.28679958 -0.11687035 0.8028126 0.20217223 -0.39388037 0.08039196
0.09650596 0.36394417 0.16765925 0.56384087 0.71948296 0.23889506 -0.6853595 -0.7374093
00000000: da82 18bf b510 8cbf 51c1 41bf a436 77be
00000010: fca4 e5be 9a4a bbbe fc7a 323e 6d62 f8bd
00000020: 3881 4bbf bb36 1b3f d145 d53e bbb0 8bbe
00000030: 6527 babe 9587 963e d2f0 a43e 03e0 94bf
00000040: 1270 3dbe a990 d5bd bdaf e4be f5c3 9fbb
00000050: 7a6c 093e 854c 81bc 741e bbbe c6ad ffbd
00000060: 5d9f 843d 5278 a53e 3fb0 8a3e 3875 8bbe
00000070: da85 f8bf ca32 bcbf 3256 3bbe 7a9b 13be
00000080: 58a9 263f f496 493e 33cc 0c3d b2cd cf3e
00000090: 41f6 9abe e95e 0ebf 6a72 a13e dbbb e7bb
000000a0: 7afb f0be 5ba6 85be 3f8d ffbe 0275 2abf
000000b0: 88b0 efbd c621 37bf 2987 37bf 2bf1 51bf
000000c0: 5e9c 173e 362a 92be 9102 66bf 5e88 4c3f
000000d0: 0ee1 373e 3e49 223c de40 6e3f fdbe 8d3f
000000e0: 34bf 493d c9a1 e0bd 00a1 443c 9c2d 05be
000000f0: 0d46 bfbe d4f7 19be 4c1c 78bd 8054 0ebf
00000100: ec81 fd3e 89fd 593f 7a59 793d 8ee4 843e
00000110: bf6d 2e3f a659 29bd fa25 ebbc 773c 8dbd
00000120: 02fc dbbe 226b 78be 89d1 0e3f a333 51bf
00000130: 4866 c23d 91f7 123f 009c 013f 8209 9e3e
00000140: c6b8 183f fcbb a93c bd28 023e 818e adbe
00000150: 1dee bc3e da3d 083f 0946 aabd a5c4 2e3f
00000160: 8e9b 6b3f 6d45 a73d 21fa 973e e082 89bd
00000170: 576c 47be f850 9a3c 3dd2 1a3f a5d6 703f
00000180: f9f9 a63e 1644 803f 6b4e 533f 5dc4 9e3c
00000190: 8270 f2be 78ff f2be 4cb3 27bf ba2b 5ebe
000001a0: b695 e9be ff63 90be ac42 ab3b 9920 6abe
000001b0: 034c 6fbe a7db 50be a57e adbe 3899 0bbf
000001c0: 16f5 d9be 90b0 0cbf d33c 1d3f dc41 353e
000001d0: 0705 d8be ee9a 5c3f 8f2e bcbe 78d4 54bc
000001e0: 22db 8abf 0d55 4cbd 5921 c43e 36e7 d83e
000001f0: 81fa 03be 2222 19bd d2d9 5bbd cfdf fdbe
00000200: 5efb 3fbc 2201 0b3f 65d7 923e b959 efbd
00000210: 2085 4d3f 3d06 4f3e b0aa c9be 8aa4 a43d
00000220: eba4 c53d e456 ba3e deae 2b3e e057 103f
00000230: 0930 383f e8a0 743e b873 2fbf dbc6 3cbf

conv22.0.bias f4 [4]
0.16912627 -0.3507462 0.068555236 -0.44201323
00000000: 702f 2d3e 0295 b3be b066 8c3d 8f4f e2be

conv22.1.weight f4 [4]
1.6005875 1.1310549 1.1432923 0.9670594
00000000: 0de0 cc3f 68c6 903f 6757 923f 3491 773f

conv22.1.bias f4 [4]
-0.21618465 0.27134413 0.3078818 -0.013337077
00000000: 825f 5dbe 9eed 8a3e afa2 9d3e c183 5abc

conv22.1.running_mean f4 [4]
-2.452736 -0.41256845 2.0456142 -0.18508907
00000000: a0f9 1cc0 2c3c d3be 58eb 0240 fd87 3dbe

conv22.1.running_var f4 [4]
19.075895 7.977919 8.897351 5.354137
00000000: 6f9b 9841 1d4b ff40 8d5b 0e41 1755 ab40

conv31.0.weight f4 [8, 4, 3, 3]
-0.2857043 -0.10993955 0.32440245 0.0723379 -0.1652271 0.3711563 0.26402387 0.7414955
-0.10751652 0.21087585 0.07827704 -0.6199716 -0.15531343 0.60715675 1.4431025 0.13571955
-0.50732815 0.1912604 -0.1745627 0.73254526 -0.043566562 -0.220445 0.22365405 -0.05402091
0.49553663 0.0363722 0.5183254 -0.5083188 -0.13998613 -0.46430856 0.18048011 -0.34220657
0.28908646 0.2345195 -0.23905222 -0.5548571 0.71360064 1.2354645 0.3183881 -0.2485191
-0.5071802 0.12685439 0.26472995 1.3553387 1.4406233 -0.17152597 -0.00531575 0.14289981
0.18336864 0.33229914 0.16142565 0.0035694314 -0.021294277 -0.30552396 -0.6256124 -0.785013
-0.0058880015 0.7124108 -0.16213377 -0.20186378 0.36340985 -0.5911721 -0.38605472 0.10599934
-0.11072297 0.12850258 0.58321095 0.20656955 0.18023643 0.5526435 0.107599445 0.03625112
0.033226125 -0.26117393 -0.17347184 0.6409211 0.60350996 -0.8348057 0.88839513 -0.5867133
-0.71134424 0.16963822 0.7175791 -0.37233946 0.1346696 -0.7194083 0.27268052 -0.79665434
0.009371558 0.45153174 -0.39119107 -0.7902123 -0.0055321828 -0.22252771 1.3691378 -0.26047224
-0.53388 0.13231419 0.11267077 0.45087704 -0.27666712 -0.4929608 -0.06493738 -0.23920894
0.349321 0.4373655 0.10926819 -0.58730704 -0.3557135 0.20847474 -0.09488624 -0.37922058
-1.0189985 0.54066986 -0.16566604 -0.7637702 -0.35892197 0.004961105 -1.0799253 0.5465103
0.8563497 0.5792038 0.110932715 -0.09395661 0.6836113 0.4636382 -0.09663761 -0.4962618
-0.24294232 0.5932198 0.2962134 -0.68303657 -0.2643634 -0.76602554 -0.3541982 0.00702653
0.511585 0.5032352 0.540407 -0.33114657 -0.37487847 -0.8766472 -0.027261006 -0.34076202
0.1650564 -0.36676303 0.045953702 0.46216142 -0.1428774 -0.030742463 0.034152795 0.28941068
1.028248 -0.9009659 0.7765668 -0.36614987 -0.028927 -0.36307132 -0.6821454 0.03184464
-1.2650329 -0.070152596 -0.14391111 -0.24762781 0.3980598 0.17427804 -0.3174519 0.34085387
0.15423882 -0.9909301 -0.08932347 -0.7893384 -0.23121107 0.28399107 1.0639405 0.25202253
-0.18794662 -0.4546306 -0.053713255 0.20667851 0.050164796 -0.5368476 0.9310915 -0.27516252
-0.32496783 -0.20307098 0.07975096 -0.5515079 -0.6707195 -0.17891243 -0.4650471 -0.37445158
0.07530487 -0.27344722 0.01234108 0.2615694 0.47234622 -0.45272967 -0.15673354 0.89606196
0.12230235 -0.2643269 0.235668 0.016565718 -0.5047064 0.40591377 0.042760763 -0.039276067
-1.629279 -0.05223984 -0.6140599 -0.7876486 0.4453259 0.033899404 -0.45149124 -0.26720133
-0.09824154 -0.30605632 -0.8340272 -0.14426109 0.5503075 -0.23732778 -0.425276 0.040372103
0.4957343 -0.5761612 0.12793407 -0.6755422 -0.33284405 -0.1197349 0.53768605 0.11383206
0.17891465 0.28596678 -0.49167895 -0.14931285 0.28945252 1.1867684 1.0622174 -0.60800314
-0.3224711 -0.440692 0.062255513 0.07037147 -0.69487417 -0.37181324 -0.13545649 0.17500511
-0.2548441 0.18740848 0.29294434 0.6859197 0.14197941 0.4410277 0.85513335 0.450015
00000000: d647 92be fd27 e1bd 1418 a63e e525 943d
00000010: 4b31 29be 3308 be3e 232e 873e a6d2 3d3f
00000020: 9f31 dcbd d7ef 573e b64f a03d 75b6 1ebf
00000030: 7c0a 1fbe a06e 1b3f 95b7 b83f 11fa 0a3e
00000040: 42e0 01bf c4d9 433e 90c0 32be 1688 3b3f
00000050: da72 32bd 56bc 61be 9105 653e 0845 5dbd
00000060: fab6 fd3e 04fb 143d f9b0 043f 2e21 02bf
00000070: 8658 0fbe dab9 edbe c7cf 383e b335 afbe
00000080: 2403 943e e125 703e 1bca 74be 1d0b 0ebf
00000090: 88ae 363f b323 9e3f c403 a33e ca7b 7ebe
000000a0: 90d6 01bf 1ee6 013e af8a 873e bd7b ad3f
000000b0: 5866 b83f 81a4 2fbe be2f aebb 5454 123e
000000c0: fdc4 3b3e 1d23 aa3e c44c 253e 1fed 693b
000000d0: 5671 aebc a36d 9cbe 2228 20bf 9df6 48bf
000000e0: 23f0 c0bb 8e60 363f 6506 26be 61b5 4ebe
000000f0: db10 ba3e 0e57 17bf f7a8 c5be 2f16 d93d
00000100: b9c2 e2bd 2e96 033e 504d 153f f886 533e
00000110: e68f 383e 0b7a 0d3f 195d dc3d 0e7c 143d
00000120: 1e18 083d 97b8 85be 9aa2 31be 6813 243f
00000130: a17f 1a3f d4b5 55bf dd6d 633f d832 16bf
00000140: a81a 36bf a4b5 2d3e 44b3 373f 47a3 bebe
00000150: d4e6 093e 242b 38bf c89c 8b3e 8af1 4bbf
00000160: 2a8b 193c 2b2f e73e 324a c8be 5a4b 4abf
00000170: 5047 b5bb 4ede 63be e83f af3f 9e5c 85be
00000180: 5cac 08bf 5f7d 073e efbf e63d 5bd9 e63e
00000190: 50a7 8dbe 5c65 fcbe e4fd 84bd 30f3 74be
000001a0: 34da b23e 5fee df3e 00c8 df3d c159 16bf
000001b0: 1420 b6be 677a 553e b853 c2bd 3329 c2be
000001c0: 8b6e 82bf 5769 0a3f 5ca4 29be 7286 43bf
000001d0: 9fc4 b7be c490 a23b fe3a 8abf 19e8 0b3f
000001e0: bc39 5b3f b346 143f b130 e33d 536c c0bd
000001f0: 2601 2f3f fc61 ed3e f0e9 c5bd 0716 febe
00000200: dfc5 78be 41dd 173f 48a9 973e 7cdb 2ebf
00000210: a45a 87be 401a 44bf 7759 b5be ce3e e63b
00000220: 3cf7 023f 06d4 003f 1d58 0a3f 0b8c a9be
00000230: 12f0 bfbe f36b 60bf 7952 dfbc 5c78 aebe
00000240: 8b04 293e 5dc8 bbbe f339 3c3d 6ca0 ec3e
00000250: 744e 12be 9ed7 fbbc cde3 0b3d a32d 943e
00000260: a19d 833f b4a5 66bf 15cd 463f ff77 bbbe
00000270: 51f8 ecbc 7ce4 b9be 15a1 2ebf 866f 023d
00000280: 99ec a1bf 2aac 8fbd 6f5d 13be 2592 7dbe
00000290: 7ece cb3e f175 323e 0e89 a2be 6684 ae3e
000002a0: c8f0 1d3e 98ad 7dbf 39ef b6bd 1512 4abf
000002b0: 98c2 6cbe 4767 913e 342f 883f 1909 813e
000002c0: 1475 40be 58c5 e8be 6e02 5cbd 88a3 533e
000002d0: 9a79 4d3d d86e 09bf 035c 6e3f 1ae2 8cbe
000002e0: 2f62 a6be d7f1 4fbe 7954 a33d 9f2f 0dbf
000002f0: 46b4 2bbf d234 37be a71a eebe 1eb8 bfbe
00000300: 7139 9a3d 4601 8cbe 3e32 4a3c 6dec 853e
00000310: 5dd7 f13e 2fcc e7be c27e 20be 5164 653f
00000320: a879 fa3d db55 87be f452 713e d4b4 873c
00000330: 7034 01bf eed3 cf3e e925 2f3d f1df 20bd
00000340: 378c d0bf 71f9 55bd 0833 1dbf 57a3 49bf
00000350: c201 e43e 1ada 0a3d dc29 e7be 9dce 88be
00000360: dc32 c9bd 6ab3 9cbe ce82 55bf 2eb9 13be
00000370: f4e0 0c3f 0e06 73be c7bd d9be 385d 253d
00000380: e3d0 fd3e 4d7f 13bf 2601 033e 55f0 2cbf
00000390: 896a aabe 9237 f5bd cba5 093f c820 e93d
000003a0: 6735 373e 3d6a 923e 58bd fbbe 78e5 18be
000003b0: 1f33 943e 07e8 973f bdf6 873f 18a6 1bbf
000003c0: ef1a a5be 62a2 e1be a3ff 7e3d eb1e 903d
000003d0: 46e3 31bf 4e5e bebe 1bb5 0abe 8a34 333e
000003e0: ed7a 82be 02e8 3f3e cdfc 953e 6f98 2f3f
000003f0: 0d63 113e 62ce e13e 05ea 5a3f 5e68 e63e

conv31.0.bias f4 [8]
0.38058046 0.005059044 -0.4412553 -0.045829877 -0.11680217 -0.009588418 -0.33515534 0.25505924
00000000: 71db c23e 56c6 a53b 37ec e1be 1cb8 3bbd
00000010: fa35 efbd bd18 1dbc 7b99 abbe 2097 823e

conv31.1.weight f4 [8]
0.891622 1.1128551 1.231749 1.2681534 1.3071637 1.2734466 1.3345237 1.4920051
00000000: 5741 643f 0972 8e3f f4a9 9d3f da52 a23f
00000010: 2451 a73f 4c00 a33f acd1 aa3f 06fa be3f

conv31.1.bias f4 [8]
0.2026975 -0.023766622 -0.021685053 0.050317235 -0.27477372 -0.10151442 0.105989486 -0.27804974
00000000: ef8f 4f3e 38b2 c2bc daa4 b1bc 7219 4e3d
00000010: 24af 8cbe cbe6 cfbd 0411 d93d 895c 8ebe

conv31.1.running_mean f4 [8]
2.5894945 2.529804 -1.362701 -1.8389447 -2.1482146 -3.0306592 -0.51324666 -1.9597243
00000000: 47ba 2540 4fe8 2140 fd6c aebf 8a62 ebbf
00000010: 597c 09c0 52f6 41c0 2264 03bf 3fd8 fabf

conv31.1.running_var f4 [8]
4.883969 8.671609 5.629814 10.228898 8.593945 7.857908 7.317515 13.323916
00000000: 7949 9c40 e9be 0a41 7027 b440 91a9 2341
00000010: cc80 0941 fb73 fb40 1529 ea40 c32e 5541

conv32.0.weight f4 [16, 8, 3, 3]
0.18366021 0.5717255 0.08368175 -0.14628443 -0.6382727 0.43399033 -0.21673614 -0.29058272
-0.24785571 -0.1654496 -0.7100735 -0.09240701 0.8237805 -0.03112832 -0.42119533 1.0130317
0.15641794 -0.18737808 -0.8113617 0.2398066 0.28947705 -0.032608353 -0.038262844 0.9164662
0.23418082 0.3304781 -1.353764 0.37529802 0.05683926 -0.09910326 0.024401437 -0.0030789285
-0.034034196 -0.023321863 -0.049720418 -0.123991214 -0.69153684 0.20511526 0.58445084 0.12725094
-0.48149535 -0.16472909 0.24712814 -0.34264386 -1.1456612 -0.27670863 -0.19319639 -0.26055193
-0.37554553 -0.92335725 -0.07654334 1.0195316 0.57408917 -0.15008527 -0.68185776 -0.21219805
0.33827022 -0.24282835 -0.07230949 0.42883703 -0.17478444 0.13570103 -1.1020814 0.13070357
0.41731876 -0.03840374 -0.4730579 -0.4455154 -0.39414325 -0.33705488 0.15472218 -0.2736216
0.044145368 0.8867226 0.30800238 -0.25989628 0.20077352 0.32787576 -0.7201493 -0.37097335
-0.2271303 0.17166048 -0.57552904 -0.23582467 0.07202732 0.26281956 0.01730565 0.062502354
0.5956089 0.31407762 0.01639167 0.06738051 -1.023121 -0.47376853 0.17415524 0.6484033
0.295889 -0.3173433 -0.044011433 -0.033306304 -0.2881079 0.07411853 -0.6225494 0.90143186
-0.8387415 -0.911133 -0.101358786 -0.2330944 0.39854193 0.08008716 -0.7810176 0.39063796
0.50117993 -0.2642171 0.489597 0.37440637 0.19277972 0.5913571 -0.5110426 0.11658079
-0.66761684 -0.7240375 -0.5287188 0.26876524 0.21076234 -0.48052403 -0.5891067 0.23070233
0.2859078 0.07864962 0.041845594 0.09715167 0.009399801 0.1034963 0.13247012 0.8559
0.14318123 -0.5660299 -0.64202625 0.19313675 -0.41161114 0.18864891 -0.021164343 -0.14818525
-0.21194802 0.24972104 0.5099313 -0.0027981142 0.6388726 -0.04784688 -0.60960466 -0.51240975
-0.7028056 0.0024044174 -0.044913728 1.2409173 0.42701527 0.1777639 -0.5717789 -0.1031406
-0.9012945 -0.38244474 -0.04825722 -0.18110953 0.4701408 -0.47174057 -0.69696957 -0.59186137
-0.22159931 0.23933443 0.5818782 -0.53486407 -0.20803814 0.3017344 0.28265074 0.39199257
-0.20442717 -0.30770946 -0.6840828 -0.34790093 -0.7669787 -0.16095632 -0.7443535 0.24298334
0.40282676 -0.47503802 0.5137449 0.09221979 0.55872154 0.24439056 0.28808165 0.98857874
-0.21667947 -0.5830588 -0.68838197 -0.026131911 -0.03645927 -0.06763153 0.36115953 0.31125686
0.5064465 0.14954452 0.5531561 -0.532922 -1.1880976 -0.396947 0.3343363 -0.18193571
-0.49652356 0.19467457 0.1370377 -0.010691554 -0.2191907 -0.48984918 0.27997655 -0.050438497
-0.4842003 -0.7287836 0.057212956 0.18179138 0.16381541 0.11063857 -0.028963562 -0.81492305
-0.32431555 0.11254575 0.15846474 -0.56108516 -0.61445683 -0.37707183 -0.038301833 -0.5934506
-1.0647728 0.78946537 0.46940625 -0.09615291 -0.22350399 0.93185866 -0.005052243 -0.1699075
-0.37184104 -0.010485597 -0.7920826 0.3723029 0.3063178 -1.110021 -0.27016652 -0.019292647
-0.52728444 -0.22721046 -0.47531375 0.06856677 -0.19452246 -0.27568656 0.10259676 0.6172871
00000000: 6c11 3c3e 9a5c 123f 5661 ab3d 96cb 15be
00000010: d765 23bf fb33 de3e 14f0 5dbe 42c7 94be
00000020: e3cd 7dbe 9f6b 29be 60c7 35bf e33f bdbd
00000030: 47e3 523f d200 ffbc eaa6 d7be 06ab 813f
00000040: 062c 203e 0ae0 3fbe 66b5 4fbf dd8f 753e
00000050: 5636 943e 5690 05bd 80b9 1cbd 879d 6a3f
00000060: 19cd 6f3e 6d34 a93e 2448 adbf 1027 c03e
00000070: 49d0 683d a6f6 cabd 86e5 c73c d9c7 49bb
00000080: 7167 0bbd 7e0d bfbc a3a7 4bbd 1bef fdbd
00000090: 8f08 31bf bc09 523e 929e 153f 124e 023e
000000a0: 8f86 f6be beae 28be 290f 7d3e 046f afbe
000000b0: 07a5 92bf c1ac 8dbe 46d5 45be 1067 85be
000000c0: 8147 c0be 2461 6cbf c1c2 9cbd 0380 823f
000000d0: 82f7 123f f4af 19be 3b8e 2ebf 724a 59be
000000e0: c131 ad3e ffa7 78be ff16 94bd 8790 db3e
000000f0: b1fa 32be 36f5 0a3e 0111 8dbf 28d7 053e
00000100: ceaa d53e 3d4d 1dbd a534 f2be 981a e4be
00000110: 25cd c9be 7592 acbe 7e6f 1e3e 2118 8cbe
00000120: c6d1 343d 4100 633f 7db2 9d3e 2011 85be
00000130: 9397 4d3e 55df a73e b45b 38bf 38f0 bdbe
00000140: d894 68be c4c7 2f3e df55 13bf 067c 71be
00000150: 0f83 933d 4990 863e 94c4 8d3c 3c01 803d
00000160: d379 183f c8ce a03e d347 863c cbfe 893d
00000170: a1f5 82bf ca91 f2be c055 323e c2fd 253f
00000180: c37e 973e d27a a2be 5545 34bd 316c 08bd
00000190: e182 93be 75cb 973d 665f 1fbf 3dc4 663f
000001a0: c3b7 56bf 0340 69bf 3295 cfbd 4cb0 6ebe
000001b0: b00d cc3e bd04 a43d c5f0 47bf b301 c83e
000001c0: 544d 003f 7747 87be 75ac fa3e 31b2 bf3e
000001d0: 0c68 453e 2e63 173f b0d3 02bf e9c1 ee3d
000001e0: f0e8 2abf 865a 39bf 1e5a 07bf 999b 893e
000001f0: 15d2 573e 3f07 f6be b2cf 16bf 3b3d 6c3e
00000200: 8262 923e 0d13 a13d 4966 2b3d 74f7 c63d
00000210: 9f01 1a3c def5 d33d 3fa6 073e 431c 5b3f
00000220: 1a9e 123e 56e7 10bf d55b 24bf a4c5 453e
00000230: b2be d2be 2e2d 413e d860 adbc e0bd 17be
00000240: e708 59be dfb6 7f3e dc8a 023f 9160 37bb
00000250: 288d 233f 17fb 43bd 0d0f 1cbf 492d 03bf
00000260: 11eb 33bf 6e93 1d3b 75f7 37bd 61d6 9e3f
00000270: bfa1 da3e bd07 363e 1a60 12bf 613b d3bd
00000280: 3dbb 66bf cccf c3be 5da9 45bd c774 39be
00000290: 4cb6 f03e fb87 f1be 996c 32bf 3a84 17bf
000002a0: eeea 62be 1614 753e f8f5 143f daec 08bf
000002b0: f307 55be ee7c 9a3e 99b7 903e 40b3 c83e
000002c0: 5b55 51be 188c 9dbe 0d20 2fbf 1220 b2be
000002d0: b758 44bf bcd1 24be f38d 3ebf a0d0 783e
000002e0: 4f3f ce3e 2f38 f3be c984 033f bbdd bc3d
000002f0: 6008 0f3f 8541 7a3e 707f 933e 7f13 7d3f
00000300: 39e1 5dbe 5743 15bf cd39 30bf 9712 d6bc
00000310: 5156 15bd 6682 8abd e7e9 b83e 0f5d 9f3e
00000320: 7aa6 013f 3322 193e a39b 0d3f 946d 08bf
00000330: 9513 98bf a33c cbbe 212e ab3e 5b4d 3abe
00000340: 5638 febe c558 473e 9c53 0c3e a12b 2fbc
00000350: 8773 60be 83cd fabe 1659 8f3e 9998 4ebd
00000360: 1ae9 f7be 9091 3abf 2258 6a3d 8527 3a3e
00000370: 3abf 273e 7996 e23d fe44 edbc cc9e 50bf
00000380: b00c a6be 637e e63d 9544 223e 47a3 0fbf
00000390: 0b4d 1dbf 8f0f c1be 62e2 1cbd 61ec 17bf
000003a0: 7a4a 88bf 671a 4a3f 0456 f03e d1eb c4bd
000003b0: 3bde 64be 4a8e 6e3f 498d a5bb 3bfc 2dbe
000003c0: f361 bebe c8cb 2bbc edc5 4abf 7c9e be3e
000003d0: b0d5 9c3e 2b15 8ebf 4453 8abe 9d0b 9ebc
000003e0: 1dfc 06bf dca9 68be 535c f3be bc6c 8c3d
000003f0: e530 47be ca26 8dbe 401e d23d 8706 1e3f

conv32.0.bias f4 [16]
0.123711616 -0.14684062 0.14974304 -0.21151972 -0.18537334 0.2201211 0.087305464 -0.07121847
-0.17945614 -0.07180532 -0.09964069 0.15447015 0.12576763 0.030959938 -0.00056099874 0.03376835
00000000: 845c fd3d 635d 16be 3d56 193e a098 58be
00000010: 82d2 3dbe 6d67 613e 35cd b23d fdda 91bd
00000020: 5ac3 37be ab0e 93bd 6b10 ccbd 6c2d 1e3e
00000030: 3bc9 003e b29f fd3c fd0f 13ba ae50 0a3d

conv32.1.weight f4 [16]
1.0972309 1.2025086 1.2947649 1.560558 1.1822983 1.1615957 1.3103018 1.3345143
1.2447062 1.1957406 1.2958913 1.2323871 1.2086849 1.2463722 1.2271127 1.3054576
00000000: 1072 8c3f cdeb 993f dbba a53f 5dc0 c73f
00000010: 8d55 973f 2baf 943f f8b7 a73f 5dd1 aa3f
00000020: 8852 9f3f 070e 993f c4df a53f dcbe 9d3f
00000030: 30b6 9a3f 2089 9f3f 0712 9d3f 3c19 a73f

conv32.1.bias f4 [16]
-0.4754834 -0.44504234 -0.52842563 -0.942331 -0.4698247 -0.48350403 -0.4529946 -0.66187584
-0.54176927 -0.48784164 -0.66083807 -0.5379151 -0.6524015 -0.6597643 -0.62018687 -0.6988187
00000000: 8f72 f3be 97dc e3be e746 07bf 9b3c 71bf
00000010: dd8c f0be d78d f7be e9ee e7be b270 29bf
00000020: 64b1 0abf 61c6 f9be af2c 29bf ceb4 09bf
00000030: c903 27bf 50e6 28bf 91c4 1ebf c8e5 32bf

conv32.1.running_mean f4 [16]
-1.7355199 -1.0876479 -1.3335458 -1.8310516 -2.2832294 1.7356348 -1.111028 -2.0073278
-1.5915053 -4.2042747 -3.7662668 1.2685139 -4.4633474 -1.0120178 1.1459467 -1.668757
00000000: 8425 debf 0c38 8bbf a1b1 aabf e65f eabf
00000010: 6e20 12c0 4829 de3f 2a36 8ebf 0f78 00c0
00000020: 72b6 cbbf 6b89 86c0 840a 71c0 aa5e a23f
00000030: bed3 8ec0 cd89 81bf 62ae 923f d499 d5bf

conv32.1.running_var f4 [16]
4.9771404 6.039739 10.256884 7.654725 6.9363656 9.300856 7.6238184 8.957245
9.418375 6.1438804 6.847633 7.2511396 8.116215 7.3055353 6.290172 7.9843082
00000000: bc44 9f40 8b45 c140 321c 2441 82f3 f440
00000010: b5f6 dd40 4ed0 1441 52f6 f340 e050 0f41
00000020: aab1 1641 ab9a c440 cf1f db40 5609 e840
00000030: 04dc 0141 f2c6 e940 1749 c940 747f ff40

fc.0.weight f4 [10, 784]
-0.23616351 1.1859035 -0.008500437 -0.040933125 0.21946388 0.25192618 -0.27014247 -0.23615292
0.13375665 -0.427136 0.14211297 0.47757572 -0.0426896 -0.27775788 0.8073581 0.35260576
-0.07041431 -0.1684394 -0.63299465 -0.045325425 0.060988635 -0.58523095 0.059626706 -0.100514136
-0.017806068 -0.15082571 0.34834942 -0.24865119 -1.2531588 -0.22678895 -0.7409472 -0.40260243
-0.09018147 0.26164752 -0.48482808 0.6126083 0.6025596 -0.41052455 -0.511099 0.28092661
0.6496168 -0.38643548 -0.17153308 0.19306593 -0.090059154 0.09236986 0.16071303 0.041819192
0.015891425 0.13178864 0.29087636 0.09836318 0.05067036 -0.45499507 0.27013162 -0.22895433
-0.07945338 -0.67931604 -0.41178322 0.28089547 0.33348927 -0.87863696 -0.23041204 0.031278
0.039875012 0.25771028 0.08944051 0.3915405 0.16479181 -0.025240539 -0.21713096 -0.5123065
0.07982443 0.15130419 0.18680762 -0.81141514 -0.38250315 -0.3454018 -0.21653737 -0.7688427
-0.3542869 0.23724987 0.41796455 -0.115686305 0.2772721 0.4178791 -0.6790183 0.13900265
0.019102188 0.13587423 0.4247971 -0.1578696 0.19072227 0.31420222 0.3702701 -0.089995645
-0.068492465 -0.079917274 -0.26331136 0.17263755 -0.09093336 0.30358484 0.6751519 0.3443059
-0.4643993 -0.46075544 0.18256211 -0.9807053 -0.09358477 -0.7740148 -0.41229135 -0.77328366
0.49226597 -0.6759201 0.029423062 -0.39627403 -0.43385085 -0.26501653 -0.43062383 -0.65446985
-0.26385728 -0.1294912 0.13164474 -0.20129925 -0.34902576 -0.4180531 -1.6471599 -0.8602146
-0.4034509 -0.39428794 0.47987735 0.73914367 0.35361117 -0.7871593 -0.33361003 -0.51608396
-0.301682 0.14678167 0.1753084 0.13902606 0.0332629 -0.07344658 0.26700467 0.13443017
0.20802343 0.13380902 -0.17700817 -0.12942855 0.21443424 -0.8572928 -0.24414456 -0.7037872
0.14053127 0.07731518 -0.60029817 -0.17551707 0.11106595 -0.33554816 -0.014399644 -0.043154825
0.218129 0.50231004 -0.052969456 0.028875193 -0.32748386 -0.18770991 -0.02487515 -0.59157234
0.16806982 0.06396268 -0.16002251 -0.17254993 -0.73585075 -0.8384705 0.23742732 0.5135648
-0.1334573 0.2303825 0.46498898 -0.35841218 -0.03898602 0.2769442 0.18560188 0.33225968
0.44002077 0.91317284 -0.2725702 -0.27625263 -0.2145222 -0.22459817 -0.1307123 -0.7520588
-0.37979075 -0.35817742 0.20805803 -0.0029562109 0.14879403 0.29318058 0.019558143 -0.052991513
-0.09018851 0.05465779 -0.08100524 0.15735348 -0.3936545 -0.8623077 0.4035571 -0.12555183
-0.3115208 0.03817236 0.07090585 0.26123604 -0.5572047 -0.1300575 -0.239881 -0.028141819
-0.101770625 0.5850254 -0.06199839 -0.04579066 -0.048273917 0.03955726 0.27881524 -0.0024499656
0.38108397 0.43840683 0.000966414 -0.031070825 -0.20805316 0.004387756 -0.44837016 0.27734685
0.38129714 -0.39738318 -0.2864531 0.9567324 -0.16599628 0.013570644 -0.25391307 -0.75838
0.4709124 -0.10139936 -0.25115258 -0.24843606 -0.09108817 0.06782254 0.24160588 0.48047462
-0.21292537 0.3251115 -0.1498102 0.31837264 0.39231655 0.028782118 0.34714484 -0.3249212
00000000: d9d4 71be b0cb 973f 6b45 0bbc 7ea9 27bd
00000010: 24bb 603e 78fc 803e 1d50 8abe 12d2 71be
00000020: 81f7 083e 92b1 dabe 1086 113e ce84 f43e
00000030: 4adb 2ebd 4836 8ebe 05af 4e3f be88 b43e
00000040: 6135 90bd 617b 2cbe f00b 22bf 27a7 39bd
00000050: 38cf 793d b2d1 15bf 223b 743d 5bda cdbd
00000060: 08de 91bc 0e72 1abe db5a b23e 6b9e 7ebe
00000070: 8267 a0bf 5d3b 68be b7ae 3dbf e821 cebe
00000080: 10b1 b8bd aaf6 853e 633b f8be e6d3 1c3f
00000090: 5941 1a3f 4630 d2be 62d7 02bf 9dd5 8f3e
000000a0: 494d 263f dfda c5be 5ea6 2fbe 13b3 453e
000000b0: ef70 b8bd 692c bd3d f591 243e 9a4a 2b3d
000000c0: bc2e 823c 9af3 063e bfed 943e a372 c93d
000000d0: b98b 4f3d 1df5 e8be b14e 8a3e 0173 6abe
000000e0: 74b8 a2bd a8e7 2dbf 40d5 d2be 88d1 8f3e
000000f0: 1bbf aa3e 5aee 60bf 22f1 6bbe 5c1d 003d
00000100: fb53 233d 9af2 833e 962c b73d ff77 c83e
00000110: 2fbf 283e 3fc5 cebc 9457 5ebe 8526 03bf
00000120: fe7a a33d 7cef 1a3e 7f4a 3f3e e7b8 4fbf
00000130: 74d7 c3be 81d8 b0be f9bb 5dbe e0d2 44bf
00000140: 1865 b5be a1f1 723e 73ff d53e f1ec ecbd
00000150: 9cf6 8d3e 40f4 d53e 25d4 2dbf b656 0e3e
00000160: 317c 9c3c 9d22 0b3e 017f d93e 92a8 21be
00000170: b34c 433e 1ddf a03e 0b94 bd3e a34f b8bd
00000180: c745 8cbd abab a3bd bfd0 86be e6c7 303e
00000190: 453b babd 796f 9b3e c1d6 2c3f dd48 b03e
000001a0: bfc5 edbe 23e8 ebbe 90f1 3a3e 810f 7bbf
000001b0: 5fa9 bfbd d525 46bf da17 d3be ebf5 45bf
000001c0: 490a fc3e 1a09 2dbf a208 f13c 6ee4 cabe
000001d0: b321 debe 3fb0 87be ba7a dcbe 568b 27bf
000001e0: 4d18 87be 5799 04be e1cd 063e 6421 4ebe
000001f0: 81b3 b2be 0e0b d6be 23d6 d2bf 0637 5cbf
00000200: 1e91 cebe 1ce0 c9be 7cb2 f53e 8538 3d3f
00000210: 860c b53e 4683 49bf efce aabe 141e 04bf
00000220: 1076 9abe ef4d 163e 0c84 333e d95c 0e3e
00000230: ae3e 083d 296b 96bd d6b4 883e 10a8 093e
00000240: 1804 553e 3b05 093e a141 35be eb88 04be
00000250: a694 5b3e 8a77 5bbf 0801 7abe 662b 34bf
00000260: 6ee7 0f3e 6c57 9e3d 24ad 19bf bfba 33be
00000270: 8b76 e33d f8cc abbe 7cec 6bbc 1dc3 30bd
00000280: 355d 5f3e 6497 003f 80f6 58bd ab8b ec3c
00000290: f7ab a7be 0737 40be f8c6 cbbc 4971 17bf
000002a0: 7f1a 2c3e defe 823d f1dc 23be eeb0 30be
000002b0: b760 3cbf 01a6 56bf 2620 733e fc78 033f
000002c0: 08a9 08be 64e9 6b3e 0913 ee3e cd81 b7be
000002d0: ceaf 1fbd a1cb 8d3e 6b0e 3e3e f11d aa3e
000002e0: 674a e13e b2c5 693f 528e 8bbe fc70 8dbe
000002f0: b5ab 5bbe 10fd 65be 72d9 05be ed86 40bf
00000300: ef73 c2be 0863 b7be 2a0d 553e fdbc 41bb
00000310: 765d 183e c41b 963e 6638 a03c a10d 59bd
00000320: c1b4 b8bd d9e0 5f3d 13e6 a5bd 4521 213e
00000330: 158d c9be 33c0 5cbf 099f ce3e a990 00be
00000340: a87f 9fbe 9f5a 1c3d 1637 913d bbc0 853e
00000350: f8a4 0ebf cb2d 05be 5da3 75be ac89 e6bc
00000360: 1e6d d0bd 3ac4 153f 06f2 7dbd fd8e 3bbd
00000370: dfba 45bd cb06 223d dfc0 8e3e 9a8f 20bb
00000380: 701d c33e dc76 e03e f256 7d3a 3e88 febc
00000390: e30b 55be 2ac7 8f3b c690 e5be 6800 8e3e
000003a0: 6139 c33e cf75 cbbe fba9 92be 6aec 743f
000003b0: eefa 29be 6857 5e3c e500 82be 3125 42bf
000003c0: 6e1b f13e 78aa cfbd 1297 80be 0666 7ebe
000003d0: 6f8c babd 8be6 8a3d 8867 773e c500 f63e
000003e0: 1c09 5abe 0475 a63e d867 19be bd01 a33e
000003f0: b7dd c83e 7ac8 eb3c f8bc b13e 125c a6be

fc.0.bias f4 [10]
-0.076580286 0.088537835 -0.09509441 0.019155597 0.073336594 -0.0464238 -0.11102639 -0.036839623
0.20797299 -0.05726924
00000000: 20d6 9cbd 5353 b53d dcc0 c2bd 33ec 9c3c
00000010: 7f31 963d e226 3ebd ce61 e3bd 25e5 16bd
00000020: dff6 543e 2793 6abd
