log/epoch-50.pth (torch_old, 43962 bytes, 32 tensors)

conv1.0.weight f4 [2, 1, 3, 3]
0	0x3eba97b6	0.3644387
1	0x3ea9b2a0	0.33144093
2	0x3ec6f1a4	0.38856232
3	0x3f09e683	0.5386736
4	0x3f85906b	1.0434698
5	0x3f1e3d2a	0.6181208
6	0x3f86ca7d	1.0530545
7	0x3f594d9d	0.84884053
8	0x3ed5bf34	0.4174744
9	0x3f0c27eb	0.5474841
10	0xbf46c6b1	-0.7764693
11	0xbfe968e2	-1.8235133
12	0xbea8ce04	-0.32969677
13	0xbfc59751	-1.5436803
14	0x3d7331f1	0.0593738
15	0xbf687a0e	-0.9081124
16	0xbef74c5a	-0.4830044
17	0x3e779ec5	0.2418166

conv1.0.bias f4 [2]
0	0x3f830f78	1.0239096
1	0x3e9ef190	0.31043673

conv1.1.weight f4 [2]
0	0x3f9aa9de	1.2083089
1	0x3fa19ffd	1.262695

conv1.1.bias f4 [2]
0	0x3f23af9f	0.6393985
1	0x3d01eec8	0.03172186

conv1.1.running_mean f4 [2]
0	0x3fe15e21	1.7606851
1	0xbeb2adf3	-0.34898338

conv1.1.running_var f4 [2]
0	0x4009b453	2.151631
1	0x3ffc4543	1.9708637

conv21.0.weight f4 [4, 2, 3, 3]
0	0x3e2cd695	0.16878732
1	0x3ea8b1e1	0.3294821
2	0xbd146912	-0.036233015
3	0x3f8ed76f	1.1159495
4	0xbf3f29ee	-0.74673355
5	0xbee63972	-0.44965702
6	0x3f3e82fe	0.7441863
7	0xbf216965	-0.63051444
8	0x3d2cce98	0.04218921
9	0x3f1454a5	0.5794166
10	0xbe4f3d84	-0.2023831
11	0xbde99bce	-0.114066705
12	0xbf52c593	-0.82332724
13	0x3fae3a94	1.3611627
14	0x3c94a6ea	0.018145997
15	0xbf734c02	-0.95037854
16	0x3ec53ce2	0.38523012
17	0xbea6cbf6	-0.32577485
18	0xbe5ffcc9	-0.21873774
19	0x3f026512	0.5093547
20	0xbe54c748	-0.20779145
21	0x3fa17d3f	1.2616347
22	0xbebd434f	-0.36965415
23	0xbf131221	-0.5744954
24	0xbef630b9	-0.48084047
25	0xbf048b35	-0.51774913
26	0x3ed2c91c	0.4116906
27	0xbc5a1c56	-0.01331242
28	0xbe6ca594	-0.23110038
29	0x3eeb46dd	0.45952502
30	0x3e8dcbce	0.27694553
31	0x3f9ac129	1.2090198
32	0x3f81702c	1.0112357
33	0x3cecf037	0.028923137
34	0x3f068c15	0.525575
35	0xbedb52da	-0.42836648
36	0xbe0d153d	-0.13777633
37	0x3fa2067a	1.2658226
38	0x3f2d872b	0.67784375
39	0x3ea405c4	0.3203565
40	0x3f49d48b	0.7883994
41	0xbde08c1f	-0.10964226
42	0x3e7eaf00	0.24871445
43	0xbe3e4858	-0.18582284
44	0xbf14ff86	-0.582024
45	0x3e172863	0.147615
46	0xbd77c7d6	-0.060493313
47	0xbfa54a04	-1.2913213
48	0x3f0fc3c2	0.5615808
49	0xbef9bfdc	-0.4877919
50	0xbf9adefc	-1.20993
51	0x3f0fe691	0.5621119
52	0xbf5eb86d	-0.8700016
53	0xbf7ddd1a	-0.991655
54	0xbe835a8d	-0.25655022
55	0xbea7c608	-0.32768273
56	0xbee26799	-0.44219664
57	0x3f23fa8a	0.6405417
58	0x3f9e7df8	1.2382193
59	0x3ef0e89d	0.4705247
60	0xbf24c7cd	-0.6436737
61	0xbf5a5e86	-0.8530048
62	0x3e82dd22	0.25559336
63	0x3e2a2255	0.16614659
64	0x3d9864fc	0.07441136
65	0x3bb38889	0.0054789227
66	0x3da2615e	0.079287276
67	0xbf91282a	-1.1340382
68	0xbec48ac3	-0.38387117
69	0x3dd12b1d	0.10213301
70	0xbedc2840	-0.42999458
71	0xbf017c9f	-0.5058078

conv21.0.bias f4 [4]
0	0x3e33c321	0.17554905
1	0xbe5457e2	-0.2073665
2	0x3f878d9f	1.0590094
3	0x3f86349b	1.0484804

conv21.1.weight f4 [4]
0	0x3fa55a50	1.2918186
1	0x3fa9bb48	1.3260279
2	0x3f9c963c	1.2233348
3	0x3f9fa750	1.2472935

conv21.1.bias f4 [4]
0	0xbf10e897	-0.56604904
1	0xbc8f1f10	-0.017470866
2	0x3e9a78dd	0.30170336
3	0x3e74772a	0.23873582

conv21.1.running_mean f4 [4]
0	0x3f33a01b	0.70166177
1	0x3f89262a	1.0714772
2	0x3fa9f8af	1.3279017
3	0x3dc4d8b5	0.09611646

conv21.1.running_var f4 [4]
0	0x409d7ead	4.9217134
1	0x403876e4	2.8822565
2	0x4166fbde	14.436491
3	0x400debf0	2.2175255

conv22.0.weight f4 [4, 4, 3, 3]
0	0xbf511195	-0.81667453
1	0xbfb01188	-1.375535
2	0xbf6fbae2	-0.93644536
3	0xbeb83e96	-0.3598525
4	0xbf627595	-0.88460666
5	0xbef1fa68	-0.47261357
6	0x3e3f2c7d	0.18669315
7	0xbdbc86f9	-0.092054315
8	0xbf6897a3	-0.9085638
9	0x3f2bca89	0.6710592
10	0x3ef9cfa3	0.48791227
11	0xbe1d0169	-0.15332569
12	0xbed36127	-0.4128506
13	0x3f00ad3f	0.5026435
14	0x3e8d76b7	0.27629635
15	0xbfab101b	-1.336429
16	0xbe3abcab	-0.18236034
17	0xbd9ed5b7	-0.077556066
18	0xbf0a18ff	-0.5394439
19	0x3c822efc	0.015891545
20	0x3e2adb34	0.16685182
21	0xbcb75c75	-0.022382954
22	0xbed9f160	-0.42566967
23	0xbe358d17	-0.17729603
24	0x3d99c8de	0.075090155
25	0x3ead8cd0	0.33896494
26	0x3e875304	0.26430523
27	0xbea356dd	-0.3190221
28	0xc00c5149	-2.1924613
29	0xbfdb7438	-1.7144842
30	0xbe9c8225	-0.30568042
31	0xbe208fd7	-0.1567987
32	0x3f4131ca	0.754666
33	0x3e86ded7	0.26341888
34	0x3d8b1015	0.06790177
35	0x3ef94c1e	0.48690885
36	0xbece59d1	-0.403029
37	0xbf3277b6	-0.69713914
38	0x3ea3893e	0.31940645
39	0x3a3359d2	0.00068416924
40	0xbedd05a7	-0.43168375
41	0xbeb54ee1	-0.35411742
42	0xbf11e485	-0.5698932
43	0xbf3512db	-0.70731896
44	0xbd87b5b6	-0.066264555
45	0xbf312f8b	-0.6921317
46	0xbf3f75ba	-0.7478901
47	0xbf7bcd3b	-0.9836003
48	0x3dc4908c	0.09597883
49	0xbeb73524	-0.3578273
50	0xbf6a85e8	-0.91610575
51	0x3f79a224	0.9751303
52	0x3e3dd78e	0.18539259
53	0x3d4537de	0.048148982
54	0x3f9299de	1.1453207
55	0x3fae2be0	1.360714
56	0x3e1bb9e5	0.15207632
57	0xbe21e776	-0.15810952
58	0xbda15fd4	-0.07879606
59	0xbe246328	-0.1605345
60	0xbef38ad6	-0.4756686
61	0xbe2da9b3	-0.16959266
62	0xbb447f6c	-0.0029983176
63	0xbf3bd77f	-0.73375696
64	0x3f161468	0.5862489
65	0x3f82e400	1.022583
66	0x3df58e4f	0.11990034
67	0x3e97110b	0.2950519
68	0x3f45d8b6	0.772838
69	0xbda07010	-0.07833874
70	0xbdf17866	-0.11790542
71	0xbe15f638	-0.14644706
72	0xbefc070b	-0.49224123
73	0xbe9b9aa4	-0.3039142
74	0x3f42b66f	0.7605962
75	0xbf552b1b	-0.832689
76	0x3e0ec578	0.13942516
77	0x3f28bffb	0.6591794
78	0x3f113366	0.5671905
79	0x3ea60157	0.32422897
80	0x3f3c8173	0.73635024
81	0x3d8650d1	0.06558383
82	0x3d8ff9e9	0.070300885
83	0xbee7c032	-0.4526382
84	0x3ef6db57	0.48214218
85	0x3f1eeb9f	0.6207828
86	0xbe1cce6b	-0.15313117
87	0x3f1f59cd	0.622464
88	0x3f8de08d	1.1084152
89	0x3d894857	0.06703251
90	0x3ea4bd96	0.32175893
91	0xbd1590b8	-0.036514968
92	0xbe990f6f	-0.29894587
93	0xbddd050c	-0.10791978
94	0x3f219f12	0.6313335
95	0x3f85857c	1.0431361
96	0x3f04a962	0.5182096
97	0x3f9a0b8b	1.2034773
98	0x3f842db2	1.0326445
99	0xbd799f86	-0.06094315
100	0xbf13d717	-0.57750076
101	0xbf11a55d	-0.5689295
102	0xbf4599ec	-0.7718799
103	0xbe857b59	-0.2607067
104	0xbf0d785d	-0.55261785
105	0xbebaf27a	-0.3651312
106	0x3e0e4ad1	0.13895728
107	0xbead57a2	-0.3385592
108	0xbe9d09e9	-0.30671623
109	0xbeabdfa7	-0.3356907
110	0xbeeea546	-0.4661047
111	0xbf3cf5ab	-0.7381236
112	0xbf23b327	-0.6394524
113	0xbf2ad13a	-0.66725504
114	0x3f3955ab	0.72396344
115	0x3e834b84	0.2564355
116	0xbee82126	-0.4533779
117	0x3f84228e	1.0323045
118	0xbe93ebed	-0.28890935
119	0x3c8bbe0e	0.017058399
120	0xbfa1cb5f	-1.2640189
121	0xbdf0e024	-0.117615014
122	0x3f2118be	0.6292838
123	0x3f07e3ff	0.5308227
124	0xbe5c7216	-0.21527895
125	0x3a3d0628	0.0007210695
126	0xbdff69e7	-0.12471371
127	0xbf12b496	-0.573068
128	0xbd7aa8c1	-0.061196093
129	0x3f25a494	0.6470425
130	0x3e8e40ab	0.27783713
131	0xbe4d31d4	-0.20038539
132	0x3f73415c	0.95021605
133	0x3e702968	0.23453295
134	0xbee6af7b	-0.45055756
135	0x3da9617c	0.08270547
136	0x3e0c0394	0.1367324
137	0x3eb38cc0	0.3506832
138	0x3e719a86	0.23594102
139	0x3f27ef0a	0.6559912
140	0x3f5ddb0a	0.8666235
141	0x3e71168d	0.23543759
142	0xbf505b50	-0.8138933
143	0xbf54c47a	-0.831123

conv22.0.bias f4 [4]
0	0x3f288589	0.6582876
1	0xbe1d5746	-0.15365323
2	0x3c66530e	0.014057888
3	0xbdb6181b	-0.088913165

conv22.1.weight f4 [4]
0	0x3fdb1744	1.7116475
1	0x3f96c129	1.1777698
2	0x3f9b6ede	1.2143209
3	0x3f826211	1.0186177

conv22.1.bias f4 [4]
0	0xbe748b7f	-0.23881339
1	0x3e82e607	0.25566122
2	0x3ebcda92	0.36885506
3	0x3ce658a1	0.028118433

conv22.1.running_mean f4 [4]
0	0xc0270616	-2.6097465
1	0xbe133c8a	-0.14378563
2	0x401aa1f1	2.416134
3	0x3dfbe462	0.1229942

conv22.1.running_var f4 [4]
0	0x41efd22a	29.97762
1	0x41385079	11.519647
2	0x415ae07a	13.679804
3	0x40f851ed	7.7600007

conv31.0.weight f4 [8, 4, 3, 3]
0	0xbe66f1bb	-0.2255315
1	0xbe307027	-0.17230283
2	0x3ea20c08	0.31649804
3	0x3df8d501	0.12150002
4	0xbe500842	-0.2031565
5	0x3f1b1a62	0.6058713
6	0x3ea97b6b	0.33101973
7	0x3f6a4584	0.9151232
8	0xbe096bcf	-0.13420032
9	0x3e59f271	0.2128389
10	0x3e2e3803	0.17013554
11	0xbf335c34	-0.70062566
12	0xbea42bcb	-0.3206466
13	0x3f217d66	0.6308197
14	0x3feb00fc	1.8359675
15	0x3e4424c3	0.19154648
16	0xbf1e6ee2	-0.61887944
17	0x3de88d76	0.113551065
18	0xbde9f741	-0.11424113
19	0x3f62bcef	0.8856954
20	0xbd8f0d54	-0.06984964
21	0xbe18633c	-0.14881605
22	0x3e99245a	0.29910547
23	0xbd87e806	-0.06636052
24	0x3f15056b	0.5821139
25	0x3da9f079	0.0829782
26	0x3f2d76a4	0.67759156
27	0xbf2839fb	-0.6571347
28	0xbd66e711	-0.056372706
29	0xbeeeac12	-0.46615654
30	0x3e291323	0.16511206
31	0xbf0dff67	-0.5546784
32	0x3eb7ff83	0.35937127
33	0x3e851e6b	0.2599977
34	0xbec7b6ad	-0.39006558
35	0xbf499447	-0.7874188
36	0x3f36723f	0.71268076
37	0x3fb6f8cb	1.4294676
38	0x3eae1242	0.33998305
39	0xbe50fce3	-0.20408969
40	0xbf01618e	-0.5053948
41	0x3da1bc18	0.07897204
42	0x3e6f4a2f	0.23368143
43	0x3fd1ac4c	1.6380706
44	0x3fd31b64	1.6492734
45	0xbe298ae3	-0.16556887
46	0xbd2169dc	-0.039407596
47	0x3e3d4835	0.18484576
48	0x3ea4ff3f	0.32225987
49	0x3f0a3706	0.5399021
50	0x3e3fe10d	0.18738194
51	0xbd92a3dc	-0.0716016
52	0xbce07c0b	-0.027402898
53	0xbeadeb2b	-0.3396848
54	0xbf42e695	-0.7613309
55	0xbf791a18	-0.9730544
56	0x3d8846c5	0.06654123
57	0x3f3cae5e	0.73703563
58	0xbe4e8510	-0.20167947
59	0xbe9718d5	-0.29511133
60	0x3efa96e2	0.4894324
61	0xbf37918e	-0.71706474
62	0xbef71a61	-0.48262313
63	0x3e31e0bd	0.17370887
64	0xbe80bb2e	-0.25142807
65	0x3e025fce	0.12731859
66	0x3f463b65	0.7743438
67	0x3e575c20	0.21031237
68	0x3e868339	0.2627199
69	0x3f43d7c5	0.76501113
70	0x3db57e37	0.08861964
71	0xbd7102ef	-0.05884069
72	0x3db549a0	0.088519335
73	0xbeae0682	-0.3398934
74	0xbe819a15	-0.25312868
75	0x3f3b5e29	0.7319055
76	0x3f368d6e	0.71309555
77	0xbf80574e	-1.0026643
78	0x3f64819d	0.89260274
79	0xbf07aa04	-0.529938
80	0xbf75b135	-0.9597352
81	0x3e2e7582	0.17037013
82	0x3f364c7a	0.71210444
83	0xbeb77040	-0.35827827
84	0x3e55bc44	0.20872599
85	0xbf67aab2	-0.90494835
86	0x3ecddd9a	0.4020813
87	0xbf7d4d9b	-0.9894654
88	0xbcfb9ab2	-0.030713413
89	0x3f02f563	0.5115568
90	0xbee29458	-0.44253802
91	0xbf6eebb9	-0.93328434
92	0xbc8f0fd2	-0.017463598
93	0xbe47a578	-0.19496715
94	0x3fcbc5d1	1.5919744
95	0xbeb32f37	-0.3499696
96	0xbf26769a	-0.6502472
97	0x3e495af2	0.19663599
98	0x3e2466d1	0.16054846
99	0x3f1140cf	0.56739515
100	0xbe8802f9	-0.26564768
101	0xbf1c9274	-0.6116097
102	0xbe17189e	-0.14755484
103	0xbe82dd6c	-0.25559556
104	0x3ee9c562	0.45658404
105	0x3f0433d6	0.51641595
106	0x3dd2f46e	0.103005275
107	0xbf328911	-0.69740397
108	0xbe971571	-0.29508546
109	0x3e3d7157	0.18500267
110	0xbd99355f	-0.07480883
111	0xbee9a595	-0.45634142
112	0xbf9025a7	-1.126149
113	0x3f08f705	0.5350192
114	0xbd87f687	-0.06638818
115	0xbf77114e	-0.9651078
116	0xbef319a7	-0.4748051
117	0xbd849a8c	-0.0647479
118	0xbfa00b54	-1.2503457
119	0x3f0ce653	0.55038947
120	0x3f7dcac5	0.99137527
121	0x3f2b079f	0.66808504
122	0x3e382116	0.17981371
123	0xbe266d5c	-0.16252655
124	0x3f48d2fe	0.7844695
125	0x3f1d70f6	0.6150049
126	0xbdf26586	-0.1183577
127	0xbf02f3ef	-0.51153463
128	0xbe9499f0	-0.29023695
129	0x3f35e0ae	0.7104596
130	0x3ecc4761	0.39898208
131	0xbf76408b	-0.96192235
132	0xbeae1ede	-0.34007925
133	0xbf61349d	-0.87970906
134	0xbf095f6b	-0.5366122
135	0xbd5377e7	-0.05162802
136	0x3f16ed49	0.5895582
137	0x3f1f6347	0.6226086
138	0x3f0dd9f1	0.5541068
139	0xbee52dc7	-0.44761488
140	0xbea4dd99	-0.32200316
141	0xbf82cfa7	-1.021962
142	0x3d750c82	0.05982638
143	0xbeceb6a5	-0.40373722
144	0x3e9a2ef9	0.30113962
145	0xbeaf3a66	-0.34224242
146	0x3ded5edf	0.11590361
147	0x3ec44768	0.3833573
148	0xbe4633b2	-0.19355658
149	0xbe180f7e	-0.1484966
150	0xbd20527b	-0.03914116
151	0x3e4c7482	0.19966319
152	0x3f9af121	1.2104837
153	0xbf8bc8f3	-1.09207
154	0x3f660e6f	0.89865774
155	0xbef663cf	-0.48123023
156	0xbd85493f	-0.06508111
157	0xbee9d6e3	-0.45671758
158	0xbf5ba682	-0.85800946
159	0x3db55ad0	0.08855212
160	0xbfbf8fa1	-1.4965707
161	0xbd7a720a	-0.061143912
162	0xbe1fb6d7	-0.15597092
163	0xbea6a525	-0.3254787
164	0x3f04c883	0.51868457
165	0x3e8a8831	0.2705703
166	0xbebe0bb2	-0.37118298
167	0x3eff3331	0.49843743
168	0x3e6f886e	0.23391888
169	0xbf8f7c7b	-1.1209863
170	0xbd29840c	-0.041385695
171	0xbf4d1c1b	-0.8012101
172	0xbea99230	-0.33119345
173	0x3e9b64b0	0.30350256
174	0x3f9f2675	1.2433611
175	0x3e3f105f	0.18658589
176	0xbe66107b	-0.22467224
177	0xbf10efed	-0.566161
178	0xbce591ab	-0.028023561
179	0x3e94376d	0.28948537
180	0x3dc00596	0.093760654
181	0xbf307e23	-0.6894247
182	0x3f8e4292	1.1114066
183	0xbea9acbe	-0.33139604
184	0xbe3e8fba	-0.18609515
185	0xbeb62428	-0.3557446
186	0x3d968588	0.07349688
187	0xbf1647ec	-0.58703494
188	0xbf874456	-1.056773
189	0xbe1ea8c3	-0.15494065
190	0xbf0d4ade	-0.55192363
191	0xbec7ca45	-0.39021507
192	0x3d9bc12e	0.076052055
193	0xbebea00b	-0.37231478
194	0xbdcadb5e	-0.09905122
195	0x3ea35d07	0.31906912
196	0x3f0bcd55	0.54610187
197	0xbed27289	-0.41103008
198	0xbe7a38bf	-0.2443571
199	0x3f8f7fa5	1.1210829
200	0x3e111ec1	0.14171888
201	0xbeaf3187	-0.34217474
202	0x3e887ac8	0.26656175
203	0xbab8507a	-0.001406207
204	0xbeffb33f	-0.4994144
205	0x3eef3671	0.46721223
206	0x3d346a1e	0.044046514
207	0xbcf87d29	-0.030333119
208	0xbff5f619	-1.9215728
209	0xbd5552b2	-0.052080818
210	0xbf37914d	-0.71706086
211	0xbf90d1b7	-1.1314
212	0x3f191f2f	0.5981321
213	0x3dc669d0	0.09688151
214	0xbf0fbad7	-0.5614447
215	0xbe9cc2d3	-0.3061739
216	0xbe414701	-0.18874742
217	0xbeb7ad8b	-0.3587459
218	0xbf734f86	-0.9504322
219	0xbdc3857f	-0.09546947
220	0x3f22a0f9	0.63526875
221	0xbe7cdde9	-0.24694027
222	0xbf1e2e10	-0.61789036
223	0x3d7d6535	0.061864097
224	0x3f0a5417	0.5403456
225	0xbf25d2cb	-0.6477477
226	0x3da58fe6	0.08084087
227	0xbf60f17f	-0.87868494
228	0xbec768c7	-0.38947126
229	0xbde45bfa	-0.11150356
230	0x3f20d931	0.6283141
231	0x3dd88259	0.10571737
232	0x3e81fb83	0.253872
233	0x3ea1f3d5	0.31631342
234	0xbf0db78a	-0.55358183
235	0xbd8d3132	-0.06894149
236	0x3ea45fbb	0.32104287
237	0x3fb4cc99	1.4124938
238	0x3f9be46b	1.2179083
239	0xbf40a3a1	-0.7524968
240	0xbeb2200d	-0.34790078
241	0xbf0ca757	-0.5494284
242	0x3e102e23	0.140801
243	0x3e3618f4	0.17782956
244	0xbf643134	-0.8913758
245	0xbea4b48c	-0.32168996
246	0xbe404c98	-0.18779218
247	0x3e159cf9	0.14610662
248	0xbea377da	-0.31927377
249	0x3e6786f2	0.22610071
250	0x3e9bec86	0.3045389
251	0x3f676edc	0.90403533
252	0x3dc908ae	0.09816109
253	0x3eef1d92	0.46702248
254	0x3f927c0f	1.144411
255	0x3f0ba1bc	0.5454366

conv31.0.bias f4 [8]
0	0x3ee2692b	0.44220862
1	0xbe6b258d	-0.22963543
2	0xbec090a6	-0.37610358
3	0xbdada7aa	-0.08479245
4	0xbe659b7f	-0.22422598
5	0x3d4840e9	0.04889003
6	0xbedfe8ca	-0.4373229
7	0xbd0f4181	-0.03497458

conv31.1.weight f4 [8]
0	0x3f7d9da9	0.99068695
1	0x3f90a260	1.1299553
2	0x3fa7125b	1.3052477
3	0x3fb14587	1.3849343
4	0x3fb29b03	1.3953556
5	0x3fabd620	1.3424721
6	0x3fb55409	1.416627
7	0x3fd0ef4d	1.6323029

conv31.1.bias f4 [8]
0	0x3e2a3a99	0.16623916
1	0xbcfd8a8d	-0.030949855
2	0xbba408a9	-0.005005915
3	0xbce86122	-0.028366629
4	0xbe856664	-0.2605468
5	0xbdc746c2	-0.09730293
6	0x3dce7acc	0.100820154
7	0xbea61ff9	-0.32446268

conv31.1.running_mean f4 [8]
0	0x4055b528	3.339182
1	0x4032506b	2.7861583
2	0xbfd51bac	-1.664907
3	0xc0266f07	-2.6005266
4	0xc02c020c	-2.687625
5	0xc06ff521	-3.7493365
6	0xbf1032bf	-0.5632743
7	0xc05853f2	-3.3801236

conv31.1.running_var f4 [8]
0	0x410c2d5e	8.761076
1	0x4154a0db	13.289271
2	0x410c11a6	8.754309
3	0x4184f78d	16.620874
4	0x414d2b8c	12.823132
5	0x414a21a4	12.633213
6	0x4140329b	12.012355
7	0x41c327f2	24.394505

conv32.0.weight f4 [16, 8, 3, 3]
0	0x3e841cb8	0.2580316
1	0x3f36d0c4	0.714123
2	0xbd82988b	-0.063767515
3	0xbe02bf02	-0.12768176
4	0xbf6a8aeb	-0.9161822
5	0x3f20c739	0.6280399
6	0xbea75c29	-0.326875
7	0xbeb3f635	-0.3514878
8	0xbe9067e0	-0.2820425
9	0xbe91c338	-0.28469253
10	0xbf916272	-1.1358168
11	0x3d18ae7a	0.03727577
12	0x3f8f453c	1.1193004
13	0xbd1049f9	-0.035226796
14	0xbef4ee80	-0.4783821
15	0x3f8ad69e	1.0846746
16	0x3e45792e	0.19284508
17	0xbe9e3f2a	-0.30907565
18	0xbf4eab9c	-0.80730605
19	0x3ec2be1e	0.38035673
20	0x3ec18b4e	0.37801594
21	0x3e300650	0.17189908
22	0xbd14e7a4	-0.036353722
23	0x3f83c9da	1.0295975
24	0x3ea6d349	0.32583073
25	0x3ec7911c	0.38977897
26	0xbfcaf3fc	-1.5855708
27	0x3e899220	0.26869297
28	0xbd24bb3a	-0.040217616
29	0xbdbdd218	-0.09268588
30	0x3e494c6e	0.19658062
31	0xbe01bc73	-0.12669544
32	0x3d1daba0	0.038493752
33	0xbd5fddec	-0.054655
34	0xbdda0ff6	-0.106475756
35	0xbe68955c	-0.22713226
36	0xbf507948	-0.8143506
37	0x3e67935a	0.22614804
38	0x3f13ae48	0.5768781
39	0x3dcafe39	0.099117704
40	0xbf18fe38	-0.5976291
41	0xbe218e10	-0.15776849
42	0x3e3e7df0	0.18602729
43	0xbecacf46	-0.39611262
44	0xbf9d0851	-1.2268163
45	0xbec0ca17	-0.37654182
46	0xbe142867	-0.14468537
47	0xbea25a96	-0.31709737
48	0xbed97ec5	-0.4247953
49	0xbf8e2eb8	-1.1108007
50	0xbdd0f8a9	-0.10203678
51	0x3f960912	1.1721518
52	0x3f584ea4	0.84494996
53	0xbe868b6c	-0.26278245
54	0xbf45d5a5	-0.7727912
55	0xbea3867b	-0.31938538
56	0x3ed09399	0.40737608
57	0xbe2152c6	-0.15754232
58	0xbe16fdc2	-0.14745238
59	0x3f111faf	0.5668897
60	0xbe34fe9d	-0.17675252
61	0x3e2fa8c9	0.1715423
62	0xbfa489bb	-1.2854532
63	0x3e04647c	0.12928957
64	0x3eb23a1f	0.34809968
65	0x3c8e8a14	0.017399825
66	0xbf30cac6	-0.6905941
67	0xbf0de1fc	-0.5542295
68	0xbee25285	-0.44203582
69	0xbed1ebe2	-0.41000277
70	0x3d2739f5	0.040826757
71	0xbed7e3c2	-0.42165953
72	0x3def8aa6	0.11696367
73	0x3f9d195e	1.2273366
74	0x3efcda31	0.49385217
75	0xbedac508	-0.42728448
76	0x3e5ad476	0.2137011
77	0x3ef15b8c	0.47140157
78	0xbf5d9ec4	-0.8657038
79	0xbed99b77	-0.42501423
80	0xbe60f407	-0.21968089
81	0x3dbe4fb4	0.09292546
82	0xbf36510f	-0.71217436
83	0xbdfebfd0	-0.12438929
84	0x3da88745	0.082289256
85	0x3ef4da0a	0.478226
86	0x3daafac9	0.08348615
87	0xbca63c55	-0.02029244
88	0x3f25c30d	0.6475075
89	0x3eb55df7	0.35423252
90	0x3de7ac61	0.113121755
91	0x3e04664b	0.12929647
92	0xbfb5d270	-1.4204845
93	0xbf082422	-0.53180134
94	0x3e471f4a	0.1944553
95	0x3f57e1a5	0.8432868
96	0x3e878c42	0.26474196
97	0xbea74174	-0.32667124
98	0xbe3a33b2	-0.18183783
99	0xbcc1f21d	-0.023675019
100	0xbef42efd	-0.476921
101	0x3d04bf30	0.032408893
102	0xbf460f0f	-0.7736673
103	0x3f82debf	1.0224227
104	0xbf83721c	-1.0269198
105	0xbf868833	-1.0510315
106	0xbe267c03	-0.16258244
107	0xbeb23d6e	-0.34812492
108	0x3ec31bf3	0.3810726
109	0x3de8f097	0.11374014
110	0xbf87c3a8	-1.0606585
111	0x3e713c53	0.23558168
112	0x3f20a1f8	0.62747145
113	0xbefd3428	-0.49453855
114	0x3f1ba433	0.60797423
115	0x3eb3e471	0.35135224
116	0x3ea8fed8	0.3300693
117	0x3f2d5abd	0.6771658
118	0xbf419f3e	-0.7563361
119	0x3e745d45	0.23863705
120	0xbf6896d3	-0.9085514
121	0xbf5a762b	-0.8533656
122	0xbf00b8eb	-0.5028216
123	0x3ea82b2c	0.32845438
124	0xbc8c355f	-0.017115293
125	0xbf1ab4dc	-0.6043222
126	0xbf4c59a8	-0.79824305
127	0x3e7d849e	0.2475762
128	0x3e977fa4	0.2958957
129	0x3e0ace13	0.13555174
130	0x3dad8a8a	0.0847369
131	0x3e41cb1b	0.18925135
132	0x3cd76cc5	0.026296983
133	0x3e169758	0.1470617
134	0x3e0e0af4	0.13871366
135	0x3f691c14	0.9105847
136	0x3df940c1	0.12170554
137	0xbf1722b0	-0.59037304
138	0xbf607158	-0.8767295
139	0x3e556e26	0.208428
140	0xbeeda5d4	-0.4641558
141	0x3eb89d15	0.36057344
142	0x3e1d7ba3	0.15379195
143	0xbe6b93be	-0.23005578
144	0xbee9b123	-0.45642957
145	0x3eac5b80	0.3366356
146	0x3ee43496	0.4457137
147	0xbd7b261a	-0.061315633
148	0x3f53c992	0.82729447
149	0xbe152c53	-0.1456769
150	0xbf3fd647	-0.74936336
151	0xbf21982e	-0.6312283
152	0xbf3148e8	-0.6925187
153	0xbe1d2a22	-0.15348104
154	0x3c3362c4	0.0109488405
155	0x3fc2eeac	1.5229087
156	0x3f0a50cb	0.5402953
157	0x3e2438ac	0.16037244
158	0xbf135db7	-0.5756487
159	0xbdf06c64	-0.11739424
160	0xbf93537e	-1.1509855
161	0xbebfd5e6	-0.3746788
162	0xbddb5b0c	-0.10710725
163	0xbe9caf7b	-0.3060263
164	0x3f036fb3	0.51342314
165	0xbf0c8b20	-0.5489979
166	0xbf544adc	-0.82926726
167	0xbf45f540	-0.77327347
168	0xbea475c6	-0.32121104
169	0x3e574409	0.21022047
170	0x3f0f1afc	0.5590055
171	0xbefa96be	-0.48943132
172	0xbeb04e4e	-0.34434742
173	0x3e66276b	0.22475974
174	0x3e47a356	0.19495901
175	0x3edb4ec0	0.4283352
176	0xbef885b1	-0.48539498
177	0xbf04afa8	-0.5183053
178	0xbf7752a1	-0.96610457
179	0xbed26e5b	-0.4109982
180	0xbf6a4d0a	-0.915238
181	0xbe0ba65b	-0.13637678
182	0xbf540c78	-0.82831526
183	0x3e0a4089	0.1350118
184	0x3f02e1ae	0.5112561
185	0xbf284d8c	-0.6574333
186	0x3f2372ea	0.6384722
187	0x3e315f3a	0.17321482
188	0x3ef77352	0.4833017
189	0x3ecd72bf	0.40126607
190	0x3e1c7027	0.15277158
191	0x3f8f81a7	1.1211442
192	0xbea7f483	-0.32803735
193	0xbf384f8b	-0.7199637
194	0xbf602c42	-0.8756753
195	0xbc91aa27	-0.01778133
196	0xbebcfa58	-0.36909747
197	0xbda9c980	-0.08290386
198	0x3eebe4a5	0.4607288
199	0x3eb2cdfe	0.34922785
200	0x3f055e90	0.52097416
201	0x3db91236	0.090366766
202	0x3f3a98c8	0.72889376
203	0xbf385a88	-0.7201314
204	0xbf9f7675	-1.2458025
205	0xbef80f9d	-0.48449412
206	0x3f0904c4	0.53522897
207	0xbe19a9ae	-0.15006134
208	0xbf0ef9a8	-0.55849695
209	0x3e2b03e2	0.167007
210	0x3c9a8f95	0.018867293
211	0x3d5c209b	0.053742032
212	0xbede40b4	-0.4340874
213	0xbf310f2c	-0.69163775
214	0x3ee8ef0d	0.4549488
215	0xbd9d913b	-0.07693716
216	0xbf20553e	-0.6263007
217	0xbf64d7c2	-0.8939172
218	0x3dbe5621	0.092937715
219	0x3e1473f8	0.14497364
220	0x3eb668bf	0.3562679
221	0x3e13e030	0.1444099
222	0xbb455202	-0.0030108695
223	0xbf8de407	-1.1085213
224	0xbe8fec07	-0.28109762
225	0x3e061620	0.13094378
226	0x3e2d0f2f	0.16900323
227	0xbf3398be	-0.7015494
228	0xbf22895c	-0.63490844
229	0xbf128fed	-0.57250863
230	0x3d8631b2	0.065524474
231	0xbf262d22	-0.6491262
232	0xbfa99513	-1.3248619
233	0x3f6f1937	0.9339785
234	0x3ee57968	0.44819188
235	0xbdd33854	-0.10313478
236	0xbea177b6	-0.31536645
237	0x3f83a647	1.0285119
238	0x3d194605	0.03742029
239	0xbe4554c2	-0.19270614
240	0xbede3126	-0.43396872
241	0xbcd32b18	-0.025777385
242	0xbf55b0d5	-0.8347295
243	0x3eab40e5	0.33447948
244	0x3efb60fa	0.49097425
245	0xbfaca0f5	-1.348662
246	0xbecccb73	-0.3999897
247	0xbd265e90	-0.040617526
248	0xbf1ec258	-0.62015295
249	0xbe53994f	-0.20663951
250	0xbed5bb04	-0.41744244
251	0x3dadea93	0.08492007
252	0xbe15601c	-0.14587444
253	0xbe913481	-0.2836037
254	0xbd5cae33	-0.053877067
255	0x3f480504	0.78132653

conv32.0.bias f4 [16]
0	0x3e7212bd	0.2363996
1	0xbe38807e	-0.18017766
2	0x3e4c5d9a	0.19957581
3	0xbea739e4	-0.32661355
4	0xbe0fa2c9	-0.14026941
5	0x3e6ec25f	0.23316334
6	0x3e73fc84	0.23826796
7	0xbd92948b	-0.071572386
8	0xbde05428	-0.109535515
9	0xbdaf7ac5	-0.08568338
10	0xbd849c69	-0.06475145
11	0x3de5c3de	0.11218999
12	0x3e524ff1	0.20538308
13	0x3d071b52	0.03298504
14	0xbd5a5151	-0.053300206
15	0x3e13a4e9	0.14418377

conv32.1.weight f4 [16]
0	0x3fa99729	1.3249255
1	0x3fb39ad6	1.4031627
2	0x3fb660f0	1.4248333
3	0x3feba5b2	1.8409941
4	0x3fb7316f	1.4311961
5	0x3fbb3aa2	1.4627268
6	0x3fca2ed8	1.5795546
7	0x3fce103c	1.6098704
8	0x3fb690a3	1.426289
9	0x3fb4d5cd	1.4127747
10	0x3fc940ac	1.5722861
11	0x3fbbd93a	1.4675667
12	0x3fb9a353	1.4502968
13	0x3fbb4918	1.4631681
14	0x3fb46a28	1.4094896
15	0x3fc66753	1.5500282

conv32.1.bias f4 [16]
0	0xbf1b843e	-0.6074866
1	0xbf06182e	-0.52380645
2	0xbf0c2989	-0.5475088
3	0xbf853df2	-1.0409529
4	0xbf0f8267	-0.56058353
5	0xbf13bae3	-0.5770704
6	0xbf0090af	-0.5022077
7	0xbf53983a	-0.82654154
8	0xbf1cab99	-0.6119934
9	0xbf0c20df	-0.5473766
10	0xbf546ee4	-0.82981706
11	0xbf17e9c9	-0.593411
12	0xbf571768	-0.8402009
13	0xbf37eb68	-0.71843576
14	0xbf53b4f1	-0.8269797
15	0xbf4f3ae9	-0.80949265

conv32.1.running_mean f4 [16]
0	0xc0161c4d	-2.3454773
1	0xbfcecd81	-1.6156465
2	0xc029d47e	-2.6535945
3	0xc0133aae	-2.3004565
4	0xc02cc2f7	-2.6993997
5	0x401755dc	2.3646154
6	0xbf6770f3	-0.9040672
7	0xc02098a3	-2.5093162
8	0xc0018158	-2.0235195
9	0xc09f35b6	-4.9753065
10	0xc08e6aed	-4.4505525
11	0x3fe3d3eb	1.7799047
12	0xc0af14d2	-5.4712915
13	0xbfd31912	-1.6492026
14	0x3fc353de	1.5259969
15	0xc00ff12a	-2.2490945

conv32.1.running_var f4 [16]
0	0x41028c8a	8.159311
1	0x4132f8d1	11.185746
2	0x417b2e23	15.698764
3	0x413a43b7	11.641532
4	0x412d5e7f	10.83557
5	0x41544b6e	13.268415
6	0x4143542d	12.208051
7	0x414bf827	12.748084
8	0x4156d28b	13.426402
9	0x4110fe13	9.06203
10	0x41270703	10.439212
11	0x41342e03	11.261233
12	0x41378d5b	11.472011
13	0x413d8399	11.844628
14	0x411ee42b	9.930705
15	0x4156d8c9	13.427926

fc.0.weight f4 [10, 784]
0	0xbb3cf075	-0.0028829847
1	0x3ffa75a5	1.9567152
2	0xbd96741e	-0.07346366
3	0xbdef236a	-0.116766766
4	0x3eb89e23	0.3605815
5	0x3e575beb	0.21031158
6	0xbe8133cd	-0.25234833
7	0xbee33247	-0.44374296
8	0x3e2437f9	0.16036977
9	0xbef56730	-0.47930288
10	0x3eb21529	0.3478177
11	0x3eebbc04	0.46041882
12	0xbe5583cb	-0.20851056
13	0xbed36f3b	-0.412958
14	0x3f412144	0.75441384
15	0x3ebb2be7	0.36556932
16	0xbe3d4b1d	-0.18485685
17	0xbd905965	-0.07048301
18	0xbf9abc2d	-1.2088677
19	0xbe250b28	-0.16117537
20	0x3dda382e	0.10655247
21	0xbed22cc4	-0.41049778
22	0x3e0ffcc6	0.14061269
23	0xbe418c9e	-0.18901297
24	0x3ea72b66	0.32650298
25	0x3bc78441	0.006088764
26	0x3ea723bb	0.32644448
27	0xbee59be1	-0.4484549
28	0xbfc6e287	-1.5537881
29	0xbdcd4d8b	-0.10024556
30	0xbf59923d	-0.84988767
31	0xbf27cbdb	-0.65545434
32	0xbe379a4e	-0.17929956
33	0x3ea15c7e	0.31515878
34	0xbf49d0d9	-0.788343
35	0x3f4de688	0.8042989
36	0x3f604e02	0.8761903
37	0xbf53ef58	-0.82787085
38	0xbf8b5feb	-1.0888647
39	0x3ead3854	0.33832037
40	0x3f884ac2	1.0647814
41	0xbede15aa	-0.43375903
42	0xbe395b79	-0.181013
43	0x3ebefab8	0.37300658
44	0xbe2bd36d	-0.16779871
45	0x3e298d51	0.16557814
46	0x3d7b151e	0.061299436
47	0x3e28b8bf	0.16476725
48	0xbe11dc8f	-0.14244293
49	0x3e7b6196	0.24548945
50	0x3f10d49b	0.5657441
51	0x3e6a6935	0.22891696
52	0x3d88ad33	0.0667366
53	0xbeef61d3	-0.4675432
54	0x3ea8d48a	0.32974654
55	0xbee5e706	-0.4490282
56	0xbe652145	-0.22375973
57	0xbf6d9089	-0.9279867
58	0xbe9ae41e	-0.30252165
59	0x3ebeac8d	0.3724102
60	0x3ed170f8	0.409065
61	0xbf73bdaa	-0.9521128
62	0xbe9e4dbc	-0.30918682
63	0x3e2313e6	0.1592556
64	0x3e17ade3	0.14812426
65	0x3e5f5bd7	0.21812378
66	0x3d764907	0.060128238
67	0xbc2269ad	-0.00991289
68	0x3d9b300f	0.07577526
69	0xbcfa7fdf	-0.030578552
70	0xbf147237	-0.5798678
71	0xbf742113	-0.9536297
72	0x3d9065ab	0.070506416
73	0x3e824186	0.25440615
74	0x3e81b124	0.2533046
75	0xbf882b58	-1.0638227
76	0xbee02f97	-0.43786308
77	0xbf214d00	-0.6300812
78	0xbf013fdb	-0.5048806
79	0xbf6e1753	-0.9300434
80	0xbef615dd	-0.48063555
81	0x3e77d565	0.24202497
82	0x3ea2ee46	0.31822413
83	0xbd8e808e	-0.069581136
84	0x3e8ed4c7	0.2789671
85	0x3edfddd2	0.43723923
86	0xbf1df441	-0.61700827
87	0x3e7e5a1a	0.24839059
88	0x3e5c09ff	0.21488188
89	0x3e4fad75	0.20281012
90	0x3efe8086	0.4970743
91	0xbe7a60de	-0.24451014
92	0x3eb7f25e	0.359271
93	0x3ecd4779	0.40093592
94	0x3f52b6fd	0.8231047
95	0xbe5eed69	-0.21770252
96	0x3ddc37f0	0.10752857
97	0x3e369c04	0.17832953
98	0xbf5136ae	-0.8172406
99	0xbaea9467	-0.001789701
100	0xbd835bce	-0.06413995
101	0x3e9fad47	0.31186888
102	0x3f713b8b	0.9423148
103	0x3f1a41f7	0.60256904
104	0xbe8214f9	-0.25406626
105	0xbf1e0c24	-0.61737275
106	0x3ebbf217	0.36708137
107	0xbfad5363	-1.3541073
108	0xbd96aae5	-0.07356814
109	0xbf9d00b5	-1.2265841
110	0xbf298423	-0.6621725
111	0xbf8f22ac	-1.1182456
112	0x3f18f795	0.5975278
113	0xbf56d57d	-0.8391951
114	0xbe0898e9	-0.1333958
115	0xbeaf358f	-0.3422055
116	0xbf00861c	-0.50204635
117	0xbe4df64b	-0.20113485
118	0xbedb45e2	-0.42826754
119	0xbf4c5f90	-0.79833317
120	0xbf14a56f	-0.5806493
121	0xbe088815	-0.13333161
122	0x3e1c7156	0.15277609
123	0x3d744a4d	0.05964117
124	0xbf2bc668	-0.6709962
125	0xbedda502	-0.43289953
126	0xbff409c8	-1.9065485
127	0xbf94a878	-1.1613913
128	0xbedcfabf	-0.43160054
129	0xbf16057e	-0.5860213
130	0x3f334e30	0.7004118
131	0x3f7da775	0.99083644
132	0x3ed7f4b6	0.42178887
133	0xbf67d4c9	-0.9055906
134	0xbebf0d5a	-0.37314874
135	0xbf46d0c8	-0.77662325
136	0xbef3d2d6	-0.47621793
137	0x3e5ecd4f	0.21758007
138	0x3e46c241	0.1941004
139	0x3d9f2bc0	0.077720165
140	0xbc152e34	-0.009105254
141	0xbdc9fd1f	-0.09862732
142	0x3e854814	0.26031554
143	0x3e310a3c	0.1728906
144	0x3ef2af26	0.47399253
145	0x3e4053a4	0.18781906
146	0xbd04903f	-0.032364126
147	0xbe9eccc5	-0.31015602
148	0x3eb2fb26	0.34957236
149	0xbf866d6e	-1.0502145
150	0xbee811aa	-0.45325977
151	0xbf9776af	-1.1833094
152	0x3e8a06c2	0.2695828
153	0x3e8c78a8	0.27435803
154	0xbf86d357	-1.0533246
155	0xbef5585e	-0.4791898
156	0x3e67a5b7	0.22621809
157	0xbeff6742	-0.49883467
158	0xbd4d8ac7	-0.050181177
159	0x3e06205e	0.13098285
160	0x3f156374	0.5835488
161	0x3f4ab507	0.79182476
162	0xbe4c1acb	-0.19932096
163	0x3dfe4078	0.1241464
164	0xbecf4470	-0.404819
165	0xbcb82087	-0.022476448
166	0xbe1db29f	-0.1540017
167	0xbf8d0f06	-1.102021
168	0x3eb4eee7	0.35338518
169	0x3e355b41	0.17710592
170	0xbec6cc1c	-0.38827598
171	0xbe4445c1	-0.19167234
172	0xbf8c957c	-1.0983119
173	0xbfb921f7	-1.446349
174	0x3e999c16	0.30001897
175	0x3f2f0f25	0.68382484
176	0xbd7ce89f	-0.061745282
177	0x3df617d2	0.12016262
178	0x3f3ccd04	0.7375033
179	0xbe871828	-0.26385617
180	0xbdc4fe26	-0.096187875
181	0x3e5610a6	0.20904788
182	0x3e483704	0.19552237
183	0x3ec4ce04	0.38438427
184	0x3f27c9d5	0.65542346
185	0x3fa40436	1.2813785
186	0xbf1146c1	-0.56748587
187	0xbe76a0c1	-0.2408476
188	0xbe06c7f7	-0.13162218
189	0xbebad1a9	-0.36488083
190	0x3ed3cb2d	0.41365948
191	0xbf4a66ea	-0.79063284
192	0xbebe49c8	-0.37165666
193	0xbe9e28fe	-0.3089065
194	0x3e64cbca	0.22343364
195	0x3c279053	0.010227281
196	0x3db914f8	0.090372026
197	0x3ef3c017	0.4760749
198	0x3e436961	0.19083168
199	0xbe70e104	-0.23523337
200	0x3e0577be	0.1303396
201	0x3d3fd76e	0.04683631
202	0xbd1007f9	-0.035163853
203	0x3eb85954	0.36005652
204	0xbe5e020c	-0.21680468
205	0xbf69d507	-0.9134068
206	0x3f0159cd	0.5052765
207	0xbe6d97de	-0.23202464
208	0xbe87241b	-0.26394734
209	0x3df8633e	0.12128304
210	0x3e58fae7	0.21189462
211	0x3e96bba9	0.29440048
212	0xbf422d59	-0.75850445
213	0xbe441048	-0.19146836
214	0xbee0169c	-0.4376725
215	0xbe3c3901	-0.1838112
216	0xbe63a2c0	-0.22230053
217	0x3f42a1d5	0.76028186
218	0xbdcaca2c	-0.099018425
219	0xbdde990c	-0.10869035
220	0xbe923108	-0.28553033
221	0xbd592768	-0.053016096
222	0x3ef5e3a8	0.4802525
223	0xbd9a6b53	-0.07540002
224	0x3e839951	0.2570291
225	0x3ee6a763	0.4504958
226	0x3d411f3b	0.047148924
227	0xbd11ac21	-0.035564546
228	0xbe9ad979	-0.30244043
229	0x3e1ea497	0.15492474
230	0xbf887ddb	-1.0663408
231	0x3f1ec62d	0.6202114
232	0x3eb5fa75	0.35542646
233	0xbe2f4ba6	-0.17118701
234	0xbf060b61	-0.5236111
235	0x3f8521f1	1.0400983
236	0xbdc1cdc2	-0.09463073
237	0x3b773905	0.0037723195
238	0xbecfeae7	-0.40608904
239	0xbf863e5b	-1.0487779
240	0x3f01db22	0.50724995
241	0xbdad3c33	-0.08458748
242	0xbeb51e4b	-0.35374674
243	0xbe963e80	-0.2934456
244	0xbea01437	-0.31265423
245	0x3e0e7643	0.13912301
246	0x3eb9394e	0.36176533
247	0x3f3975e0	0.7244549
248	0xbf02f1be	-0.5115012
249	0x3eae5354	0.3404795
250	0xbe64ac1c	-0.2233128
251	0x3e97f195	0.296765
252	0x3f09cb38	0.5382571
253	0x3df4c35d	0.11951325
254	0x3f17d3b6	0.5930742
255	0xbeac04fd	-0.33597556

fc.0.bias f4 [10]
0	0xbdd90c52	-0.10598053
1	0x3e06afdc	0.13153023
2	0xbe0c0dfe	-0.13677213
3	0x3d8d4427	0.06897765
4	0x3d97acd8	0.07406014
5	0xbde2823e	-0.11059998
6	0xbe01f8cf	-0.12692569
7	0xbd3fbcf5	-0.046811063
8	0x3e8d4f3a	0.27599508
9	0xbd930c36	-0.071800634
