log/epoch-0.pth (torch_old, 43962 bytes, 32 tensors)

conv1.0.weight f4 [2, 1, 3, 3]
000000 2b 8b 54 3e 20 b2 2a bd bf ce 5e 3e a1 3e c5 3e
       0.20756213 -0.04167378 0.21758555 0.38524345
000010 ce f7 e4 3e 61 59 09 3d 6f 41 1a 3f 5a 1e cd 3e
       0.4472031 0.033532504 0.60256094 0.4006222
000020 54 c6 99 3e ae 9c 8a bd a0 aa 59 bf fd ba 6c bf
       0.30034125 -0.067681655 -0.8502598 -0.9247282
000030 45 54 bf be 60 39 1f 3e 49 0e 89 be b5 ac 1a bb
       -0.3736898 0.1554923 -0.2676871 -0.0023601477
000040 b9 fe 39 be 28 9b 02 be
       -0.18163575 -0.127545

conv1.0.bias f4 [2]
000000 9b bf 4d be 74 7e b2 be
       -0.20092623 -0.348621

conv1.1.weight f4 [2]
000000 62 93 5c 3f c1 4a 6e 3f
       0.8616239 0.93082815

conv1.1.bias f4 [2]
000000 fc eb f8 3e e2 37 4e 3d
       0.48617542 0.050346263

conv1.1.running_mean f4 [2]
000000 55 29 0e 3e 3e 0a 33 bf
       0.13882954 -0.69937503

conv1.1.running_var f4 [2]
000000 4b be e7 3e 96 15 01 3f
       0.4526237 0.5042356

conv21.0.weight f4 [4, 2, 3, 3]
000000 31 ed 56 3d 67 53 66 3e 21 6f fe bd c3 46 c8 3e
       0.052472297 0.22492753 -0.1242354 0.39116487
000010 60 5a 74 be 9e 5a a5 be dd 4a d4 3e db 59 12 be
       -0.238626 -0.32295698 0.41463366 -0.1429209
000020 36 4c 73 bd a1 15 74 3e 4f 1d 68 be a6 b1 cf 3d
       -0.059398852 0.23836376 -0.2266743 0.101413056
000030 68 a8 1b be 71 72 d1 3e d8 41 05 bf ac 84 b7 bd
       -0.1520096 0.40907624 -0.52053595 -0.08960852
000040 73 bf 2c 3e 99 1e bf 3e ed 2e b5 bd e2 4e 95 3d
       0.16869907 0.37328032 -0.08846841 0.07290436
000050 99 93 cf bd 6c 48 00 3f 97 cc cd bd e8 14 63 be
       -0.10135574 0.50110507 -0.10048788 -0.22175944
000060 0a e9 61 be 66 49 1e be 12 11 ab 3d 3e 0b b3 3c
       -0.22061554 -0.15457687 0.08352865 0.021855947
000070 97 47 e3 bd 7d cc 75 3e e3 79 44 3d 7b 53 e0 3e
       -0.11097639 0.24003787 0.047967803 0.4381369
000080 72 06 64 3e 39 d0 de 3c 58 f6 f5 3d c2 7c 75 be
       0.22268084 0.027198898 0.12009877 -0.23973373
000090 25 f1 49 3e c0 4f 74 3e cc 89 99 3e a5 ae a9 bd
       0.19720896 0.23858547 0.29987943 -0.08285264
0000a0 8a 15 cc 3d e7 ba 83 3e 37 d8 b7 3e 50 b9 24 bd
       0.09965046 0.25728533 0.35907146 -0.04021579
0000b0 d9 86 dd bd 47 43 69 be 1e 80 0b be 13 51 e6 be
       -0.10816736 -0.2277957 -0.13623092 -0.4498373
0000c0 44 40 07 be 8c 5b bc be 73 48 c2 be a8 2a 59 be
       -0.13208109 -0.36788595 -0.379459 -0.21207678
0000d0 e3 4d c8 bb 6b 08 13 3c 4f ba 61 be 78 e8 c8 bc
       -0.0061128004 0.008974175 -0.22043727 -0.024524912
0000e0 55 93 dc bd 5d a4 b2 3e f6 c0 cf 3e eb a5 4e 3e
       -0.10770289 0.34891024 0.40576905 0.2018048
0000f0 e1 8d 85 be 8b fb 99 be 75 59 ff 3d 2f 58 4f 3e
       -0.26084808 -0.30074725 0.124682344 0.20248483
000100 c9 d2 15 3d 67 de 74 3e fc b7 44 bc 02 d2 23 bc
       0.036577974 0.23912965 -0.012006756 -0.0099988
000110 de 9b 8e be 3d fd a2 3d ad 3d 4f be 49 79 36 be
       -0.27853292 0.079584576 -0.20238371 -0.17819704

conv21.0.bias f4 [4]
000000 62 8a 81 bd 19 99 b9 bd 55 f4 56 3e 18 f7 82 3e
       -0.063252226 -0.09062404 0.20991643 0.25579143

conv21.1.weight f4 [4]
000000 be 4e 83 3f 66 6f a0 3f 26 b3 81 3f 01 05 73 3f
       1.0258405 1.2533996 1.0132797 0.9492951

conv21.1.bias f4 [4]
000000 2e 66 f5 bc 66 6c 0c be d2 a1 8c 3e 04 c6 2e 3e
       -0.02995595 -0.13713226 0.2746721 0.17067724

conv21.1.running_mean f4 [4]
000000 58 15 2d 3e b3 cc 7e 3d b3 d5 9d 3e 44 83 9f 3e
       0.16902673 0.062206935 0.30827102 0.31154835

conv21.1.running_var f4 [4]
000000 38 e7 0f 3f b3 d1 6e 3e 8b 24 c3 3f 92 a9 6b 3e
       0.56212187 0.23322181 1.5245527 0.23013905

conv22.0.weight f4 [4, 4, 3, 3]
000000 2f f2 9c be fd eb b2 be c5 d8 67 be a3 65 e1 bd
       -0.3065352 -0.3494567 -0.22641285 -0.11005714
000010 81 4c 82 be f5 0d 2d be a0 69 2f bd 1e 1e c1 bd
       -0.25448993 -0.16899855 -0.04282534 -0.094295725
000020 f1 99 32 be 77 83 af 3d c9 02 d0 bc 97 33 d9 3d
       -0.17441536 0.08569997 -0.025391953 0.10605543
000030 67 3a 60 be b5 4a 07 3f 55 88 06 3d 08 d9 ad be
       -0.21897279 0.5284837 0.03284486 -0.33954644
000040 3b d5 89 be b0 a9 1a be 00 ec 70 be b5 7d 81 bd
       -0.26920494 -0.15103793 -0.23527527 -0.06322805
000050 80 ad ee bd 21 a9 78 3b c7 43 53 be 08 81 5a be
       -0.11654186 0.0037942606 -0.20631324 -0.21338284
000060 7d f5 c0 3d b5 ee 4d 3e 33 a6 c0 3d 6d 38 2c be
       0.09421823 0.20110591 0.094067 -0.168184
000070 01 e8 32 bf 52 ef a0 be 15 87 42 3e 27 c8 16 be
       -0.6988526 -0.31432587 0.18996842 -0.1472479
000080 98 a0 8e bc 5d 9e bf 3d ee b7 68 bd 82 3f 72 3e
       -0.017410561 0.09356377 -0.056816034 0.23657039
000090 17 38 de bd b8 0c 4f be 17 b9 e5 3d f9 de e4 bd
       -0.10850542 -0.20219696 0.11216944 -0.11175341
0000a0 26 0a ff bd 56 de 85 bd 52 45 32 be 6f 3d 8b be
       -0.124531075 -0.06536548 -0.17409256 -0.27195308
0000b0 06 f8 09 be 0e 6f 40 be d7 dc 4d be f7 e7 c6 be
       -0.1347352 -0.18792364 -0.20103775 -0.3884885
0000c0 fe ab c4 bc d4 4d 2c be bc 7b 0e bf c0 4d 13 3f
       -0.024007794 -0.16826564 -0.55657554 0.5754051
0000d0 01 43 34 3e db cf dd bd 1f 21 a3 3e 00 df c3 3e
       0.17603685 -0.10830661 0.31861207 0.38256073
0000e0 5e 7a 7e 3d 30 d3 56 3d 92 87 02 be 92 38 b6 3d
       0.062128417 0.052447498 -0.12747028 0.08897509
0000f0 52 c5 cb bd 39 77 e9 bd b1 39 56 be 28 6f 20 3d
       -0.09949745 -0.11399693 -0.20920445 0.039168507
000100 77 53 2c 3e 02 6f ac 3e 6b e3 0b 3e a8 09 67 3d
       0.16828714 0.33678442 0.13660972 0.056405693
000110 55 9a cc 3e 74 1c d6 bd 88 8b 45 bd 28 2c 87 bd
       0.39961496 -0.10454646 -0.04822877 -0.06600219
000120 7a 8c 51 bd 05 8a 0b be 86 46 47 3e 1a ae e0 be
       -0.05115936 -0.13626869 0.19460496 -0.4388283
000130 12 8d a0 bd d3 25 29 3e 53 9f c8 3e 2e 9b 84 3e
       -0.07839407 0.16518335 0.39184055 0.25899643
000140 21 91 a7 3e 1d a8 ba bd 84 fa cb 3c 39 35 f9 bd
       0.32727912 -0.09114096 0.024899729 -0.121683545
000150 7a 53 21 be f6 40 a0 bd 9c 65 54 bc 11 37 b1 3d
       -0.157545 -0.0782489 -0.012963679 0.08653081
000160 48 79 04 3f d7 44 fb bc 4b 31 1d bc 94 e1 04 3e
       0.5174756 -0.030672474 -0.009594272 0.12976676
000170 e4 5f 55 3d ca 47 93 3e 51 ef b7 3c 7f dc 43 3e
       0.0520934 0.28765708 0.022452982 0.19127081
000180 d0 19 ae 3e 65 bf a7 3e 35 c7 ac 3d c8 b0 16 3e
       0.34004068 0.3276321 0.08436433 0.14715874
000190 2c 1c a2 be dc 72 6c be 30 e6 66 be 23 99 09 be
       -0.31662118 -0.2309069 -0.22548747 -0.13437323
0001a0 c5 53 51 be 4f 2b 01 3c 88 52 ee 3c f9 c6 1c be
       -0.20442112 0.007883861 0.029092088 -0.15310277
0001b0 aa 5a 3f be 07 3e ba bd c0 e7 8a 3d 92 23 69 be
       -0.1868693 -0.09093862 0.06782484 -0.22767475
0001c0 fd 70 25 be 68 0e 2a be 6a cc bc 3e bf 45 8a bc
       -0.16156383 -0.16607058 0.36874706 -0.01687896
0001d0 38 a4 c7 bd 9c 0d a2 3e 8a ff 3b be 6f 14 35 be
       -0.09748119 0.31651008 -0.18359199 -0.17683576
0001e0 f5 48 08 bf 91 9a 4b bb 7b 24 54 3e fd 5a 4f 3e
       -0.53236324 -0.003106747 0.20717041 0.20249553
0001f0 48 38 85 3c fd 4a 3e be c0 0f ee bd de 57 29 be
       0.016262189 -0.18583293 -0.11624098 -0.16537425
000200 a3 2e 64 bd 60 33 20 3e 27 49 80 3e 02 25 bc bd
       -0.05570854 0.15644598 0.2505581 -0.09186746
000210 85 28 bb 3e c0 63 8f 3d 21 1f a7 be 11 6a ca bd
       0.3655435 0.07001448 -0.32640937 -0.09883512
000220 17 56 2b 3e 92 9f 5b 3e 78 2b cb bc 2c 96 59 3e
       0.1673206 0.2144759 -0.024801001 0.21248692
000230 df 3f d0 3e b4 54 7d 3e 9b 3b a3 be 3d d9 da be
       0.4067373 0.24739343 -0.31881413 -0.42743865

conv22.0.bias f4 [4]
000000 c1 a0 c2 bd 77 e3 0d 3d f3 f7 9c 3b 15 ee 81 bd
       -0.095033176 0.034640756 0.0047903 -0.06344239

conv22.1.weight f4 [4]
000000 11 20 84 3f 4e 38 8a 3f 51 71 77 3f e1 1b 70 3f
       1.0322286 1.0798433 0.9665728 0.9379254

conv22.1.bias f4 [4]
000000 19 ad 8b bd 34 ac 07 3e c2 96 18 bd 83 10 b9 3d
       -0.06820125 0.13249284 -0.03725315 0.090363525

conv22.1.running_mean f4 [4]
000000 45 0c a3 bf f4 77 81 bd 86 00 12 3f 47 68 1f be
       -1.2738119 -0.06321707 0.5703205 -0.15567122

conv22.1.running_var f4 [4]
000000 8d 43 15 40 13 ec a6 3f 5d f4 de 3f db b2 31 3f
       2.332248 1.3040794 1.7418324 0.69413537

conv31.0.weight f4 [8, 4, 3, 3]
000000 02 d0 8c 3d fc 76 2f 3d a7 9d 34 3e 0d 8b c8 bd
       0.06875612 0.04283808 0.17638265 -0.09792147
000010 08 ea d5 bd c1 1e 4e bd ff 07 cc 3b 99 eb 21 3e
       -0.104450285 -0.050322298 0.006226539 0.1581253
000020 6c ae 17 3e c0 7f 39 3e fc cb a3 3c 83 6d 69 be
       0.1481263 0.18115139 0.019994728 -0.22795682
000030 22 fb cb bc 7d d2 d5 3e e9 49 0a 3f 9a 36 10 be
       -0.024900023 0.41762152 0.5401903 -0.14083329
000040 bf a4 ac be f7 af a8 3d 04 b2 35 be c2 26 92 3e
       -0.3371944 0.08236688 -0.17743689 0.28545195
000050 e8 b9 be 3d 93 26 c5 bd 23 5d 12 be b8 80 63 bd
       0.093128026 -0.09626498 -0.14293341 -0.055542678
000060 a2 fa 3a 3e d0 9e 27 3d a2 3e 74 3e f4 64 61 be
       0.18259671 0.04092294 0.23852018 -0.22011167
000070 b4 3b 38 3d e0 0a 5e be 93 21 fe bc fe c3 08 be
       0.044978812 -0.21683836 -0.031021869 -0.13356015
000080 0a 0c 48 3e 16 f4 49 3e 21 e2 e5 3d 1f 6d 1b be
       0.19535843 0.19722018 0.11224771 -0.15178345
000090 00 1a 96 3e e9 e1 17 3f 61 60 51 be a6 01 36 be
       0.2931671 0.59329087 -0.20446922 -0.17774066
0000a0 dd 14 46 be 09 e6 68 3e 6d 6c 7a 3e 27 47 e8 3e
       -0.19343896 0.22744001 0.24455424 0.45366785
0000b0 4f 8e b5 3e 56 3e 06 be 1d aa 1d bd be 63 ae bd
       0.35460135 -0.13109717 -0.03849231 -0.08515118
0000c0 29 bd 2e bc fa 4f 00 3e 0d 99 3d 3e a2 3c 94 bd
       -0.0106652165 0.12530509 0.18515415 -0.07238127
0000d0 b7 97 0b bd 6b bd 61 be c8 ff 93 be e1 38 a4 be
       -0.034080233 -0.22044913 -0.28906083 -0.32074645
0000e0 5e 62 8d 3d 98 c8 98 3e 17 c0 ad bd 43 8d 3d be
       0.06903528 0.2984054 -0.08483904 -0.18510918
0000f0 fc ee a5 3d e0 4c 87 be a1 e5 73 be 7e e8 b9 3d
       0.08102223 -0.26425838 -0.23818065 0.090775475
000100 14 48 e0 bc 58 0e c5 3d 0a 1f 53 3e 17 f4 52 3e
       -0.02737812 0.096218765 0.20617309 0.20600925
000110 bf 5f 0d 3d 82 07 fc 3d ba fd b0 3d cf a7 47 3d
       0.03451514 0.123061195 0.086421445 0.04874402
000120 22 5e c9 3d c7 bb 02 3e b1 84 28 be 5d 10 a7 3e
       0.098324075 0.12766944 -0.16456868 0.32629672
000130 e7 96 0a 3e 26 c8 5f be 35 60 78 3e dd 82 e1 be
       0.13534127 -0.21853694 0.2425545 -0.44045153
000140 77 b9 62 bd 16 10 48 3e 3b ea a7 3e 53 71 8a be
       -0.055352654 0.19537386 0.3279589 -0.27039585
000150 80 eb 6c be e2 1a 2c be e6 f4 99 bd 1a 89 77 be
       -0.23136711 -0.1680713 -0.07517414 -0.24173394
000160 9b 60 20 3d b9 b7 f3 3d be cb 17 be 19 15 46 be
       0.03915463 0.11900277 -0.14823815 -0.19343986
000170 5b 5b da bc 3c e4 b0 bd 2c 05 e9 3e 14 03 38 be
       -0.02665489 -0.08637282 0.45511758 -0.17969924
000180 ec a2 a7 be 27 d9 16 3e 0d 0b 0b 3e 8b 47 8d 3e
       -0.32741487 0.14731275 0.13578434 0.27593645
000190 c6 d0 58 be d4 a3 70 be 6c 44 5d be 04 e3 3a be
       -0.21173391 -0.23499995 -0.21608132 -0.18250662
0001a0 64 94 93 3e 96 4a 4b 3e 6d 87 45 3e e5 b6 49 be
       0.2882415 0.19852671 0.19289942 -0.19698675
0001b0 05 36 8c be 65 eb 8c 3e 69 6d a9 bd 9e bd ac be
       -0.27384964 0.27523342 -0.082728215 -0.33738416
0001c0 31 94 d2 be b9 a8 8b 3e a1 72 87 3d 1a 3a d8 bd
       -0.41128686 0.27277163 0.066136606 -0.10557957
0001d0 83 1a 8e 3d 0d cb e7 3d ce e7 dd be c2 f5 c8 3e
       0.069386505 0.11318026 -0.43340915 0.39249998
0001e0 10 0d 8b 3e ac 42 83 3e 86 d7 bb bc 60 01 8f bd
       0.27158403 0.25636804 -0.022929918 -0.06982684
0001f0 18 24 56 3e b6 82 01 3e 3f 59 41 3d 5f dd 8c be
       0.20912206 0.12647519 0.047204252 -0.27512643
000200 f6 22 ce bd c7 da a9 bc 09 22 2c 3e d1 68 b2 be
       -0.10065262 -0.020734204 0.16809858 -0.34845594
000210 d4 9f c3 bd 40 5c 27 be 51 fe 6a be 57 38 83 3d
       -0.09551969 -0.16343784 -0.22948577 0.0640723
000220 33 5e 7e 3e 81 85 a9 3e a3 d7 a1 3e 99 11 9f 3b
       0.24840622 0.33109668 0.3160983 0.0048543927
000230 e3 6e 1b be 73 4c b5 be b8 c8 0b be 8b 30 16 3c
       -0.15179019 -0.3540989 -0.13650787 0.009166847
000240 fc 3a 37 3d 3b 4f 55 bd da a8 bf 3d a7 fc ad 3e
       0.044733986 -0.052077513 0.09358378 0.3398182
000250 cf 3b b6 be ce e3 80 3d 95 9b 0d bc f4 0e 62 3e
       -0.35592505 0.0629345 -0.008643051 0.22076017
000260 70 73 c5 3e 33 b4 66 be 16 05 90 3e 7d 11 2d be
       0.38564634 -0.22529678 0.2812888 -0.16901202
000270 d9 3e 01 3d c9 89 07 be 19 96 da be 8d 89 64 3d
       0.031554077 -0.13236155 -0.4269264 0.05579524
000280 93 ca f0 be 47 3c 2c bd 6e b1 d1 bd 12 63 24 be
       -0.47029552 -0.042049672 -0.1023892 -0.16053417
000290 65 d7 08 3e a4 e3 e4 bc 3a 0c 6a bd 76 89 46 3e
       0.13363416 -0.027940579 -0.057140566 0.19388375
0002a0 a0 58 ff b9 84 56 ab be 86 c6 da be 89 30 40 be
       -0.0004870342 -0.33464444 -0.42729586 -0.18768515
0002b0 9a 15 df bb 36 a8 c6 3d e3 77 c5 3e 0a da 2c 3e
       -0.006807995 0.097000524 0.3856803 0.1688005
0002c0 a1 82 fa bd c7 f4 b1 bd ce 6a 3e bd 4c 06 05 3e
       -0.12231947 -0.08689266 -0.046488576 0.12990683
0002d0 61 66 4e 3e d8 1d 55 bd fb df 6e 3e 4d e6 87 bd
       0.20156242 -0.052030414 0.2332763 -0.06635723
0002e0 3c 4f 2d 3d f2 4d a0 be 74 df 78 3d 66 88 02 be
       0.042311892 -0.31309468 0.060759977 -0.12747344
0002f0 f5 ff 48 bd b2 21 26 be a7 3b 01 be d3 cf d3 bd
       -0.049072225 -0.16223791 -0.12620412 -0.10342374
000300 08 8b 1a 3e 6b e3 ab bd 85 3e 3c bc 57 21 e1 3c
       0.15092099 -0.08392986 -0.011489515 0.027481718
000310 01 2e 29 3e 3a 88 50 be c5 f1 1a be c4 11 c7 3e
       0.16521455 -0.20364466 -0.1513129 0.38880742
000320 d2 b7 7a bb a0 a8 96 3d 56 68 e0 3c 39 c7 28 3d
       -0.0038256538 0.073563814 0.027393501 0.04120562
000330 8f d1 9b be 6e d0 25 3e d4 78 99 3d de 30 dd 3b
       -0.30433318 0.16192791 0.07493749 0.00675021
000340 cd 91 21 bf f7 d1 2a 3e c5 d2 da be b6 c9 83 be
       -0.631131 0.16681658 -0.4273893 -0.2573983
000350 01 0a 48 3e cd 1a 04 be 28 a6 cf bd 38 8a 46 be
       0.19535066 -0.12900849 -0.10139114 -0.19388664
000360 ca a9 f9 3d a1 5c 55 be fe 8d 5e be 0c 64 01 3e
       0.12190588 -0.20836116 -0.21733853 0.12635821
000370 a3 e2 a6 3e d1 d7 8a bd e6 04 26 be c9 5b 37 3e
       0.32594785 -0.06779445 -0.16212806 0.17906107
000380 6f 19 ab 3e 05 eb 2c be 73 c7 9b 3c a8 26 5d be
       0.33417842 -0.16886528 0.019016003 -0.21596777
000390 75 d6 a6 bd 0e c2 c1 bd ca 77 7d 3e 05 cd 11 3d
       -0.08146373 -0.09460841 0.24752727 0.035595912
0003a0 0c 14 15 3e 45 f0 0a 3e ad 08 a1 bd 19 5b 0d be
       0.14558429 0.13568218 -0.07862983 -0.13804282
0003b0 8d 5c 11 3e 0e cb ee 3e b0 0b fe 3e 91 64 4f be
       0.14195462 0.46639293 0.49618292 -0.20253207
0003c0 fc 52 af bd 4c c3 6e be 21 c9 90 bd 38 3e 3d 3d
       -0.0856075 -0.23316687 -0.07069612 0.046201915
0003d0 b5 16 96 be b5 68 1a bd 29 98 76 bd 46 00 5d 3d
       -0.293142 -0.037697513 -0.060203705 0.05395534
0003e0 ec f5 e5 bc 42 53 4a 3d db 37 58 3e 8e 7d 5d 3e
       -0.028071366 0.049395807 0.21115057 0.21629927
0003f0 07 3d 07 3e 91 56 0d 3e c8 62 92 3d cf 72 39 3d
       0.13206874 0.13802554 0.07147747 0.045275506

conv31.0.bias f4 [8]
000000 80 ab c7 3d 1b 41 4e 3e 23 29 1c 3e 74 33 c5 bd
       0.09749508 0.20142023 0.15250067 -0.096289545
000010 45 79 9e 3d 3e 14 8e 3d ed b4 ad bd 71 33 bb 3d
       0.07737974 0.06937455 -0.084817745 0.09140671

conv31.1.weight f4 [8]
000000 2e 9b 6f 3f 0e c8 7a 3f b3 2c 82 3f eb 7e 71 3f
       0.9359616 0.9796151 1.0169891 0.94334286
000010 e1 f9 86 3f 43 a8 83 3f 90 a6 87 3f cb 2c 86 3f
       1.0545007 1.0285724 1.0597706 1.048242

conv31.1.bias f4 [8]
000000 03 6e 42 3e df c5 83 bd 17 b4 bf bd 37 10 a8 bd
       0.18987279 -0.06434225 -0.09360521 -0.08206218
000010 ee 95 86 be 6b 81 a0 bd f7 1a 00 3e 85 59 bf bb
       -0.26286262 -0.078371845 0.12510286 -0.005839529

conv31.1.running_mean f4 [8]
000000 3d 67 2f 3f d3 4e 2c 3f 6e b7 6d be 0d ce 27 be
       0.68516904 0.67307776 -0.23214504 -0.16387196
000010 f1 37 30 bf 53 4d 69 bf 4d fd f0 3e eb 9b 79 bf
       -0.6883536 -0.9113361 0.47068253 -0.97503537

conv31.1.running_var f4 [8]
000000 34 f8 49 3f 3c 60 70 3f ae 03 85 3f 4d 87 bc 3f
       0.7889435 0.9389684 1.0391748 1.472879
000010 0a 01 6f 3f dd 0b 44 3f 74 5d 42 3f 7e 43 04 40
       0.9336096 0.765806 0.7592385 2.0666194

conv32.0.weight f4 [16, 8, 3, 3]
000000 c3 e6 0c 3e 65 09 35 3e 4d 29 e1 3d df a9 3c 3d
       0.13759904 0.17679365 0.109942056 0.04606044
000010 5d be 57 be ce aa 2e 3e 23 cd 91 3d 77 2a c3 bd
       -0.21068712 0.17057344 0.07119205 -0.09529584
000020 03 5b f8 bd b5 8a a1 3d 54 6f 63 be 06 a5 0b bd
       -0.12126734 0.078877844 -0.22210437 -0.034092925
000030 e3 f8 25 3e bf 93 38 bd 66 9b 2b bd 25 b6 c0 3e
       0.16208224 -0.045062777 -0.041896246 0.37638965
000040 e3 19 f1 bc be f9 47 bc 75 b9 56 be 6d a9 8f 3b
       -0.029431289 -0.012205539 -0.20969184 0.004384211
000050 f0 c3 b3 3e 08 f4 0f be a6 93 82 3c cc 9a 6e 3e
       0.35110426 -0.14057934 0.015939545 0.23301238
000060 c3 16 85 3e bb 37 d2 3d 21 a5 98 be 3d 48 33 3e
       0.25993928 0.10264536 -0.29813483 0.17508025
000070 43 10 d5 bc fe fb 66 bb b3 27 d5 3d 8a 54 d7 bd
       -0.02600873 -0.0035245414 0.10407963 -0.105141714
000080 ba 1a bc bd f2 ae 6d 3d f8 70 02 be b1 e0 95 bc
       -0.09184785 0.05802817 -0.12738407 -0.018295618
000090 88 4c fd bd e8 4d 15 3e ae 9c 89 3d 04 4c e0 3d
       -0.12368113 0.145805 0.067193374 0.10951999
0000a0 5a d9 11 be 30 41 4b 3d f7 cd fd 3d 78 1b 16 3a
       -0.1424307 0.049622715 0.123928 0.0005726139
0000b0 91 23 be bc 9d e0 56 bd 8e 5e 3c be ac b0 68 be
       -0.023210319 -0.0524603 -0.18395445 -0.22723645
0000c0 e5 f9 d4 bc 01 39 36 be d3 c0 04 be 3a 4c 9c 3e
       -0.025998065 -0.17795183 -0.12964182 0.30526906
0000d0 83 51 8b 3d a5 32 00 3d cb 37 e5 be 06 84 86 bd
       0.068026565 0.0312983 -0.4476913 -0.0656815
0000e0 cb b8 35 3e 4d d9 40 3d a4 cd 7d be 25 fe 1d bd
       0.17746274 0.047082234 -0.24785477 -0.03857245
0000f0 0c 37 2c bd 14 f2 4b bd 43 c3 26 be f6 1c 87 3b
       -0.042044684 -0.04979141 -0.16285424 0.0041233255
000100 ef 22 aa bd 77 84 69 be fc a8 66 be f6 5c ab bd
       -0.08307444 -0.22804438 -0.225254 -0.0836734
000110 7c f0 a1 be df 1d 24 be 96 56 2e bd 8c 07 ed bb
       -0.31628788 -0.1602702 -0.042563044 -0.0072335657
000120 ea 62 1e 3e 49 72 7f 3e 86 b5 fe 3c 23 1f ac bd
       0.1546742 0.2494594 0.031092416 -0.08404376
000130 82 fa 2b 3d f0 0b 33 3e e9 40 54 be 1d a0 79 bc
       0.04198695 0.17485023 -0.20727886 -0.015235928
000140 d2 5b 15 be b5 5f 17 be e1 69 24 be 9b 50 05 be
       -0.14585808 -0.14782603 -0.16056015 -0.1301903
000150 9f 0a 91 3d 6f 45 d7 3d 02 ba 0d be 7c 00 5b 3e
       0.07082104 0.1051129 -0.13840488 0.21386904
000160 7b 73 b9 3e 40 64 8b 3d 69 a3 2f bc f0 0e 58 3d
       0.36220917 0.068062305 -0.010720112 0.05274862
000170 db 1e 7b be 46 62 c5 be 83 31 f1 3d b9 84 85 3e
       -0.24523489 -0.3855154 0.11777022 0.26077822
000180 8c 1a 04 3d eb 0d 34 be 20 af 64 3d 5f 87 c4 bd
       0.03225188 -0.17583434 0.055831075 -0.095961325
000190 67 49 12 be 14 3e 9a bd 93 4f ab bd f3 55 90 3e
       -0.14285813 -0.07531372 -0.08364787 0.28190574
0001a0 a3 dc 78 be 9f 92 8d be 49 ef 88 bd 11 be a2 bd
       -0.24302916 -0.27650926 -0.06686265 -0.079464085
0001b0 82 54 67 3d 10 a6 15 3d 95 61 82 be b4 cc 59 3d
       0.056477077 0.036535323 -0.25465074 0.053173736
0001c0 6b 0f 9b 3e e6 ad 2c bd a4 62 b7 3e 46 0d c8 3d
       0.302852 -0.04215803 0.35817444 0.09768157
0001d0 57 29 b3 3d b5 19 ac 3d c9 d0 7b bd f9 98 32 3e
       0.08748119 0.08403341 -0.06147841 0.17441167
0001e0 2e 23 07 be c9 3e 1b be 1f 2f d0 bd ce 27 1f 3c
       -0.13197014 -0.1516067 -0.10165238 0.00971408
0001f0 b2 4b 3c 3e ba 1a 40 be a9 72 82 bd 0e 9b a7 3d
       0.1838825 -0.18760195 -0.06369526 0.08183871
000200 66 80 21 3e 92 22 26 3d da 36 58 3e 60 53 03 3e
       0.15771636 0.040560313 0.21114674 0.12824774
000210 8e a9 a5 3d fb 8e 5e 3d 2e ba a9 3d 6e d1 26 3e
       0.080889806 0.054335576 0.08287464 0.16290829
000220 f7 70 22 3e 32 12 2e be 9e 8e 98 bd 0f 60 50 3e
       0.15863405 -0.16999128 -0.07449077 0.20349143
000230 c4 4e 5e 3c f2 fb 38 bd 9f d3 55 3d b4 40 11 bd
       0.013568584 -0.04516215 0.05220377 -0.035462096
000240 e2 f2 85 bd 3d ae 98 3d cd 7c 85 3e 01 2e 04 3e
       -0.06540467 0.07455108 0.26071778 0.12908174
000250 96 20 5c 3e 53 8e 1e bd c8 9c 69 3c 7f 34 14 be
       0.21496806 -0.03870995 0.014258571 -0.1447315
000260 45 ab f1 be e0 38 92 bd 9d 45 36 3d 58 5f d2 3e
       -0.4720098 -0.07139754 0.044499982 0.41088367
000270 bb dc 62 3e 60 e8 31 3e 54 ad 42 be 75 71 a0 be
       0.22154514 0.173738 -0.19011432 -0.3133656
000280 a8 92 55 be 29 bb 3e 3d b4 a2 7e bc ca f1 8a 3d
       -0.20856726 0.04656521 -0.015541721 0.06784399
000290 56 2f 73 3e b4 58 0a bd 02 c7 70 be a0 3e 4b be
       0.23748526 -0.033776 -0.23513415 -0.19848108
0002a0 37 da 53 be 39 e3 0e 3e 15 ed a3 3e e1 6f 5b be
       -0.20688711 0.13953866 0.32016817 -0.21429397
0002b0 f7 df d6 bd 38 03 23 be f9 0d 5d 3e 89 90 c9 3d
       -0.10491937 -0.15919197 0.21587361 0.09842021
0002c0 89 64 d3 bd c3 0e 6b 3c 19 5b 2a be 4b 7c ad be
       -0.1032191 0.014346781 -0.16636313 -0.3388389
0002d0 b7 6a 3f bd 52 78 4e bc 0f bd a9 be 1c d8 e6 3d
       -0.04673263 -0.012601929 -0.33152053 0.11271688
0002e0 d1 74 cd 3d a1 32 e4 bd 2f 56 4c 3e 90 fd e6 3c
       0.100320466 -0.11142469 0.19954751 0.02819708
0002f0 e4 ac 44 3e a2 cb 06 be 7b 84 e0 bc bf 85 57 3e
       0.19206578 -0.13163617 -0.027406922 0.21047114
000300 e4 86 57 3d e0 3a 56 bd cb 5d 37 be 29 57 b9 bd
       0.052618876 -0.05230224 -0.17906873 -0.090498276
000310 34 87 37 3d 25 a5 76 bc 78 63 ab bd e7 08 97 3e
       0.044806674 -0.015054022 -0.083685815 0.2949898
000320 ce 03 8f 3e 75 58 8c bd d0 af fa 3a ce 4a 87 3d
       0.2793259 -0.06852809 0.0019125883 0.06606065
000330 77 a1 c6 be e5 9c 03 be 7f 8e 23 bd 94 83 8e bd
       -0.38795063 -0.1285282 -0.039930817 -0.0695869
000340 6f 6b 63 be 78 52 26 3d b9 ed a1 3d 1a 4d 52 bd
       -0.22208951 0.040605992 0.0790667 -0.05134306
000350 c5 24 b1 3d 75 7d 6d bd c7 30 ce 3d f6 96 87 bd
       0.08649591 -0.057980973 0.10067897 -0.066205904
000360 01 41 8b bd 30 e7 24 be 0c 92 00 be 56 74 d5 bd
       -0.06799508 -0.16103816 -0.12555712 -0.1042258
000370 24 cf b1 bc 86 d5 c4 3d f0 99 18 3e 13 40 26 be
       -0.021705218 0.09611039 0.14902472 -0.1623538
000380 c0 18 68 bc 6a f8 60 3d 26 09 d9 3b ed 6f 90 be
       -0.014166057 0.054924406 0.006623405 -0.28210393
000390 ab 29 bf 3d cd 92 4a be fc 4f 2a 3d 86 7c c5 bd
       0.093341194 -0.19782563 0.041580185 -0.096428916
0003a0 9c 6a bd be 75 bb 09 3e d3 82 03 3e ad bf ba bd
       -0.369954 0.13450415 0.12842874 -0.091185905
0003b0 dd da 8c 3d f8 6e e4 3e 4c 8a 60 3d bb 0c a5 bd
       0.06877682 0.44615912 0.05481939 -0.08059069
0003c0 79 71 01 be 8e 0e f2 3c 95 fc 8f be 06 d2 1b 3c
       -0.12640943 0.029547956 -0.28122392 0.009510523
0003d0 fb 89 0d 3e e6 ed b2 be a1 5a 45 be f8 63 04 3d
       0.13822167 -0.34947127 -0.19272853 0.0323219
0003e0 eb b8 7f be a3 85 29 bd fb bb 72 bd e5 93 1b 3a
       -0.24972884 -0.04138721 -0.059261303 0.0005934819
0003f0 ec c1 8d 3d 1a c0 fc bd 00 1b 8f bb 7e 54 dc 3d
       0.06921753 -0.12341328 -0.0043672323 0.10758303

conv32.0.bias f4 [16]
000000 b5 db 38 bc b2 c3 b2 3b 89 b1 9c 3d fc 93 85 bc
       -0.011282851 0.0054554576 0.0765105 -0.016305916
000010 ce 85 7b 3d c7 e6 54 3d 05 b5 48 bd 26 b3 5a bc
       0.061406903 0.0519779 -0.04900076 -0.013348376
000020 46 7c 10 be 99 58 a3 bc 83 08 cd 3b 4e 16 1c 3c
       -0.14109907 -0.019939708 0.006257118 0.009526802
000030 21 75 b5 bb 28 91 a4 bd 36 5c 0f 3e 05 aa 0b 3c
       -0.0055376445 -0.08035499 0.1400002 0.0085244225

conv32.1.weight f4 [16]
000000 91 c2 6c 3f e5 75 88 3f 00 97 94 3f 0b 29 95 3f
       0.92484385 1.0660979 1.1608582 1.165315
000010 b1 ff 8a 3f 8b 39 78 3f 79 66 8c 3f 3f c4 72 3f
       1.0859281 0.96962804 1.0968772 0.948307
000020 da 42 8a 3f 07 12 89 3f ad 84 75 3f 3f f0 81 3f
       1.0801651 1.0708627 0.9590557 1.0151442
000030 22 be 81 3f 70 94 85 3f 6e 71 88 3f 7b 17 80 3f
       1.0136149 1.0435925 1.0659616 1.0007166

conv32.1.bias f4 [16]
000000 45 93 9f bd 3c ef 06 be 01 12 a9 bd 39 50 3f be
       -0.07791761 -0.13177198 -0.08255387 -0.18682946
000010 98 48 b1 bd 9a 03 22 be 4e d0 79 bd e1 a7 e6 bd
       -0.08656424 -0.15821686 -0.06098967 -0.11262489
000020 b8 c6 e5 bd 56 a0 db bd 4f a7 ea bd 6f ad f0 bc
       -0.11219543 -0.10723941 -0.11457693 -0.029379575
000030 0a 98 37 be d6 e9 f3 bd be a4 24 be ac c4 68 be
       -0.17929092 -0.11909835 -0.16078469 -0.22731274

conv32.1.running_mean f4 [16]
000000 64 35 13 bf cd fe c9 3e 38 18 af bd bc 78 d0 be
       -0.5750334 0.3945221 -0.08549541 -0.40717113
000010 6e 69 00 bf f8 19 d7 3e 2b 97 98 3c 04 35 a8 bd
       -0.5016087 0.42012 0.01862677 -0.08213237
000020 40 1e d4 be 2e 5e 8d bf a4 84 58 bf 6f 70 a0 3e
       -0.4142933 -1.1044366 -0.84577394 0.3133578
000030 0e c0 90 bf e2 3c cc 3e e8 20 0e 3f ed 5b 29 be
       -1.130861 0.398902 0.5551896 -0.16538973

conv32.1.running_var f4 [16]
000000 b6 a1 f9 3e 32 19 01 3f c0 58 8f 3f db dc 3c 3f
       0.48756188 0.5042907 1.1198959 0.737745
000010 a8 56 2f 3f 71 21 82 3f 9f 17 55 3f 8c d7 2a 3f
       0.684916 1.0166456 0.8323917 0.6673515
000020 56 3b 7e 3f 4b bc 08 3f a0 1e 05 3f 84 b6 87 3f
       0.9930929 0.5341231 0.51999855 1.0602574
000030 33 97 88 3f a9 5b 18 3f 76 dc 27 3f 89 7d 0c 3f
       1.0671142 0.5951486 0.6557077 0.5487905

fc.0.weight f4 [10, 784]
000000 d0 c0 ed bd a7 c2 a5 bc 66 57 13 3e 20 22 f0 bd
       -0.11609042 -0.020234419 0.14388809 -0.11725259
000010 a5 2a 29 be fe d3 05 3e ce c4 91 bd d2 3c 38 bd
       -0.16520174 0.1306915 -0.07117616 -0.044979878
000020 36 0d 00 bd cc 02 47 bc 67 11 c4 3d 92 40 af 3c
       -0.0312626 -0.012146663 0.09573632 0.021393094
000030 0f 6a 5e 3d 6c 45 c2 bd 8a 70 69 3e 2b 5f da 3c
       0.054300364 -0.094858974 0.22796836 0.026656708
000040 f9 dc 12 3d 4a 99 ef bd fd 94 f3 3b 3e a6 ae bc
       0.035855267 -0.116991594 0.0074335323 -0.021319505
000050 bd 01 80 bc 81 3b 21 bc e9 ae b9 bc 51 2a 1a bc
       -0.015625829 -0.009840847 -0.022666411 -0.009409503
000060 65 ec c7 bd 9d aa 31 3d 41 9a 1b bc 87 d5 22 bc
       -0.097618856 0.0433756 -0.009497226 -0.009938604
000070 02 83 72 bd d8 d4 42 be e5 b7 57 be fd 15 1d be
       -0.05920697 -0.19026506 -0.21066244 -0.15340419
000080 3c cc f6 3c 84 7c be 3d 38 5e f3 3c b1 65 a7 3d
       0.030126683 0.09301093 0.029708013 0.08173693
000090 c3 8b 0b 3d c5 05 10 be b8 20 22 bd dd 10 9a bc
       0.034068834 -0.14064701 -0.039581984 -0.01880687
0000a0 ed 49 f1 3c 25 11 c4 3d 06 96 b6 bb db 57 09 3c
       0.029454196 0.095735826 -0.0055720834 0.008382763
0000b0 b2 f6 9c bc 56 fb 95 3c a5 8d cf bb 14 a7 33 3c
       -0.019160602 0.018308323 -0.006334024 0.0109651275
0000c0 e8 9d 2d 3d 99 78 4d 3d 09 60 99 3d 10 7b 27 3c
       0.04238692 0.05016384 0.074890204 0.0102222115
0000d0 c1 b0 cd 3c ad 2b b6 bd 71 86 52 bd a1 58 01 bd
       0.025108697 -0.08895049 -0.051397745 -0.031578664
0000e0 bf 21 55 bd de 37 e3 bd 27 ce f3 bd ca 17 f6 3d
       -0.052034136 -0.1109464 -0.11904555 0.12016256
0000f0 91 40 98 3d 97 78 5e be 8a 6d 9e bd 7a 07 2e bb
       0.0743419 -0.21725689 -0.07735737 -0.002655475
000100 c6 ad ca bd b0 a9 0f 3e 9a 38 b2 3c f5 af 26 bc
       -0.09896426 0.14029574 0.021755505 -0.010173787
000110 09 14 c9 bd 30 d8 93 bd af 5e ad 3c b8 ba 39 be
       -0.098182745 -0.07218969 0.021163313 -0.18137634
000120 5c 52 af bb 96 bd ec 3d 21 c9 b7 3d 9b 2e 26 be
       -0.005350394 0.11559598 0.08973909 -0.16228716
000130 3c af f5 bd 52 1f 13 bd f6 af 0f be 11 73 8b be
       -0.11996314 -0.03591854 -0.14031968 -0.27236226
000140 a4 43 84 be a3 95 46 3d f6 e1 3c 3e 5a 1d bb bc
       -0.25832856 0.04848255 0.18445572 -0.022841144
000150 c0 54 93 3d 4b d8 a2 3d f8 f4 26 be d6 cf 8b be
       0.07193899 0.07951411 -0.16304386 -0.27307004
000160 92 ca 9c bd bb 13 0f 3e 19 54 29 3d f9 0e 2a 3a
       -0.07655825 0.1397237 0.041339967 0.00064872165
000170 a8 aa c3 3d f2 a0 9f 3d 72 a7 94 3d f4 9a 1a be
       0.095540345 0.0779437 0.072585 -0.15098172
000180 46 70 0b be db 5b 57 be 40 63 9a bc 3d 60 2f bd
       -0.13617048 -0.21031134 -0.018846154 -0.04281639
000190 9d 2d 88 bd 51 6f 24 3e a9 72 52 be c6 72 cf bd
       -0.06649325 0.16058089 -0.20551552 -0.10129313
0001a0 30 ee 56 be 3b 90 09 bf 43 a3 a0 bd d1 37 ba be
       -0.20989299 -0.53735703 -0.0784364 -0.3637071
0001b0 83 88 a6 bd f2 2a 21 bd 1d 35 05 be 29 8a 80 be
       -0.08131506 -0.039347596 -0.13008542 -0.25105408
0001c0 6e 62 1e be 4a f0 54 be 7c 95 a8 bd 69 d5 b2 bd
       -0.15467235 -0.20794788 -0.08231637 -0.08732111
0001d0 0c dd 02 bd 9e 7f 83 bc 1b b6 69 be 30 63 e2 bd
       -0.031949088 -0.016052064 -0.22823374 -0.11054075
0001e0 48 7e 04 be a9 f6 a7 3c c7 a8 c4 3c 73 79 67 be
       -0.12938797 0.020503359 0.02400626 -0.22604923
0001f0 28 ea 45 be 52 ca a0 bd 1b 85 71 be 07 1e f3 bd
       -0.19327605 -0.078510895 -0.23585932 -0.11870962
000200 c6 f2 80 bd a8 5e 1a be 62 3a e4 bc 5d 27 0d bd
       -0.06296305 -0.15075171 -0.02785987 -0.034461368
000210 a3 d6 11 bb d3 c5 03 be 9f e9 bc bc 22 1e 32 bd
       -0.0022253178 -0.12868433 -0.023060618 -0.04348577
000220 e2 25 a5 bc de e2 8a 3c f9 ff 15 3c 7b 0f 9b 3d
       -0.020159665 0.016953882 0.009155267 0.07571312
000230 15 d4 8d 3c 7c b6 0c 3d 9d cb b2 3d fb b0 26 3d
       0.017313043 0.03435372 0.087302424 0.040696125
000240 e1 7e c7 3d 4d 49 3f 3c 27 f7 89 bc 4d 25 1b 3e
       0.09740997 0.011675191 -0.016841484 0.15150948
000250 b9 38 0b be 64 9a e8 bc a5 e6 5a bd 5d b1 78 bd
       -0.13595857 -0.028393932 -0.053442616 -0.06071602
000260 f5 30 f9 3c 17 e7 99 3c f5 fc 68 be d4 2b 8c 3d
       0.030418852 0.01878695 -0.22752745 0.06844297
000270 fa 7a fe bb 8d ea b0 bd 7c 6a 1d bd 6b 23 9a 3d
       -0.007766125 -0.08638487 -0.03843163 0.07526287
000280 ab 4f 41 3d 1b b1 79 bd 9f 70 59 3d 3e a6 c9 3c
       0.047195118 -0.060959917 0.05308592 0.024615403
000290 d5 92 e8 bd 72 4e 03 be a8 61 62 3c 02 e5 54 bd
       -0.11356131 -0.12822893 0.013817228 -0.05197621
0002a0 62 94 25 3c 2e 60 e1 3d 16 4d 51 bd 81 bf 7a bd
       0.010106178 0.11004673 -0.051098906 -0.06121779
0002b0 2e ff b9 bd 8c 71 36 bd fb c8 40 3e 77 21 1b 3e
       -0.09081875 -0.04454188 0.18826668 0.15149485
0002c0 6e 24 0e be e1 f7 cd 3d ba 6d ba 3d a4 05 3d be
       -0.13881084 0.10057045 0.0910296 -0.18459183
0002d0 68 52 9a 3c 3f 11 c5 3d 95 ff 35 3e d6 4b 61 bd
       0.018838122 0.0962243 0.17773278 -0.055003963
0002e0 38 cc 75 3c bd e7 05 3e 5d 72 82 bd dd 62 a4 bd
       0.015002303 0.13076682 -0.06369469 -0.08026669
0002f0 b8 c3 98 3c 73 e5 22 be ac bb 8a be 03 e5 8b be
       0.018648013 -0.1590784 -0.27096307 -0.2732316
000300 0a ba fd bc 72 09 97 3d c7 8d be 3c a1 9e 5f 3d
       -0.0309725 0.073748484 0.023260964 0.05459464
000310 1b fa 9f bc fe 76 96 3d 75 fd 00 bd df 7e d9 3c
       -0.01952844 0.07346915 -0.031491715 0.026549755
000320 23 2f 8a bc c1 d9 5b 3d 74 d2 7f 3a 16 7a e2 3c
       -0.01686818 0.053674463 0.0009758838 0.027646106
000330 85 7f c2 bd 93 c6 0f be 7e 47 3b 3d e3 36 5d 3d
       -0.09496979 -0.14040594 0.045722477 0.054007422
000340 69 11 da bd 68 93 12 ba 57 68 4f 3d 90 99 4f 3d
       -0.10647852 -0.0005591423 0.050636616 0.050683558
000350 ca 18 f4 bd 7b 7f 44 3c 56 64 c6 bb 8c 9c 3c bc
       -0.11918791 0.011993284 -0.0060544414 -0.011511933
000360 94 71 70 3c 1f cd a7 3d fe 22 eb bc a4 84 0e 3e
       0.014675517 0.081934206 -0.028703209 0.13917786
000370 6e 3f cb bc 2b 22 6a 3d 4b 1b 1f 3e 22 3e f9 bc
       -0.02481052 0.05716149 0.15537755 -0.030425135
000380 60 d9 59 3e 9d 46 b5 3e 70 19 c9 3d 3d d1 e7 bd
       0.21274328 0.35405436 0.09819305 -0.11319206
000390 1d 18 99 bc b0 69 a4 bd 26 1e 6a bc 13 00 4e be
       -0.018688256 -0.08027971 -0.0142894145 -0.20117216
0003a0 cd 6d cd 3b 88 f9 f1 be 04 b5 7f bd 1a 9d a2 3c
       0.006269193 -0.4726069 -0.06242849 0.019850302
0003b0 43 95 bd 3c a4 3b 50 3d ea 30 2d 3d 37 6a b8 3d
       0.023142463 0.050838128 0.042282976 0.09004634
0003c0 48 04 4a bc 6f a6 8d 3c 16 bc 1f be b0 80 64 bd
       -0.012330122 0.017291276 -0.15599093 -0.05578679
0003d0 c0 91 ac bc 20 29 47 bb ff 20 d3 3c 68 34 88 bb
       -0.021065593 -0.0030389503 0.02577257 -0.004156638
0003e0 c8 e7 86 bd 6d f0 28 bd a6 0a 7d ba 04 7d 12 be
       -0.065871775 -0.041244913 -0.0009652771 -0.14305502
0003f0 50 d3 43 3d 11 69 29 3d 5a cb 81 3d e8 40 29 be
       0.047808945 0.041359965 0.06337614 -0.16528666

fc.0.bias f4 [10]
000000 9a 02 e4 3c 8e 5b 06 3d 16 c1 c0 bc 85 09 a5 3c
       0.027833272 0.032802157 -0.02352957 0.02014614
000010 e6 8f aa bb a9 d1 26 bd 97 2d 1f bd ba a9 17 3c
       -0.0052051423 -0.04072729 -0.038861837 0.009256775
000020 41 2e 71 3d 3e 5a 22 bc
       0.058882 -0.009909211
