log/epoch-55.pth (torch_old, 43962 bytes, 32 tensors)

conv1.0.weight f4 [2, 1, 3, 3]
00000000: 9070 be3e b253 a63e 8d6e c93e abf7 093f
00000010: f9d5 843f 2034 1d3f f5da 853f 0253 5b3f
00000020: 686e da3e c3cc 0b3f 97b0 49bf 269c e8bf
00000030: c363 a8be e68c c5bf 4f55 a43d ade4 66bf
00000040: 451a f7be 41fb 7a3e
0.37195253 0.3248573 0.39342156 0.53893536 1.0377799 0.6140766 1.0457445 0.85673535
0.42662358 0.54609317 -0.7878508 -1.8172653 -0.32888612 -1.5433624 0.08024084 -0.9019268
-0.4826223 0.24509908

conv1.0.bias f4 [2]
00000000: 1f61 843f 98d2 a63e
1.0342139 0.32582545

conv1.1.weight f4 [2]
00000000: fb8d 9a3f ada5 a13f
1.2074579 1.2628685

conv1.1.bias f4 [2]
00000000: c853 243f feac 0d3d
0.6419034 0.034588806

conv1.1.running_mean f4 [2]
00000000: 6ad4 e23f e074 a9be
1.7721074 -0.3309698

conv1.1.running_var f4 [2]
00000000: 1742 0940 0de3 f93f
2.1446588 1.9522415

conv21.0.weight f4 [4, 2, 3, 3]
00000000: 98c3 283e 5659 a63e e69b 2abd 20df 8e3f
00000010: a7f5 3fbf 9b51 e8be b4e9 3e3f 3511 21bf
00000020: 4756 273d 6970 143f 255c 4fbe 2c75 ddbd
00000030: 20a4 51bf 9138 ae3f 25ac 713c ab41 72bf
00000040: 2def c03e e1a7 a7be 1d72 63be 057c 013f
00000050: f489 57be 0eb4 a13f 2a73 bebe 9834 12bf
00000060: 16a8 f5be cd33 04bf 01af d23e 5ccc 2bbc
00000070: 3aaa 6bbe a8ab ed3e 09de 8f3e b1d1 9a3f
00000080: 26fc 803f 0e4b 5b3c 52d3 073f a0f4 ddbe
00000090: 30c3 01be 3064 a23f 3d89 2d3f e184 a83e
000000a0: c08d 4a3f 2b2e ddbd 3be0 7c3e 1976 41be
000000b0: 1203 15bf a762 113e f93b 36bd 0105 a4bf
000000c0: 6887 0e3f c73c f7be 5445 9abf 567b 103f
000000d0: 9348 5ebf 799a 7ebf 5526 81be 6e65 a7be
000000e0: 69a9 e1be ca32 253f fb89 9d3f d511 ee3e
000000f0: f461 25bf aed2 5bbf ed9d 843e c3cd 223e
00000100: 1de9 8e3d 14f0 5dbb b981 a23d 368f 91bf
00000110: 05bf c9be 568f ce3d 1c5b d7be caad 05bf
0.16480863 0.32490033 -0.041652583 1.1161842 -0.7498421 -0.4537476 0.7457535 -0.6291688
0.040853765 0.57984024 -0.20249994 -0.108133644 -0.8189106 1.3611013 0.014750515 -0.9463145
0.37682477 -0.3274527 -0.222115 0.50579864 -0.21048719 1.2633073 -0.37197238 -0.571115
-0.47979802 -0.5164154 0.41149142 -0.010485735 -0.23014155 0.46420026 0.28099087 1.2095243
1.007695 0.013384594 0.53056824 -0.43350697 -0.12672114 1.2686825 0.67787534 0.3291388
0.79122543 -0.107998215 0.24694912 -0.18892707 -0.5820781 0.14197789 -0.044490788 -1.2814027
0.55675364 -0.48288557 -1.2052407 0.56438196 -0.8682949 -0.99454457 -0.25224558 -0.32694572
-0.44074562 0.6453062 1.2307733 0.4649798 -0.6460259 -0.85868347 0.25901738 0.15898804
0.069780566 -0.0033865022 0.07934899 -1.137183 -0.3940355 0.10085933 -0.42061698 -0.52218306

conv21.0.bias f4 [4]
00000000: 6c87 383e 9c91 4cbe 4f73 863f 822b 873f
0.1802041 -0.1997742 1.0503939 1.0560153

conv21.1.weight f4 [4]
00000000: 5c35 a53f 71e7 a93f 03b5 9c3f 07e0 9f3f
1.2906909 1.3273755 1.224274 1.2490243

conv21.1.bias f4 [4]
00000000: ddaa 0fbf 36d6 b0bc 05ba 973e 0fe9 763e
-0.5612009 -0.021586519 0.2963411 0.24112342

conv21.1.running_mean f4 [4]
00000000: c491 313f 2b35 893f 1a3f ac3f f078 9c3d
0.69363046 1.071935 1.3456757 0.076402545

conv21.1.running_var f4 [4]
00000000: 343d 9d40 e28e 3840 5ce8 6941 5598 0f40
4.913721 2.8837209 14.619228 2.2436726

conv22.0.weight f4 [4, 4, 3, 3]
00000000: a5f7 52bf 1bdd aebf 76fc 70bf 4a36 b6be
00000010: 144c 63bf fbd4 f5be e211 383e f0ac acbd
00000020: 7c6d 6abf 5057 283f 610e fe3e 5d75 1bbe
00000030: d41a d6be 1979 003f a5dc 923e e8e4 acbf
00000040: 44dc 2fbe 5e82 8dbd f489 0abf af50 683c
00000050: fb17 323e 5099 c8bc 1851 d4be 91b4 2fbe
00000060: 4fa6 973d 08ee ad3e a6c3 853e 60a2 9cbe
00000070: bbc2 0cc0 8601 dcbf eae6 9ebe 66e3 24be
00000080: 5149 403f faa7 853e 0e37 7b3d fd84 f73e
00000090: fc11 d1be 79a7 31bf 08b1 a43e 1c8c f23b
000000a0: 9b4c d5be 5bb1 b5be b179 11bf 440a 35bf
000000b0: 7d95 91bd 783a 34bf 7709 3dbf 5955 79bf
000000c0: a505 d33d 5d34 a8be 233f 68bf 371b 7b3f
000000d0: 2470 3f3e ad79 383d ac15 933f fecd ae3f
000000e0: 1fff 1f3e 788d 19be 2cd8 a6bd 65f0 2cbe
000000f0: 5501 f2be c2b0 27be 5bb8 453b b789 3abf
00000100: 27b3 173f 34a0 823f 4431 ff3d ed1e 993e
00000110: 569d 483f 9038 92bd 07bd d7bd 447b 0ebe
00000120: a958 f2be 2167 9abe d226 433f 54d4 52bf
00000130: 4f83 0f3e 8976 283f 86fe 123f 1929 a03e
00000140: b0da 3b3f 7cf2 833d 6a38 ac3d b244 ebbe
00000150: c188 fd3e 54a8 203f fcdb 20be bccd 233f
00000160: c683 8e3f b038 883d 9b74 a53e 152d 12bd
00000170: 252c 96be ebf2 dcbd 6fe0 203f a81f 863f
00000180: 9e2a 053f 34a7 993f 51b2 843f f69d 8fbd
00000190: 2be4 14bf c755 12bf 990c 43bf eda9 84be
000001a0: 3a8a 0abf fb49 bcbe 79c8 0d3e dfb8 aabe
000001b0: b208 9cbe 97fc a7be 14de f5be 2c2b 3cbf
000001c0: 8341 22bf 7bd1 2cbf c3c1 393f 4289 833e
000001d0: afbd e5be 5eac 833f 10a5 91be 27c6 333c
000001e0: ed5d a1bf e3ce dbbd 6276 213f 99bb 073f
000001f0: d1c1 65be e3f0 4b3b dd71 01be 0378 12bf
00000200: 06f3 7cbd f950 253f abf3 8d3e 06c8 51be
00000210: d3b7 713f 9eed 6c3e 9c3f e8be 6aa6 ab3d
00000220: 2710 183e 388f b83e 20a5 733e 74de 273f
00000230: a625 5e3f b371 733e 36dd 51bf ac2c 54bf
-0.82409126 -1.3661226 -0.94135225 -0.35588294 -0.8878796 -0.48014054 0.17975572 -0.08431423
-0.9157331 0.6575823 0.49620345 -0.1518149 -0.41817343 0.5018478 0.28683963 -1.3507357
-0.17173868 -0.06909631 -0.5411675 0.014179393 0.1739196 -0.024487168 -0.4146812 -0.17158724
0.07404768 0.33970666 0.2612583 -0.30592632 -2.1993854 -1.7187965 -0.31035548 -0.1610237
0.7511187 0.26104718 0.0613318 0.4834365 -0.40834033 -0.6939617 0.32166314 0.0074019562
-0.41660008 -0.35486874 -0.5682631 -0.7071879 -0.07108591 -0.70401716 -0.7384257 -0.97395855
0.10303811 -0.3285245 -0.9072134 0.980884 0.18695122 0.045037914 1.1490989 1.3656614
0.15624665 -0.14995372 -0.081467 -0.16888578 -0.4726664 -0.16376022 0.00301697 -0.72866386
0.5925774 1.020514 0.124605685 0.29906407 0.78365076 -0.07139695 -0.10534101 -0.1391421
-0.47333267 -0.30156806 0.7623111 -0.82355237 0.14014934 0.6580587 0.5741962 0.31281355
0.73380566 0.064427346 0.08409198 -0.45950848 0.49518397 0.6275685 -0.15708917 0.639858
1.1133964 0.06651437 0.32315525 -0.035687525 -0.29330555 -0.107885204 0.6284246 1.0478411
0.52018154 1.2004151 1.0366918 -0.070125505 -0.58160657 -0.57162136 -0.761911 -0.25910893
-0.54117167 -0.36775193 0.13846005 -0.3334417 -0.30475384 -0.32809898 -0.48020995 -0.73503375
-0.6338121 -0.6750714 0.7256128 0.25690657 -0.4487128 1.0286977 -0.28446245 0.010972536
-1.2606789 -0.1073282 0.6307126 0.53020626 -0.22437216 0.0031118921 -0.12641092 -0.57214373
-0.061755203 0.6457668 0.27724966 -0.20486459 0.9442112 0.23137519 -0.4536103 0.0838135
0.14849912 0.36046767 0.23793459 0.6557381 0.86776197 0.23773842 -0.81978166 -0.82880664

conv22.0.bias f4 [4]
00000000: caa7 243f 0279 1abe 3c18 2c3c c094 a6bd
0.64318526 -0.15085223 0.010503825 -0.081338406

conv22.1.weight f4 [4]
00000000: ddf4 da3f 4672 963f 3e6b 9b3f 1fa3 823f
1.7105976 1.1753623 1.2142103 1.0206031

conv22.1.bias f4 [4]
00000000: 1a92 7fbe f4d9 7f3e bc3f bf3e e56b bb3c
-0.24958077 0.24985486 0.37353313 0.022878597

conv22.1.running_mean f4 [4]
00000000: 5f53 28c0 cd2c 8bbd 1aa0 1c40 5f18 093e
-2.6300886 -0.067956544 2.4472718 0.13388203

conv22.1.running_var f4 [4]
00000000: dac8 ec41 1479 3a41 7304 5a41 a0ea f540
29.598072 11.65456 13.626086 7.6848907

conv31.0.weight f4 [8, 4, 3, 3]
00000000: b6e8 67be 0651 1bbe a9bf a53e d988 fb3d
00000010: c6f3 54be 166c 1b3f 456e ad3e f40c 673f
00000020: 8ec1 15be 6b32 553e bb29 243e 1424 35bf
00000030: 7a32 a7be a4c6 203f 1e9f ea3f c829 433e
00000040: a00c 1dbf 86f9 f23d c77f 02be 1ee3 613f
00000050: dde6 93bd 808a 1ebe 2bae 993e e7ff 61bd
00000060: e14f 153f 1567 b33d 65fd 2c3f 7b09 2abf
00000070: 7042 66bd b805 f1be 00be 1e3e 944e 11bf
00000080: 8460 b83e f9d8 823e ca98 cabe e98c 49bf
00000090: 7e81 363f 09be b73f b791 ad3e cc8e 62be
000000a0: 75db 02bf c233 a93d b398 683e ad11 d23f
000000b0: 4903 d33f a5a5 26be 6c45 26bd 15cb 3d3e
000000c0: 3f76 a73e 9208 0a3f b4de 373e b514 91bd
000000d0: 57a5 f1bc 6576 adbe 8847 44bf ff66 79bf
000000e0: a541 883d 0d94 3b3f ee81 4abe 0daf 94be
000000f0: 30e9 fa3e 39fa 35bf f118 f6be 5a13 2c3e
00000100: 2c47 83be ba1f 043e 6cd2 453f 2e3a 583e
00000110: 5911 873e d040 443f 8c0c ad3d 9b91 84bd
00000120: 41f8 b33d 8d68 b1be f558 80be b2cd 3a3f
00000130: 5b7a 333f b4d9 80bf 388d 633f 4f92 07bf
00000140: 7aab 77bf 3203 2c3e 1668 373f 465a bebe
00000150: 0527 623e bd4d 66bf d9ba cb3e 1cf9 7bbf
00000160: 9a24 bcbc f6e6 033f 2a38 e3be d3ff 6cbf
00000170: f7a2 e4bb 8996 4cbe d593 cc3f 4674 b5be
00000180: d12d 27bf 5586 4c3e 4870 273e a5d1 0d3f
00000190: 01e2 8bbe ebc8 18bf cf3f 1abe e1ba 7ebe
000001a0: d23d ec3e 8d69 053f 0634 e33d 0872 32bf
000001b0: b205 97be f328 423e 095d 9dbd 2e7c e7be
000001c0: 3f31 8fbf b8db 0a3f ab7f 69bd 9beb 77bf
000001d0: 0134 f7be 75d3 92bd 7f77 9ebf a29b 0c3f
000001e0: 3571 7d3f 8678 2a3f 4d07 3a3e f5c2 28be
000001f0: 4f79 4a3f 0837 1e3f 08a4 00be 6c2c 05bf
00000200: 4beb 95be 1a8d 333f ef2f c83e 42ba 75bf
00000210: 2075 b7be fff4 62bf 1d79 08bf 4e51 55bd
00000220: d630 173f 74eb 1e3f 7fc1 0d3f 4aff eabe
00000230: 2906 a8be 9f30 82bf 59b6 683d 0165 cdbe
00000240: 7ca1 9c3e 7d7b adbe 9bb8 f93d e8c7 c83e
00000250: 41df 4abe b681 22be 5d39 cebc 2f5f 453e
00000260: 5eba 9a3f b87a 8bbf 918e 673f 1a8d f6be
00000270: 53d7 8bbd aaca e3be 2af7 5bbf 4b33 c13d
00000280: 544e bebf cf8f 7abd 2be6 1ebe f19e a8be
00000290: 4e48 043f a2b3 843e 6922 c0be 6c42 013f
000002a0: cc42 693e b85f 90bf 3ab1 ffbc 33b6 4ebf
000002b0: 12a5 a8be 746d 9d3e 121e 9f3f ec66 393e
000002c0: 29e5 54be 64e3 12bf dd5b e1bc cdb9 943e
000002d0: 6229 b73d 0b40 2ebf 3bed 8e3f 1ff8 a8be
000002e0: c023 3bbe 367d babe 5c67 853d bcd6 16bf
000002f0: ed14 87bf 309a 26be 6a48 10bf 08b5 d0be
00000300: aa29 a93d ad74 bcbe b9c4 c5bd 3e40 a03e
00000310: 1817 0c3f dd10 d6be 0eff 7cbe 976a 8f3f
00000320: c786 113e 8b0b adbe c87c 873e 1c30 fbba
00000330: c665 fdbe 8ea5 ed3e 0a4e 293d 8ac6 fabc
00000340: b307 f6bf 31b3 75bd 3d46 36bf bdca 8fbf
00000350: ec34 193f 72ee d93d e4b6 10bf eeea 9fbe
00000360: 5e8e 3fbe e4e0 b7be b0ef 73bf d869 c7bd
00000370: c9a8 223f 2453 7cbe 53a6 1fbf 4ca5 623d
00000380: ce18 093f 5e4a 28bf 7d1d 9a3d 3c98 5ebf
00000390: 2d42 c6be 0ec6 eabd 76db 203f 0e40 ec3d
000003a0: e312 813e 4471 a23e ccc2 0cbf 306f 8cbd
000003b0: a03d a63e db07 b53f be92 9b3f 0181 3ebf
000003c0: d908 b5be 1a3c 0dbf 1aeb 1a3e aab6 2e3e
000003d0: 3e74 66bf 04eb a6be 46f2 44be 1924 0f3e
000003e0: 8714 a9be 7941 673e 3952 9b3e c56c 653f
000003f0: 8930 a83d 3bae e73e 0904 933f 88a7 0a3f
-0.22647366 -0.15167627 0.32372788 0.12281961 -0.20796117 0.607118 0.3387319 0.9025414
-0.14624617 0.20820014 0.16031544 -0.70758176 -0.32655698 0.628031 1.8329809 0.19058907
-0.6134739 0.11863999 -0.12744056 0.8823718 -0.07221768 -0.15482521 0.30015692 -0.055175688
0.5832501 0.08759896 0.6757415 -0.66420716 -0.056215703 -0.47074676 0.15502167 -0.56760526
0.36011136 0.25556162 -0.39569694 -0.78730637 0.7129134 1.4354869 0.33900234 -0.22124785
-0.51116115 0.08261825 0.227145 1.6411644 1.6485378 -0.16274126 -0.04059355 0.18534501
0.32707402 0.5391933 0.17956048 -0.07084028 -0.029497785 -0.3387939 -0.7667165 -0.97422785
0.06653146 0.7327278 -0.19776127 -0.29039803 0.49006033 -0.71084934 -0.48065904 0.16804257
-0.25640237 0.12902728 0.77274203 0.21115944 0.26380423 0.76661396 0.08449659 -0.064730845
0.08787585 -0.34650078 -0.2506787 0.72970116 0.70108575 -1.0066438 0.8888736 -0.52957624
-0.9674603 0.16798094 0.716432 -0.37178248 0.22085197 -0.8996237 0.3979099 -0.98426986
-0.022966672 0.51524293 -0.44378787 -0.92577857 -0.0069774347 -0.199793 1.5982615 -0.35440272
-0.65304285 0.19973119 0.16351426 0.5539802 -0.27320865 -0.59681576 -0.15063404 -0.24875976
0.46140915 0.5211418 0.11093907 -0.6970525 -0.29496533 0.18960933 -0.07683761 -0.4521193
-1.1186904 0.54241514 -0.05700652 -0.9684388 -0.48281863 -0.071692385 -1.2380217 0.54924977
0.99000865 0.66590154 0.18166848 -0.1648062 0.7909135 0.6180272 -0.12562573 -0.5202091
-0.29281077 0.7013718 0.3909907 -0.9598733 -0.35831547 -0.88655084 -0.53309804 -0.05207949
0.5905889 0.6207802 0.55373377 -0.45897895 -0.328172 -1.0171088 0.056814525 -0.40116122
0.30591953 -0.33883277 0.12193414 0.39215016 -0.19811727 -0.15869793 -0.025173837 0.19274591
1.2088125 -1.0896826 0.90451914 -0.48154527 -0.06828179 -0.44490558 -0.8592402 0.094336115
-1.4867654 -0.061172303 -0.1551749 -0.32933763 0.5167283 0.259183 -0.37526253 0.50491977
0.22779387 -1.1279211 -0.031212438 -0.80746764 -0.3293844 0.3074757 1.2431052 0.18105668
-0.20790543 -0.5737822 -0.027509624 0.29048005 0.0894344 -0.6806647 1.1166147 -0.330018
-0.18275356 -0.36423653 0.06513855 -0.5892141 -1.0553261 -0.16269755 -0.56360495 -0.40763116
0.082599 -0.36807767 -0.096566625 0.31299013 0.5472274 -0.4180974 -0.2470667 1.1204404
0.1421157 -0.3379787 0.26462388 -0.0019164118 -0.4949171 0.4641537 0.04133419 -0.030612249
-1.92211 -0.059985343 -0.71200925 -1.1233746 0.5984638 0.10641183 -0.5652907 -0.31233925
-0.18706653 -0.35913765 -0.9528761 -0.09736985 0.63538796 -0.2464109 -0.62363166 0.05533342
0.53553474 -0.65738475 0.07525156 -0.8695104 -0.38722363 -0.11463557 0.6283487 0.11535655
0.25209722 0.3172704 -0.54984736 -0.06857145 0.3246889 1.4143022 1.2154157 -0.74415594
-0.35358313 -0.5516983 0.15128747 0.17061868 -0.9002112 -0.32601178 -0.19233045 0.13978614
-0.33023474 0.2258357 0.30336168 0.89619094 0.08212382 0.45250115 1.1485606 0.5416188

conv31.0.bias f4 [8]
00000000: f596 e23e afee 6bbe 4093 c0be 07fa abbd
00000010: c76b 66be a657 4c3d b2d8 dfbe d8c3 0ebd
0.44255796 -0.2304027 -0.37612343 -0.08397298 -0.22502051 0.049888276 -0.43720013 -0.03485474

conv31.1.weight f4 [8]
00000000: a207 7c3f 6370 8f3f 87eb a73f 0622 b13f
00000010: 2f44 b33f 23be ab3f 323f b53f d685 d13f
0.98449147 1.1206173 1.3118752 1.3838508 1.4005183 1.34174 1.4159911 1.6368968

conv31.1.bias f4 [8]
00000000: dea7 323e 8022 f5bc f434 d83b cdd0 28bd
00000010: 55c0 86be 2332 b8bd 28e6 d83d bcf7 a6be
0.17446849 -0.029923677 0.0065981094 -0.041214753 -0.26318613 -0.08993938 0.10590774 -0.3261088

conv31.1.running_mean f4 [8]
00000000: 2d94 5140 1a66 2f40 d9b4 d2bf fb31 29c0
00000010: 39e5 2ac0 a234 6fc0 34d8 14bf 75db 59c0
3.274669 2.7406068 -1.646144 -2.6436756 -2.6702406 -3.7375875 -0.581424 -3.4040196

conv31.1.running_var f4 [8]
00000000: 52c1 0b41 03c7 5241 d17a 0d41 9dc7 8441
00000010: c4c0 4a41 e316 5041 4f7d 4241 f8b8 c241
8.734697 13.173587 8.842484 16.597467 12.672062 13.005588 12.155593 24.340317

conv32.0.weight f4 [16, 8, 3, 3]
00000000: b7df 7e3e 99bf 373f 9fe9 5dbd 62f8 01be
00000010: c236 69bf 420e 253f b48d acbe d638 b5be
00000020: 837b 8bbe 7648 96be 9761 91bf 3284 263d
00000030: 005a 8f3f cea4 08bd 6c6e f5be d2ec 8a3f
00000040: d950 433e 0cd5 9ebe 1baf 4fbf 1692 c53e
00000050: c2d2 c43e a291 403e 937a 07bd 0c3a 853f
00000060: 830e a53e aa31 c33e ffe8 c8bf e330 8d3e
00000070: 6e82 eebc 3b96 a1bd 11af 4d3e c446 fabd
00000080: d068 273d 3330 4ebd 28d0 8bbd 44b9 63be
00000090: 6060 4cbf 4334 7e3e 24fd 123f 1e3f ca3d
000000a0: 61db 1bbf 6943 20be 1d2d 4e3e e3bd ccbe
000000b0: 3a04 9ebf a839 bdbe 17c8 1abe 3555 a0be
000000c0: 9f8f d9be db9f 8cbf 02f4 c4bd 601f 953f
000000d0: 63fc 553f eff9 80be 65b7 41bf b883 9fbe
000000e0: d639 d03e 346a 21be 98e9 14be 3136 143f
000000f0: 0ecd 3ebe dfd6 283e 15f9 a3bf 5081 0f3e
00000100: e2be bb3e e684 cf3c c296 31bf ec9d 0ebf
00000110: 1bbc eabe bdf9 cebe 0c99 313d 997b dcbe
00000120: 9b9a 033e d3bb 9d3f 5c64 fe3e 9b15 e4be
00000130: e485 573e 8125 f33e 6044 5bbf 495b d6be
00000140: 7bb5 66be a8a5 c13d 4c3b 34bf f140 e5bd
00000150: e726 a13d 95b4 f43e 9fe7 b83d 5ffa 89bc
00000160: f4b4 253f c492 b33e cf66 eb3d 267e 0e3e
00000170: 0985 b4bf eb10 0abf 1486 493e 5a1e 573f
00000180: 5dc6 883e 3cbf a5be 1ba1 47be e94b adbc
00000190: fafa fbbe d222 0b3d 2eee 42bf 75b6 833f
000001a0: ce4b 84bf 7051 86bf 8e25 23be 96d7 aebe
000001b0: 4735 c43e 9712 f23d 34ad 88bf 2542 5f3e
000001c0: 2fbd 1f3f 3dea febe d98d 1b3f a1fe bb3e
000001d0: 0871 ad3e 8f14 2b3f 4675 43bf 0694 733e
000001e0: 4f16 6dbf 9622 59bf 6f0d 02bf d79c a23e
000001f0: 423a 10bc efee 19bf 3f50 49bf a6d7 7b3e
00000200: adfa 933e d630 073e fd11 873d bdd9 3e3e
00000210: 4b77 a33b 9ea9 0d3e 96bd 0f3e 232b 6a3f
00000220: 7d0f 003e 749c 14bf 1054 64bf 3678 523e
00000230: bbb3 e5be a7a2 b73e 60b8 223e f629 6ebe
00000240: e198 e6be 0d2e b13e c9ec e53e 1309 6abd
00000250: 92a5 563f 006f 17be fafa 3dbf 4ffb 24bf
00000260: 1d7c 2fbf a8f1 18be cbe4 623c f188 c23f
00000270: 2c01 0c3f a190 1c3e 211f 15bf c30e e1bd
00000280: d4d2 91bf c0c7 bdbe 4fb1 cabd b511 9abe
00000290: 8abc 043f 38b2 0bbf 2146 50bf e622 44bf
000002a0: d464 9bbe 5151 523e 5f6c 0d3f 8403 f8be
000002b0: 9879 aebe 9300 683e eccc 4f3e a50d df3e
000002c0: 0369 f5be a3d8 01bf e749 77bf cdf7 cfbe
000002d0: 69c3 6bbf 5b83 0bbe 4c5d 57bf 63e6 0d3e
000002e0: 6e9b fc3e 5671 29bf 8e74 283f 8c0b 3d3e
000002f0: c022 003f de42 cf3e 8ab6 273e 30ec 8f3f
00000300: bdb9 aabe 4e36 35bf f4d9 63bf 21a0 a9bc
00000310: 901e c0be 6166 b2bd 6dce ea3e a682 b43e
00000320: f7d2 043f e5bd c13d cbdc 393f 5649 37bf
00000330: a54c 9fbf c19f f9be 9aa1 063f ddcc 13be
00000340: 41c5 0fbf 3e16 2c3e 66a4 4d3c b733 353d
00000350: 7620 e5be 9e58 32bf fe09 eb3e 18a4 a2bd
00000360: b93b 1fbf 72eb 61bf d8d9 da3d 8ef2 1a3e
00000370: cbef bb3e 568f 0a3e e539 23bc c269 8abf
00000380: 8861 8abe 5420 053e 06a9 273e 5471 2fbf
00000390: eee6 1fbf 1d93 0fbf cc06 9f3d 8034 28bf
000003a0: 74aa a9bf da5a 733f f826 ef3e 44a2 bfbd
000003b0: c066 9cbe f12d 853f 80e8 113d 0540 4abe
000003c0: 0a05 dbbe cd7b 32bd ede0 53bf 4c03 ae3e
000003d0: a32f fe3e 98f9 a8bf 15cf d2be 5767 e1bc
000003e0: 5874 19bf 60a3 55be 9f48 d1be fc9b b73d
000003f0: 18eb 17be d053 90be 45e8 e5bc 41c3 443f
0.24890028 0.7177673 -0.054177877 -0.12692407 -0.9109918 0.6447488 -0.3370186 -0.35394925
-0.2724267 -0.29352158 -1.1357907 0.040653415 1.1199341 -0.033360295 -0.47935808 1.0853522
0.1907381 -0.31021917 -0.81126565 0.38588017 0.38442045 0.18805555 -0.03307588 1.040834
0.32237634 0.38123828 -1.5696105 0.2757636 -0.029114928 -0.07889982 0.20086314 -0.12220529
0.04087144 -0.050338935 -0.06826812 -0.22238642 -0.79834557 0.24824624 0.5741751 0.0987532
-0.6088162 -0.15650715 0.20134397 -0.39988622 -1.234504 -0.3695805 -0.1511539 -0.31315008
-0.42492387 -1.0986284 -0.09616853 1.16502 0.83588237 -0.25190684 -0.7567046 -0.3115518
0.40669125 -0.1576317 -0.14542234 0.5789519 -0.1863291 0.16488217 -1.2810389 0.14014173
0.3666907 0.025331926 -0.69370663 -0.5570972 -0.45846638 -0.4042491 0.043358847 -0.43063048
0.12851946 1.2322944 0.49685943 -0.44547734 0.21047169 0.4748955 -0.85651207 -0.4186652
-0.22530167 0.094554245 -0.7040298 -0.11194027 0.07868748 0.47794023 0.09028553 -0.016843019
0.6472924 0.3507291 0.114942186 0.1391531 -1.4103099 -0.53932065 0.19680053 0.8403069
0.2671384 -0.32372463 -0.1949505 -0.02115436 -0.49214917 0.033968754 -0.76144683 1.0290056
-1.0335634 -1.0493603 -0.15932295 -0.34148854 0.38321897 0.11819952 -1.0677857 0.21802576
0.62398046 -0.49788085 0.6076332 0.36717704 0.33875299 0.66828245 -0.7635082 0.23786935
-0.92612165 -0.848184 -0.5080175 0.31760284 -0.008802952 -0.6013021 -0.7863807 0.24593982
0.28902188 0.13202223 0.06595228 0.18637748 0.004988586 0.13834235 0.14037165 0.9147207
0.12505908 -0.5805123 -0.8919077 0.2055367 -0.44863686 0.3586628 0.15890646 -0.23258194
-0.45038512 0.34605446 0.44907215 -0.05713756 0.8384639 -0.14788437 -0.74211085 -0.64445966
-0.68548757 -0.14935935 0.013848494 1.5198041 0.5468929 0.15289547 -0.58250624 -0.10989144
-1.1392465 -0.3706646 -0.098971 -0.30091634 0.5185019 -0.54568815 -0.8135701 -0.7661575
-0.30350363 0.20538832 0.55243486 -0.48440182 -0.34077144 0.22656469 0.20293015 0.43565097
-0.4793168 -0.50721186 -0.9659714 -0.40618744 -0.9209505 -0.13624327 -0.84126735 0.13857417
0.49337333 -0.6618856 0.6580285 0.18461436 0.50053024 0.40480703 0.16378227 1.1243954
-0.33344832 -0.7078599 -0.89004445 -0.020706238 -0.37523317 -0.087109335 0.45860615 0.35255927
0.51884407 0.09460048 0.7260253 -0.71596277 -1.2445265 -0.48754695 0.52590334 -0.14433618
-0.5616036 0.1680536 0.012551403 0.044238772 -0.44751328 -0.6966647 0.4590606 -0.07941455
-0.62200505 -0.88249886 0.10686082 0.1513159 0.36706385 0.13531241 -0.009962534 -1.0813525
-0.27027535 0.13000613 0.16373071 -0.685323 -0.62461746 -0.5608385 0.07764968 -0.6570511
-1.3255143 0.95060503 0.46709418 -0.093571216 -0.30547142 1.0404645 0.03562212 -0.19750984
-0.42777282 -0.043575097 -0.82765085 0.3398689 0.4964572 -1.320117 -0.41173616 -0.027515097
-0.5994315 -0.20863104 -0.40875718 0.089652985 -0.14835775 -0.28188944 -0.028064856 0.76860434

conv32.0.bias f4 [16]
00000000: fc4d 723e bd12 38be 56aa 4c3e 1fdd a6be
00000010: 797a 0fbe 24b8 6e3e 6af5 743e b0ec 93bd
00000020: 773c debd 94fc acbd 2058 85bd 1d07 e43d
00000030: 7b83 523e a092 053d abeb 58bd 53e3 133e
0.23662561 -0.17975898 0.19986853 -0.32590577 -0.14011563 0.23312432 0.23921743 -0.07222879
-0.108513765 -0.08446613 -0.06510949 0.11134169 0.20557968 0.032610536 -0.052959125 0.14442186

conv32.1.weight f4 [16]
00000000: 99be ae3f eef0 b83f 95e9 ba3f 1642 f13f
00000010: b1a4 bc3f d340 c03f 0fb6 cf3f 9a4a d23f
00000020: fec3 bb3f 3631 ba3f 2de4 cd3f 5719 c13f
00000030: def4 bd3f 2270 bf3f 5094 b83f 0085 cb3f
1.3651916 1.4448526 1.4602534 1.8848293 1.473776 1.5019783 1.6227435 1.6429017
1.4669187 1.4546268 1.6085259 1.5085858 1.4840353 1.4956095 1.4420261 1.5899963

conv32.1.bias f4 [16]
00000000: 4cd5 17bf e18f 03bf 8997 08bf 3c78 84bf
00000010: 9ba4 0cbf 05a1 11bf 600f 00bf 29bd 50bf
00000020: a5a4 18bf 481c 09bf 7b5f 51bf 38a7 17bf
00000030: 5271 54bf 69d1 35bf 4931 53bf a7f9 4ebf
-0.5930984 -0.51391417 -0.53356224 -1.0349193 -0.5493867 -0.5688632 -0.5002346 -0.81538635
-0.5962623 -0.5355878 -0.81786317 -0.5923953 -0.82985413 -0.7102266 -0.8249708 -0.8084969

conv32.1.running_mean f4 [16]
00000000: 68d4 0fc0 9809 cfbf d4d2 26c0 bf2a 0ac0
00000010: b41f 2ac0 f006 1a40 e23b 67bf b515 1dc0
00000020: bfa9 03c0 ad50 9cc0 cd72 8dc0 43ea ef3f
00000030: 51f7 aec0 8064 d0bf 4ef5 cc3f e06b 08c0
-2.2473392 -1.6174803 -2.606618 -2.158859 -2.658185 2.4066734 -0.9032575 -2.45445
-2.0572355 -4.884848 -4.420264 1.8743366 -5.46769 -1.628067 1.6012361 -2.1315842

conv32.1.running_var f4 [16]
00000000: a3bb 0141 f6a1 3041 7ac0 7941 a399 3741
00000010: b27e 2a41 7f1c 5341 c6ba 4141 cdae 4841
00000020: c2d2 5441 d231 0b41 f605 2641 6ca4 2e41
00000030: 9d2a 3441 5420 3a41 0a42 1b41 7142 4e41
8.10831 11.039541 15.609491 11.475009 10.655931 13.194457 12.108099 12.542676
13.301455 8.699663 10.376455 10.915142 11.260404 11.632893 9.703623 12.891221

fc.0.weight f4 [10, 784]
00000000: 1545 90ba 51ed f93f 44ae 96bd 065b d2bd
00000010: 9fba b73e c356 573e 2230 82be 3c8f e4be
00000020: aa26 2f3e 2918 f4be f47f b43e 44dc ec3e
00000030: 89a3 59be dc70 d2be 7918 423f f53b bf3e
00000040: fdc5 3bbe b95f 72bd 9079 9bbf cde5 30be
00000050: 0077 d73d 5955 d8be a136 093e 64d3 40be
00000060: 40c7 a93e 1137 363c ef3c a33e 4310 e7be
00000070: d2ef c7bf 32a5 e4bd b66e 59bf 2a51 27bf
00000080: 4c62 41be f939 a03e 7425 4dbf ad80 4e3f
00000090: 58f2 603f 4be3 58bf 7cbf 8cbf 258c ae3e
000000a0: 3a68 873f 2f90 e2be 35ae 36be 5963 c13e
000000b0: 229b 34be 1132 2c3e a6f1 863d 14d1 2a3e
000000c0: 0c53 14be 8396 7f3e c4ea 103f 64a0 683e
000000d0: b2ab 943d ce18 eebe eace a73e 8048 e5be
000000e0: 027b 67be 75e3 6dbf 99e7 98be fcb6 be3e
000000f0: 7fe7 ce3e 5b10 72bf e0e3 99be a8be 2e3e
00000100: 79a8 153e 3a8e 5c3e 34a1 6e3d 68cf 4cbc
00000110: ec2e 9a3d 019d dfbc 4f8d 15bf 1af5 72bf
00000120: 4231 a13d 73ee 833e d5ac 833e bbe1 89bf
00000130: 7ca0 dfbe 2968 22bf 542c 00bf 3e33 6fbf
00000140: 961d f4be 0d78 7e3e 303f 9d3e b591 87bd
00000150: 9a46 913e 4acc db3e da3c 1ebf 47e8 763e
00000160: 2bf4 693e cfb0 563e 0658 003f a8e1 7dbe
00000170: af03 b93e e46c ca3e f04c 513f 6ed1 5dbe
00000180: 4aa1 da3d adbc 363e 9630 51bf 9280 28bb
00000190: dae0 87bd c759 9d3e 56b8 703f ede7 1c3f
000001a0: 5586 81be b062 1ebf 48dd bb3e e931 aebf
000001b0: 1541 5ebd 4552 9dbf 84b9 29bf f944 8ebf
000001c0: fea5 173f 46a6 55bf 9de0 08be 648d acbe
000001d0: 3dee ffbe 0723 4abe 1040 e0be 8076 4cbf
000001e0: 06e3 11bf f1d7 06be eb8c 1a3e 3e09 4b3d
000001f0: 1e41 30bf 2a99 debe 9ca5 f4bf 76a3 95bf
00000200: 096a e0be c8c7 18bf 9aed 303f c431 7f3f
00000210: bd6a db3e b112 6abf 6b45 c1be 8869 47bf
00000220: 1e83 f6be f7b4 623e 0fa1 4a3e dff2 a73d
00000230: d84b 87bb 22d6 bebd e419 853e 43d9 263e
00000240: 21e5 f73e de26 413e 7b07 c2bc 0ffb 9dbe
00000250: 7202 b13e 1986 86bf 56c1 eebe f8e7 96bf
00000260: 1e2b 883e 3ed4 8d3e f3d4 86bf 8ce0 f8be
00000270: 766a 683e f84f 00bf 70ad 49bd 4cc3 0e3e
00000280: 1d1b 163f a1e1 493f e013 4dbe 8c93 013e
00000290: 60d6 d3be 408a edbc 1b74 10be 7bbe 8dbf
000002a0: 10f7 b93e e9ed 3a3e 5aac c8be ccbc 4fbe
000002b0: 4423 8cbf fe4e b8bf 4a3b 993e 2bf5 2d3f
000002c0: 1376 52bd 7956 f43d d1ad 3d3f 8866 89be
000002d0: 33fb cbbd 9eba 523e ed7c 483e 7060 c33e
000002e0: f13b 293f 50e3 a43f a0c8 11bf fc36 72be
000002f0: cca7 10be a25a bcbe a29f d33e 6c55 4dbf
00000300: d7c0 c1be 2789 a1be fbf6 633e 84cf d03a
00000310: 3061 b83d 387d f63e 01d9 3d3e eb34 72be
00000320: 791a 023e 75f8 353d cc11 22bd c684 ba3e
00000330: 00dc 5dbe bf03 6bbf 4b7a 003f b010 6dbe
00000340: 60d4 7abe b252 003e 6de9 5b3e b8c1 983e
00000350: 97b1 43bf 1167 49be eb33 e1be df57 4ebe
00000360: 629b 63be 6a8f 423f 9a93 c6bd 6142 d8bd
00000370: 3a9b 8fbe 7fb6 81bd 6894 f13e 478e 9ebd
00000380: 3549 803e c5a8 e63e 99e7 543d ba84 1ebd
00000390: 278b 9ebe ec2d 243e ddce 88bf e8b4 1d3f
000003a0: deeb b23e 3a7b 31be e1ad 07bf a8fb 853f
000003b0: 8ed0 c5bd 4ca6 563b 0787 d1be 8c0a 86bf
000003c0: dde0 013f 17bb 9ebd 025b b5be 1f53 9abe
000003d0: 7438 9ebe 03b3 0d3e 2f0e bc3e ed94 393f
000003e0: c6af 01bf bcc3 aa3e 60f3 79be 4259 a33e
000003f0: fd83 0a3f bec9 fa3d 235c 1a3f bb16 b0be
-0.0011006916 1.9525548 -0.07357457 -0.102712676 0.35884568 0.2102919 -0.25427347 -0.4464053
0.17104593 -0.47674683 0.3525387 0.462618 -0.2125379 -0.4110173 0.7581859 0.3735043
-0.18337245 -0.05917332 -1.2146473 -0.17275162 0.10520744 -0.42252615 0.13399746 -0.18830639
0.33159828 0.011121527 0.31882426 -0.45129594 -1.5620062 -0.11164321 -0.84934556 -0.6535822
-0.18885154 0.3129423 -0.80135274 0.80665094 0.8786979 -0.8472182 -1.0995936 0.34091297
1.0578682 -0.44250628 -0.17839892 0.3777111 -0.17637303 0.16815974 0.065890595 0.1668132
-0.14484805 0.2495976 0.56608224 0.22717434 0.07259311 -0.465033 0.3277505 -0.44781876
-0.22605518 -0.92925197 -0.29864195 0.3724898 0.40410993 -0.94556206 -0.30056667 0.17064917
0.14615048 0.2153863 0.058259204 -0.012500621 0.07528481 -0.027296545 -0.58418745 -0.94905245
0.07870723 0.2576786 0.25717798 -1.0772012 -0.43677127 -0.63440186 -0.5006764 -0.93437564
-0.47678822 0.24850483 0.3071227 -0.06619588 0.28374177 0.42929298 -0.618116 0.24112044
0.22847049 0.20965885 0.50134313 -0.24793112 0.36135623 0.39536202 0.8175802 -0.21661922
0.10675295 0.17845412 -0.8171476 -0.00257114 -0.06634684 0.30732557 0.94031274 0.6129139
-0.252978 -0.61869335 0.36692262 -1.3608981 -0.054261286 -1.2290732 -0.662987 -1.1114799
0.5923766 -0.8345684 -0.13366933 -0.33701622 -0.4998645 -0.19739924 -0.43798876 -0.79868317
-0.56987035 -0.13168313 0.15092818 0.04956936 -0.6884936 -0.4347623 -1.911304 -1.1690509
-0.43830898 -0.5967984 0.6911255 0.9968531 0.42854872 -0.9143477 -0.37748274 -0.778954
-0.4814691 0.22139345 0.19788001 0.08200621 -0.0041289143 -0.09318186 0.25996315 0.16293816
0.48417 0.18862483 -0.023685208 -0.30855605 0.34572178 -1.0509673 -0.4663188 -1.1789541
0.26595396 0.2770099 -1.0533737 -0.48608816 0.22696862 -0.5012202 -0.04923767 0.13941687
0.5863512 0.7885991 -0.20027113 0.12653941 -0.41374493 -0.028996587 -0.1410679 -1.1073755
0.36321306 0.18254818 -0.39193994 -0.20286864 -1.0948262 -1.4399107 0.29928046 0.6795222
-0.051382136 0.11930556 0.7409335 -0.26836038 -0.09960022 0.20579001 0.19578905 0.38159513
0.6610709 1.288187 -0.56946754 -0.23653787 -0.1412651 -0.36787897 0.41332728 -0.8020847
-0.37842438 -0.3154995 0.22262184 0.0015930985 0.09002912 0.4814241 0.18539812 -0.23652999
0.12705411 0.0444264 -0.039567754 0.36429423 -0.21665955 -0.9180259 0.50186604 -0.23150897
-0.24495077 0.12531546 0.21475764 0.29835296 -0.76442856 -0.19668223 -0.43984923 -0.20150708
-0.22227243 0.7600008 -0.096961215 -0.10559536 -0.28048116 -0.063336365 0.47183537 -0.07741981
0.25055853 0.45050636 0.05197868 -0.038700797 -0.3096554 0.16033143 -1.068813 0.61604166
0.34945577 -0.17332163 -0.52999693 1.0467424 -0.09658919 0.003275293 -0.4092333 -1.0471969
0.5073374 -0.07750528 -0.35420996 -0.3014154 -0.30902445 0.13837819 0.3672957 0.7249287
-0.50658834 0.33352458 -0.24409246 0.31904036 0.5410765 0.122455105 0.6029684 -0.34392342

fc.0.bias f4 [10]
00000000: 7d4c d8bd dd83 073e 8d87 0abe 111d 903d
00000010: a306 9b3d b951 e8bd a7c0 01be cc69 3dbd
00000020: 9982 8d3e 97dc 98bd
-0.10561464 0.13233896 -0.13528271 0.07036794 0.07569625 -0.11343712 -0.12671147 -0.046243474
0.276387 -0.07463949
